trained_models/ConvNet2_ep=500_lr_0001.pth (torch, 986503 bytes, 10 tensors)

conv1.weight f4 [128, 3, 3, 3]
00000000: 80ec 733d b441 ea3d d71e 8cbe ddfb 7e3e
00000010: 86f2 0ebe 0c13 fabb f40b 8f3e 3421 f93d
00000020: e5a7 2dbe b247 e43d 7d29 36bb 93d1 97be
00000030: e6a8 8a3e fe01 6cbd a324 ccbc fd1a ed3c
00000040: 1e30 e63d a3fd 16be dd06 9c3d 4064 823e
00000050: 3b25 a3be b840 ad3d 349e 02be e897 b1be
00000060: 3c8e c73c 2644 2abd 6974 84be ba23 fe3d
00000070: 0567 283e 7dc1 1e3e 88cc b53c dc98 3abd
00000080: d3cb 2d3e fc8e 12bd 0747 3e3e e314 433e
00000090: 2d02 ffbd 3327 35be 1acd 0ebe e325 433e
000000a0: 6a30 943d 54d6 54bd fdba 2b3e a06c 41be
000000b0: 3890 05bd 8669 d03d c8b2 c2bd 36eb d93d
000000c0: b2a7 853d 8075 8cba 721d 83bd 3220 e33d
000000d0: 57ef e9bd dffb 2c3e 90ff 013e 9376 f3bc
000000e0: a0ff 46be ae25 813d d9b9 6fbd 8caf 1cbd
000000f0: a9e6 f2bd b719 e4bd cbef 013d 5ef0 133e
00000100: d7f5 4a3e 3581 713d 6c80 3d3e 3e02 c4bd
00000110: 660c aebd dadd 4cbd a35f ca3d 6c88 853c
00000120: 26f5 f7bd f34f 113e df65 febd f019 3b3e
00000130: a755 c9bc d1c6 bdbc da06 303e 4ff1 0fbe
00000140: dac9 49be a38a 4c3e bab7 e7bd c342 7bbe
00000150: cce9 b4bc 99c3 c9bd 6925 26be 18ac 1e3e
00000160: 3584 5f3e 1f13 2bbe b90f 853d 47e5 7bbd
00000170: bebd 96be f69d 243e d75c d4bd 3682 76be
00000180: c83a 963d 7d8c 9f3d a121 9fbe 704d e93d
00000190: 1308 953d a448 d7bd bd9f 7abc c8e8 793e
000001a0: c428 a7be 71d0 b83d d068 193e a315 50be
000001b0: c5d9 043e 5629 963d 2369 90be 3f41 47bd
000001c0: e36f 09bd 06a2 9bbe 7e3e 3e3e 6969 cb3c
000001d0: b2b5 8fbe 2322 3c3c be81 91bd ae3c 64be
000001e0: e637 d83b 014b 5d3e a97e 25be f7fa f53c
000001f0: 6f69 6b3e 89ea 2abe 42eb afbd 72b2 dbbd
00000200: b882 99be c26c b03d f857 403e 38d8 33bc
00000210: 5453 9f3c ac2e 6c3d ca9b 88be 73c1 8cbd
00000220: 87ef 2abe abde 2b3e 73f5 aa3d 894e 973d
00000230: 4884 e6bd 1f7a 4b3d d92c e43d 2bc9 55be
00000240: 92cd 0abe 15ee bdba d597 4fbe 2b37 813d
00000250: 3d24 5b3d 64fb 713c ece8 14bc a845 b9bd
00000260: 970d 283e 7baa 553d f709 333d 75e6 003e
00000270: 15ab 193e a91b 04be 5749 a6bc 4b5b 443c
00000280: 2177 0b3e 2849 0abe a84e 933c b035 823c
00000290: 3e30 ea3d 3f35 14be f4d9 833d 06e4 1bbe
000002a0: 8ceb 253e b3d9 293d 7659 bfbd 4260 a4bd
000002b0: 9242 e23d 3905 363e 8254 3bbe 0363 443e
000002c0: 7f58 a73d c0eb 70bd ed2e 203e ee94 b13c
000002d0: 2f00 203e 704c 8cbc 02bb e23d c123 2f3e
000002e0: 54d8 32ba eb03 e83d 8560 cebd 1c15 f3bd
000002f0: 3ace 2cbc 0565 ef3d 85c0 5a3e e115 f2bd
00000300: bae6 d23d 1e2f 2cbd 793f 043d 4b50 d3bd
00000310: 9de3 e7bd cf22 a73d 8f42 09be ed3e d4bc
00000320: 4743 4abe 25d2 cbbd af04 b2bd 35c3 b73d
00000330: 206e 3e3e f0cd af3d b587 12be ecac 503d
00000340: 6f42 f7bd 5b14 15be e7e4 033e 6238 dcbd
00000350: 8486 87bd 46b0 df3d 79f1 a23d 18ee 3cbe
00000360: aafd 3dbe bba5 043e 1040 6cbc fb0f d93d
00000370: adc9 3e3e 766d 3ebe dbc4 843d 03d4 19be
00000380: ddf5 b0bd 0044 e1ba e2ca d03d d05f dfbc
00000390: e263 123e 3b2d 183e 48d5 5ebd 8f26 b73c
000003a0: 65ca 75bc 0636 2fbd ea6f d93d f513 003e
000003b0: 0010 08bd 00df f33b 7281 84bd eaf8 0e3e
000003c0: cf0d e1bd 69ed fcbd 7e3a 08be b6d9 7a3d
000003d0: 45f6 0dbe eb9c 57be 305b 913d 4584 c1bd
000003e0: de1d 94bd 0909 c1bd f99f a73d 6c81 c43c
000003f0: 3d7b f73d 4798 cf3d 528b 5dbe 40d3 c73d
0.059551716 0.11438313 -0.2736728 0.24900766 -0.13959703 -0.007631665 0.27938807 0.12164536
-0.16958578 0.11146487 -0.0027795725 -0.2965208 0.27081984 -0.057619087 -0.024919813 0.028943533
0.112396464 -0.14745192 0.076184966 0.2546711 -0.31864342 0.0845961 -0.12755662 -0.34686208
0.024359815 -0.041568898 -0.25870064 0.12409158 0.16445549 0.15503497 0.022192255 -0.045555934
0.16972284 -0.03578089 0.18581782 0.19050936 -0.12451587 -0.17690735 -0.13945428 0.19057421
0.07235797 -0.05196221 0.16770549 -0.18889093 -0.03260824 0.10176377 -0.09506756 0.10640566
0.06526126 -0.001071617 -0.064021006 0.11090125 -0.114226036 0.16892956 0.12695146 -0.029719627
-0.1943345 0.06306015 -0.058526848 -0.038253352 -0.11860401 -0.11137717 0.031722825 0.14447162
0.19820343 0.058961112 0.1850602 -0.0957074 -0.084984586 -0.05001626 0.098815225 0.016300403
-0.12107305 0.14190654 -0.12421774 0.18271613 -0.024576975 -0.023166092 0.17190114 -0.14056896
-0.19705907 0.1997476 -0.1131434 -0.24537186 -0.02208414 -0.098517604 -0.16225208 0.15495336
0.21827777 -0.16706513 0.064971395 -0.061497953 -0.29441637 0.16075882 -0.1036927 -0.24073109
0.073354304 0.07790468 -0.31080344 0.11391723 0.07276931 -0.10511902 -0.015296874 0.24405205
-0.3264829 0.09024132 0.14981389 -0.20320754 0.12973697 0.07332103 -0.28205213 -0.048646208
-0.03355397 -0.30397052 0.18578526 0.024830537 -0.2806831 0.011482748 -0.071048245 -0.22288772
0.0065984605 0.21610643 -0.16161598 0.030026896 0.22989438 -0.1669103 -0.08589794 -0.10727395
-0.29982543 0.08614494 0.18783557 -0.010976844 0.019448914 0.057661697 -0.26681358 -0.06872835
-0.16692935 0.1678416 0.08347597 0.07388026 -0.112556994 0.04967701 0.111413665 -0.2087752
-0.13554981 -0.001449051 -0.20272763 0.063093506 0.053501356 0.014769409 -0.009088736 -0.09046489
0.16411434 0.052164536 0.043710675 0.12587912 0.15006669 -0.12901177 -0.020298643 0.011984657
0.13619663 -0.1350447 0.017981842 0.01589474 0.11434983 -0.14473437 0.06438056 -0.15223703
0.16203135 0.04146738 -0.09343235 -0.08026172 0.110478535 0.1777543 -0.18293956 0.19178395
0.08171176 -0.05881858 0.15642901 0.02167746 0.1562507 -0.017126292 0.11070825 0.17103483
-0.00068223965 0.11328872 -0.100770034 -0.11869261 -0.010547215 0.1168919 0.21362503 -0.11820579
0.10297914 -0.042037122 0.032287095 -0.10318049 -0.11322711 0.08160936 -0.13404296 -0.025908912
-0.19752227 -0.09952191 -0.086922996 0.0897278 0.18596697 0.08584201 -0.1430958 0.05094616
-0.12073218 -0.14558546 0.12880288 -0.10752942 -0.06617454 0.10922293 0.079562135 -0.184502
-0.18553796 0.12953846 -0.014419571 0.10598751 0.1863162 -0.18596444 0.0648286 -0.15022282
-0.08640645 -0.0017186403 0.10194947 -0.027267367 0.14295915 0.14861004 -0.05440262 0.022357253
-0.015001868 -0.04277613 0.10617049 0.12507613 -0.033218384 0.007442355 -0.06470002 0.1396214
-0.10988962 -0.1234997 -0.13303563 0.06124278 -0.13863476 -0.21055953 0.07097471 -0.094490565
-0.07232259 -0.094255514 0.08184809 0.023987494 0.12084053 0.101364665 -0.21635178 0.097570896

conv1.bias f4 [128]
00000000: caea 39bd 9684 02be e725 1abe c6de 50be
00000010: 850c 6fbe f798 ea3c 4f88 183e 5d1d 6fbd
00000020: 981c 33be 66b7 3abe 60dc 5a3c 0cea 533d
00000030: 00a7 05bc a19c 44be 113e 5cbd 2c95 3c3d
00000040: fd2d 2abe 9602 debc e3d0 62bc a77d 41be
00000050: 3d9e 143e 11bd acbd a545 ee3d b817 f53d
00000060: 3c92 b73c 8a28 00bd b56f 233c a7c1 2dbe
00000070: c91c cdbd ffc1 3abe decf 21be 7a75 7b3e
00000080: 8066 ccbd bd8f 52bd ab1b 98bd bfa3 06be
00000090: 8222 663b 0586 a93d c5ca 3d3e 7819 a63d
000000a0: cff1 09bc 624b c23d a39c 9b3d e0e8 afbb
000000b0: 6a20 e1bd 1e1e 07be 5509 b83d b2a2 ddbc
000000c0: a79a 0fbe 5ce0 48be 10ac 133e 682c f3bd
000000d0: 14a9 d3bb deef 113e 4a08 d9bd 24b3 0fbe
000000e0: bcff c8bd 40a0 5e39 2f04 7abe 235d 4d3e
000000f0: d635 4cbd 8fb5 ae3d 2fef 51be 0165 0abe
00000100: 0971 253e 17ae dc3c 999c 87bd da76 3d3d
00000110: 3c59 5f3d 42a1 2abe 2cb2 20bd 7957 eb3d
00000120: 9c54 203e 62b2 4b3d a688 be3c 2cb7 183e
00000130: 3b24 3abd 1332 023e 391a cfbb 2b29 9ebc
00000140: f753 5a3c cfc6 85bb f71c 433d e068 853d
00000150: 2244 1abd 9682 253d 76cc 15be ebf9 cbbd
00000160: 5a7a 4cbd dcbc 13bd 8485 d43c 7814 0fbe
00000170: fb4b 2e3d 3d34 1f3e eeb4 cfbd f0bc 82bc
00000180: 8f4b 463d 280c 783d 4dbc 59bd 6001 5fbe
00000190: 0f21 ee3d f607 693b 20f5 a43c 0a10 84bd
000001a0: 71ac e6bd c9a6 b3bd 6108 cdbd 6bab 32be
000001b0: ac25 bdbd bcf1 f6bd f2c4 30be 45cd ad3c
000001c0: 2fd2 f7bd 7226 60be f99e a6bd 7c96 d4bd
000001d0: 027b 30be 9a4a c53d b2a5 0dbe ca5a 323d
000001e0: 824a fabd c4d0 fbbd dd07 c83d 3adc 6e3d
000001f0: 6e95 423d ecf7 73bd d7c5 00bc ea9a d23c
-0.045389928 -0.1274589 -0.15053521 -0.20397481 -0.2334462 0.028637392 0.14895748 -0.058377612
-0.17491376 -0.18234023 0.013358206 0.051736876 -0.008157492 -0.19200374 -0.05377013 0.0460407
-0.16619106 -0.027100842 -0.013843748 -0.18895589 0.14513488 -0.08434499 0.116343774 0.119674146
0.022408597 -0.03128866 0.0099753635 -0.16968404 -0.10015256 -0.18238066 -0.15801951 0.24556533
-0.09980488 -0.05140661 -0.07427152 -0.13148402 0.0035115783 0.08277515 0.18534382 0.081103265
-0.008419468 0.094870344 0.075982355 -0.005368337 -0.109925106 -0.13195083 0.08986155 -0.027055118
-0.14023839 -0.19616836 0.14421105 -0.11873704 -0.0064593647 0.14251658 -0.10597284 -0.1403318
-0.098144025 0.00021231268 -0.24415658 0.2005506 -0.04985603 0.08530723 -0.20501398 -0.13515092
0.161564 0.026938481 -0.066216655 0.046255924 0.05452846 -0.16663077 -0.039232418 0.114912935
0.15657276 0.049730666 0.023258518 0.14913625 -0.04544471 0.12714414 -0.0063202647 -0.01930674
0.013325683 -0.0040825377 0.047635045 0.06514144 -0.037662633 0.04040774 -0.14628777 -0.099597774
-0.04992137 -0.036068782 0.025942571 -0.13972652 0.04255293 0.15547271 -0.101419315 -0.015959233
0.048411902 0.060558468 -0.053158093 -0.21777868 0.11627399 0.0035557724 0.020136416 -0.06448372
-0.11263359 -0.08772046 -0.10011364 -0.17448203 -0.09235701 -0.12057826 -0.17262629 0.021216044
-0.12100636 -0.21889666 -0.081357904 -0.10380265 -0.17234424 0.0963337 -0.13832739 0.043543614
-0.122212425 -0.12295678 0.09767125 0.058315493 0.04750579 -0.05956261 -0.007859669 0.025708634

conv2.weight f4 [56, 128, 3, 3]
00000000: 7679 f8bc 05d3 d53c f5d6 1f3d 7242 95bc
00000010: fb06 e23c 2c50 a33c bd2e 30bd bfa3 263c
00000020: 178c 9abc 9c66 89bb 7cfc ea3b 37ac b3bc
00000030: 5abc 57bc 236f e3bc bf87 b33c 90db 69bc
00000040: 30da 83ba 00c2 75bc e141 72ba 3cc7 b7bc
00000050: 1c69 e03c 0289 cfbc 5e12 f3ba 9ca3 e6bc
00000060: b23f 8bba 4dd1 983c 2b46 843c a94a 97bd
00000070: c0b5 0b3d 360e 3abc a5e7 8dbd ae71 7c3c
00000080: dca7 133d 6f04 9cbd d712 8b3b b08a 303d
00000090: d3a3 d5bc 6595 8c3c cb71 f73c 78d2 27bd
000000a0: 774f 003b 2fc8 3a3c 0a6e 96bd 97ff 1f3d
000000b0: 4e28 bb3c 16be d7bc 9d42 a4bc 2ca5 bbbc
000000c0: 71c7 dabb b3f5 a23c 74d1 d63c 78f0 efbb
000000d0: 13bb d33c 9076 943c 63fc c93b cce7 7b3c
000000e0: 8bf2 c5bc bfd7 a6bc 6f2b b8bc a491 3dbc
000000f0: 68d3 efbb 8010 f239 f865 503b 8d77 42bd
00000100: 9a5b 913c 5c3d bbbb 0eee 04bd d1e4 d13c
00000110: b62f 53bc 9e78 853b 7b14 f03c 5bc8 b53b
00000120: 4bc9 fc3c 14c2 5cbc c4d3 7c3c 3a06 bebc
00000130: 18cd 5fbc ddb9 c8bc 987c 5c3b ac4e 9c3b
00000140: 697b dabc dcaf 2dbd bd97 ee3c acb5 b8bb
00000150: 37b1 21bd ca42 2ebc ef76 9abb 8b14 08bd
00000160: 72eb e3bb 1f81 e9ba 7746 993c b82e 0fbc
00000170: 43fc 993c 5664 8abc e885 c0bb 1451 9abc
00000180: 4056 e53a 81cd d93c 0207 4ebc 0907 ae3c
00000190: 532c ebbc 5e6c 403c 8eda c5bc 7cc5 86bc
000001a0: b424 cf3b f875 203b 681e c9bc 89e2 cbbc
000001b0: 6ec8 25bc 74fe b23b 325c 61bc 00f5 47bb
000001c0: d7f2 b43c 529f c9bc fa58 a6bc 388f 453b
000001d0: 505e e43a a3ad a23c b3db d03c c6b1 573c
000001e0: 08f0 a4bb e844 583b 7c0a c0bb 6862 c0bb
000001f0: 18eb a9bc 9646 3b3c 52e7 6bbd c104 913c
00000200: 82c5 133c 7936 60bd dac9 5bbc ee50 1ebb
00000210: 4e03 f0bc 5427 853c 81e8 863c 885c 14ba
00000220: 3f1e 733d ea22 ba3c 68c7 a23a 0649 363c
00000230: 5137 aebc fc40 053c f7e0 7fbb 5e11 faba
00000240: 6b47 443c c454 96bc 09b0 1c3c 47e8 a23b
00000250: 64ad 883c fae5 c13c 4378 563d 57a2 6e3a
00000260: efb0 0e3c cab5 3cbc 6429 073d 7e02 483b
00000270: 4ef7 2d3c 6020 c03a 3bf4 31ba 69f1 ec3c
00000280: c57d cf3c 4b82 c83c f6fe db3c a3b9 b0bc
00000290: eafd a73c 5e54 39bb 80ab c4bc 9860 72bc
000002a0: 95d8 b53c bc54 b03b 7c2d f3bb 8418 abbb
000002b0: 1e86 5c3c d381 ba3c d44c aebb 1dc5 853c
000002c0: b3c5 e7bc 5097 1cbc 5f61 803c 98f7 cabb
000002d0: f83f e4bc a573 c93c 7bea b5bc a37e adbc
000002e0: a1bb acbc 04b5 633c a2a6 87bc 368a c7bc
000002f0: 8126 fc39 028e 40bb a6e7 d3bb 78a4 173d
00000300: af98 b7bc eb50 5e3c cfcf fe3c 3722 6abc
00000310: 77a7 fc3c 5abc d23c b7f4 58bd 48ea a8bb
00000320: 54c7 9abc 72f6 7abd fa86 943b ac3b 72bc
00000330: deef 41bd 0cd6 353c 7f37 213d b259 a13d
00000340: a3d0 12bc 5de2 0b3d 64ca 963d c491 51bd
00000350: ccd8 63bc 80b7 623d 7aa0 73bd b764 86bc
00000360: 3c2d 16bd e5d5 82bc 5e6c 583c a908 8bbb
00000370: 0348 52bc c225 b23c d3af 9bbc 730c e8ba
00000380: 7420 43bc 8c0e 8fbc b630 b8bc 2d25 cb3c
00000390: 748b ee3b 2c75 64bc 1fc5 d63c 0849 89bc
000003a0: e367 cebc d8fd ba3c 4e24 873c 1276 233c
000003b0: 7dba ac3c aaec 9abc 3b73 9c3c fe61 83bc
000003c0: 29af c9bc 676c cfba f3d5 503c 2081 0aba
000003d0: 44c5 e4bc a80b 8cbc b21f 393c 0036 39bc
000003e0: ea10 1e3c ca0d e6bc b27d 523c f83b 283b
000003f0: 0b25 413c 20ab 653b df0d 8d3c 9c52 efbb
-0.030331355 0.026101599 0.03902336 -0.01822016 0.02759122 0.01993569 -0.043013323 0.010170876
-0.018865628 -0.00419314 0.0071712118 -0.021932704 -0.013167465 -0.027762955 0.021915315 -0.014273539
-0.0010059532 -0.0149998665 -0.0009241384 -0.02243387 0.02739387 -0.025333885 -0.0018544903 -0.028154187
-0.0010623841 0.01865449 0.01614674 -0.07387287 0.034108877 -0.011355927 -0.06928948 0.015407963
0.036048755 -0.07618033 0.0042441892 0.043101013 -0.026079094 0.01716108 0.030205628 -0.040972203
0.0019578615 0.011400267 -0.07345207 0.03906211 0.022846367 -0.026335757 -0.020051295 -0.022905909
-0.0066766073 0.01989255 0.026222922 -0.0073223673 0.02584604 0.018122941 0.00616412 0.015375089
-0.024163505 -0.020366548 -0.022481648 -0.011570368 -0.0073189028 0.0004617013 0.003179906 -0.047477294
0.017743874 -0.0057141017 -0.03245359 0.025621803 -0.012889793 0.0040732166 0.02930664 0.005547566
0.030857703 -0.013474006 0.015431348 -0.023196328 -0.013659738 -0.024502689 0.00336436 0.0047701206
-0.026670175 -0.04240404 0.029125089 -0.0056368914 -0.039475646 -0.010636041 -0.004713885 -0.033222716
-0.0069555575 -0.001781497 0.018710358 -0.008739166 0.018797046 -0.016893547 -0.005875338 -0.01883749
0.0017497018 0.02658725 -0.012574913 0.021243589 -0.028707659 0.011744587 -0.024152067 -0.01645159
0.006321514 0.0024484377 -0.024550632 -0.024888294 -0.010118587 0.005462462 -0.013754891 -0.0030511022
0.022088451 -0.024612103 -0.0203061 0.003014518 0.0017423127 0.019858187 0.025495386 0.013164943
-0.005033497 0.0033000056 -0.005860625 -0.005871106 -0.020741984 0.011430403 -0.05759365 0.017702462
0.0090192575 -0.05473945 -0.013414824 -0.0024157125 -0.02929845 0.016254105 0.016468288 -0.000565954
0.059355017 0.022721726 0.0012419047 0.011125809 -0.021266611 0.008133169 -0.0039044002 -0.0019078662
0.011979918 -0.018350966 0.009563454 0.0049715373 0.016684242 0.023669232 0.052360784 0.000910317
0.008709176 -0.011517951 0.032998458 0.0030519064 0.010618044 0.0014658086 -0.00067884073 0.028923707
0.025328526 0.024476191 0.026854973 -0.021572893 0.020506818 -0.0028279047 -0.024007559 -0.014793538
0.022198 0.005381195 -0.0074211936 -0.0052214283 0.01345971 0.022766983 -0.005319217 0.016329342
-0.028292513 -0.00955756 0.01567143 -0.0061940663 -0.027862534 0.024591276 -0.022206536 -0.02117855
-0.021085562 0.013898138 -0.016558949 -0.024357896 0.00048093873 -0.0029381518 -0.0064668236 0.037022084
-0.022411672 0.013569097 0.03110495 -0.014290384 0.030841572 0.025724579 -0.052967753 -0.0051548816
-0.018893875 -0.061270185 0.004532692 -0.014784735 -0.047347896 0.011098396 0.039359566 0.07878436
-0.008960876 0.034151424 0.07362822 -0.051164404 -0.013906669 0.05535078 -0.059479214 -0.016405446
-0.036664233 -0.015971133 0.0132094305 -0.0042429757 -0.012834552 0.02174652 -0.019004738 -0.0017703905
-0.011909593 -0.017462991 -0.022484165 0.024798 0.0072798077 -0.013943952 0.026217042 -0.016758457
-0.025196021 0.02282612 0.016496804 0.009976881 0.021085018 -0.018911678 0.019097915 -0.016037937
-0.024619656 -0.0015825153 0.012746322 -0.00052835234 -0.027926095 -0.017095402 0.011299061 -0.0113043785
0.009647587 -0.028082747 0.012847351 0.002567051 0.011788617 0.0035044625 0.017218528 -0.007303549

conv2.bias f4 [56]
00000000: af27 c0bc ac41 b53c 14ce 58bc 74e0 b5bc
00000010: b224 4d3c 2294 603c 21a3 efb7 c052 11ba
00000020: 3380 dc3c 1212 9bbc 76af 753c 4e87 e43b
00000030: e828 1dbb a4dd dabb dc9f ac3b f919 183c
00000040: b7cb 983a ad95 a4bc 0fe9 0d3d 7f94 ad3c
00000050: 4707 893c af10 c83c 9b61 b13b 3078 a737
00000060: 2edd 03bc 4014 9d39 f36b b63b 7c41 97bc
00000070: 8088 5fbc 86dd 9a3c c2ea 133c dcbd da3b
00000080: 06e3 a6bc d057 0ebb abb1 923c ebd7 cc3b
00000090: fcbf 7dbc 8c91 3ebc ddfc d5bc fecb ed3b
000000a0: eec5 953c 594c fbbb 325f 463c 9737 bebc
000000b0: 2cab 2e3b b6e9 aabb 96a4 96bc 15d3 573c
000000c0: a55d 5b3b 33ee b33c 03f8 9f3c 6461 d83b
000000d0: 98c9 c3bc b2fd a9bc 4458 9f3c 7b44 96bc
-0.023456423 0.022126041 -0.013232727 -0.022201754 0.012520956 0.013707193 -2.8566983e-05 -0.0005543642
0.026916599 -0.018929515 0.014995446 0.0069741374 -0.002398068 -0.0066792537 0.00526808 0.009283536
0.0011657391 -0.020090902 0.03464609 0.021188973 0.016727103 0.024422018 0.005413247 1.9963918e-05
-0.008048339 0.0002996046 0.005567068 -0.018463843 -0.013643384 0.018904459 0.009028139 0.006675465
-0.020371925 -0.002171982 0.017906984 0.0062513254 -0.015487667 -0.011631381 -0.026121551 0.007256984
0.018282857 -0.0076690135 0.012107657 -0.023219867 0.002665232 -0.005215849 -0.018389028 0.0131728845
0.0033472565 0.021964168 0.01952744 0.0066034067 -0.023899838 -0.020750854 0.019451268 -0.0183432

fc1.weight f4 [256, 560]
00000000: 04eb 7cb9 f5ed a33c 1302 e93c b703 ea3a
00000010: 49e8 9d3b b220 18bd b192 bdbb 43ab 17bd
00000020: 86b9 c0bc 672a fb3c 81bb 113d 8d75 cbbc
00000030: 77a7 b2bb 5631 92bc 769c 9e3c 2b40 1f3c
00000040: 6e3c a7bc df28 21bd 5e56 273c f74a ae3c
00000050: 41d3 98ba ee28 113d c8d0 b43c 6efd 77bc
00000060: 2ae7 83bc 8ea3 82bc 888b a93b 1293 903c
00000070: bdf4 19bd 00c2 a938 0101 c5bc 8446 523c
00000080: 34a4 fbbc d46e ffbc 991a b8bc 3442 86bc
00000090: 6c9f 0fbc e77a b4bc cd23 a4bc 5f24 11bd
000000a0: 5c26 243d f079 ab3b 3f3b 90bc cadc 9f3c
000000b0: 30da 933c c498 863c 5e9c adbc 4fa5 ddbc
000000c0: fc4a 013d 1bda a6bc f9e4 00bc 0619 c33c
000000d0: 095b 1e3d dd76 99bd 2c28 01be 910b b0bd
000000e0: 3e98 8d3b 1f16 cabc 76b5 ea3b 4f3b ca3c
000000f0: 998b 173d 661d 343c c89b 92bc 501d 0a3d
00000100: c7bb e43c 8694 e9b9 e925 13bd a81b f2bc
00000110: e0f5 07bd 9647 b93c 4139 a5bc 2cf5 ad3c
00000120: 7f76 bcbc 52c0 acbc 9054 89bb fca9 54bc
00000130: 0d1c c8bc 88fa 903b 0ae9 05bd 8064 a3bc
00000140: 750b c3bc dc14 713c c06d 15bc 7db5 a3bc
00000150: 806a 0aba f89a b6bb a250 823c 64ae 1a3d
00000160: 2d54 95bc d031 0c3b 543f 67bc cd2d 47bc
00000170: 621c 0cbd 3a1b 6ebc fa98 74bd d7a9 46bd
00000180: cc52 5dbd 225d 273c d50e ca3c d2ad 5fbb
00000190: fc2f 87bc 1fd9 613c f4e2 0e3d 1ec5 eabb
000001a0: 253f ab3b 5c80 0abd 1d61 00bd 229d 0d3d
000001b0: f81a 7b3c 0052 243d 082a 033d 5c8a 233d
000001c0: f22b babc a0c4 e8bc 1670 5b3c add7 a4bc
000001d0: 92b8 89bb a81e 333c f859 febb ae6f 243d
000001e0: a420 163d 0a9d 223d d88a 0f3d 8433 1a3d
000001f0: ae71 263d 6497 ea3c 6c91 1bbc 9201 43bc
00000200: e0f4 963a a2d4 853c c843 65bc 73d1 90bc
00000210: 8eb4 0a3d 52ad 043d aaaa 1a3d 6869 243c
00000220: 603f cd3c 53b2 06bd 8801 c73c e05c e13a
00000230: 50ee 9c3c 94fa 223d a078 bc3a 8cc6 4ebc
00000240: 20d9 af3c 603d d7ba 1de1 b4bc 04e2 ce3c
00000250: 8ca1 d73c a44e 173d 6736 44bb e2d3 e9bc
00000260: c331 213d e741 30bd 866e d8bd 4677 77bd
00000270: 4bff 26bd 5812 33bd 0401 d6bc 1ed7 6dbc
00000280: c5e2 97bc b623 28bc e656 513c 806a 8cbc
00000290: a155 f3bc 40d7 0f3d 9d33 bebc c08e dc3c
000002a0: 0bf5 c43c c973 ccb8 943b a13c 7837 f7bb
000002b0: e46e 213d 2116 acbc c0e4 f5bb e858 773c
000002c0: dc19 abbc 3047 a3bb 48f9 e6bc 2110 133d
000002d0: dc75 5bbc c462 a6bc 2a59 9a3c 1738 223c
000002e0: 26e0 03bd 67b5 f739 382b 223d d968 f1bc
000002f0: 5985 feba 6d1a 8e3c a32e f5bc 3c62 ae3c
00000300: 8099 bf3b b0dc 10bc b642 11bd f89b 113d
00000310: d286 993c a0c2 3f3b 2aed 9b3c 1e4e 293d
00000320: 9a3e 1ebd b5dc 76bc c803 53bc ea7d 1b3d
00000330: cf04 be3b dc9d d53c 9607 2d3d beea 723c
00000340: 356c 10bc 4aec edbc 409d e9ba 3a10 c1bc
00000350: e006 523c 084d 09bc c6e2 033d c035 f0ba
00000360: 7860 a8bb 7863 c23b 5025 d63c ac78 283d
00000370: 43f1 40bc c68d 16bd 4f3c 243d 5aee 91bc
00000380: 793f 283d e070 803c 90bd 9f3c 17f2 98bc
00000390: 51c2 da3c 6d00 b83c 2f0d dbbc 35dc fb3c
000003a0: dba4 efbc 876b cd3c 1142 0e3d 1baf b63b
000003b0: db73 d93c b31d 843c 474b fd3c 317b 273d
000003c0: f91b ccbc 7f9a b5bb ca93 293d 3c72 f8bc
000003d0: b081 1cbd 9ce8 0a3d c06a b33c 6896 dd3c
000003e0: 91c9 0839 46aa 58bb 18e9 ef3b 06dd 1abd
000003f0: 326e 1dbd cae2 903c 6412 053d 9cba 1cbd
-0.00024120143 0.020010928 0.028443372 0.001785389 0.0048189503 -0.037140556 -0.0057853092 -0.037028562
-0.023525964 0.030659867 0.03557921 -0.024836326 -0.0054520923 -0.01784579 0.019361716 0.009719889
-0.020414557 -0.03934562 0.010213463 0.02127598 -0.0011659638 0.035439424 0.02207221 -0.015136106
-0.016101439 -0.01594713 0.005174104 0.017648254 -0.037586916 8.094683e-05 -0.02404833 0.012834195
-0.030717947 -0.031180777 -0.02247362 -0.01638899 -0.0087660365 -0.02203126 -0.020036602 -0.035435077
0.040075645 0.005233042 -0.017606376 0.01951446 0.018048376 0.016430266 -0.021192726 -0.027056364
0.03156565 -0.020367673 -0.007867091 0.023815643 0.038661037 -0.074933745 -0.1261298 -0.08595956
0.004321127 -0.024668751 0.007162745 0.024686484 0.036998365 0.010993337 -0.017896548 0.03371936
0.02792157 -0.00044551882 -0.035924826 -0.029554203 -0.03319347 0.022617143 -0.020168902 0.021235071
-0.023005722 -0.0210878 -0.004190989 -0.012979981 -0.024427438 0.004424397 -0.032692946 -0.019945383
-0.023809174 0.014714446 -0.009120405 -0.019984001 -0.0005280152 -0.005572673 0.01590759 0.037763968
-0.018228615 0.0021391995 -0.01411422 -0.012156916 -0.034206755 -0.0145328585 -0.059716202 -0.048501816
-0.05403404 0.010215076 0.024665276 -0.0034130705 -0.016502373 0.013784676 0.034884408 -0.0071646115
0.0052260333 -0.03381382 -0.031342614 0.03457368 0.015326254 0.040117264 0.032022506 0.03992687
-0.022726033 -0.02841407 0.013393423 -0.020122373 -0.0042029107 0.010932602 -0.00776219 0.04014557
0.036652222 0.039700545 0.03504452 0.037646785 0.040635757 0.028636642 -0.0094951205 -0.01190223
0.001151707 0.016336743 -0.013993211 -0.017677998 0.033863597 0.032391854 0.037760414 0.010034896
0.025054634 -0.032884907 0.024292722 0.0017193817 0.019156605 0.03978975 0.0014379211 -0.012620579
0.021465838 -0.0016421489 -0.022079999 0.025254257 0.026322149 0.036940232 -0.0029939653 -0.028543416
0.039354097 -0.0430316 -0.10567956 -0.060416482 -0.04077081 -0.043718666 -0.026123531 -0.01451662
-0.01854075 -0.01026242 0.012777066 -0.017140627 -0.029703917 0.035117388 -0.02321797 0.026923537
0.024042627 -9.749045e-05 0.01968173 -0.007544454 0.039412394 -0.021006646 -0.0075040758 0.0150968805
-0.020886354 -0.0049828514 -0.028195038 0.035904054 -0.013394799 -0.020310767 0.018841345 0.009901068
-0.032196186 0.00047246667 0.039591998 -0.02946894 -0.0019418403 0.017346585 -0.029929465 0.021287076
0.005847156 -0.0088416785 -0.03546401 0.035549134 0.018741045 0.0029260293 0.019033987 0.041334264
-0.03863392 -0.015067269 -0.0128793195 0.037961878 0.005798913 0.02607625 0.042243563 0.014826475
-0.008814861 -0.029043335 -0.0017823353 -0.023567308 0.012819022 -0.008380182 0.03219869 -0.0018326566
-0.005138453 0.0059322678 0.026140839 0.041130707 -0.011776271 -0.0367563 0.040096577 -0.01781385
0.041076157 0.015678823 0.01949957 -0.018670125 0.026703985 0.02246114 -0.026739685 0.030744651
-0.029253414 0.025075687 0.034730975 0.0055750734 0.026544502 0.016127443 0.030919684 0.04088897
-0.024915682 -0.005542099 0.04140071 -0.030327909 -0.038209617 0.03391324 0.021901488 0.027049258
0.0001304506 -0.0033060475 0.007321488 -0.03780844 -0.03843517 0.017686266 0.03248824 -0.038263902

fc1.bias f4 [256]
00000000: 9e8d 00bd 2f15 42bd e107 0abd 17ef e43c
00000010: 5ad4 a5bc b1b9 513d de94 103d 0e74 9bbc
00000020: 7497 a6bc bddf 12bd 60f7 f03b 7f12 c23a
00000030: fe16 583d 87e2 7cbc 2eb5 e1bc 54b8 333d
00000040: a9fa 8dbc 1448 05bc e9c9 01bc 5cca 00bd
00000050: 5362 e73c 75d2 a13c a16c 59bc 8453 fabc
00000060: 6ec2 c03c 84d1 2e3d 9968 88bb a209 033c
00000070: fece d53c ace3 d7bb e0ec 5e3c 9826 e63c
00000080: b17c 0a3d bbba 143d 7554 babc 4f4b 023d
00000090: e263 d3bc 7831 0dbc 3a1e 0f3d d2ce 843c
000000a0: f249 bbbc 35a1 a03c 8aa9 463c 493e 2abc
000000b0: d8a5 023d eaeb 143d 9858 b53c 028d 04bb
000000c0: 5e73 033d edba 87bc 7e55 7cbc f3b5 c83c
000000d0: 6d9a 93bc 159a 1a3d 90b0 49bb aa28 073d
000000e0: d773 08bd e09a 613c 5f11 cbbc e0fb f7bc
000000f0: 00ae 0b3d 3a29 193d 92b6 a2bc 4472 68bb
00000100: 384a 133d 2675 833d b562 143d ba92 013c
00000110: dc27 44bc 0667 8cbc a456 923c 0c92 c13c
00000120: 060a c1bc 7e91 a3bb 9def 923c edb0 07bd
00000130: 3226 48bc 2749 033d 9d19 fa3b 83e0 25bd
00000140: 303e 2d3c 0cc0 e03c a320 3dbc 825a c4bc
00000150: 9a91 d2bc f262 ecbc 9365 edbc 8060 053a
00000160: 2b2c a8bc f9ea 1d3a f074 563b c269 40bc
00000170: 0c6e 053b da89 f73c 6d21 e03c 6a34 753d
00000180: dddb a2bc 5908 0ebd f230 7f3b d4c0 703c
00000190: e18f b33c 0cea 083d f15d 2c3d 6152 323c
000001a0: 8455 4e3c 2152 133d 7112 10bc 4c1e d53c
000001b0: ac9a 1abc f44b a2bb e348 a2ba 1933 963c
000001c0: f785 75bb 21cc 873d 8854 f63a b312 67bb
000001d0: 9350 583c cb26 fe3c 039a 7ebc c04c 273d
000001e0: 0ad1 dabc 3f86 f9bc 0fcb 75bc 63a3 1fbc
000001f0: 1583 20bd d2fd 0c3c fc98 24bd 33ef 913c
00000200: b916 0e3d 4ff7 1dbc 98c2 b93b 9011 df3b
00000210: 8218 973c 740f b53b 20cf 0cbc 7dcd 473c
00000220: 9804 0cbc 7d48 b93c 13d8 88bc 1c31 143c
00000230: 1372 f3bb 5389 24bc 1ee9 28bc 04b8 abbc
00000240: 15c6 9fbc 6dbe a139 ed64 bf3c 2837 173d
00000250: 9e50 43bc 5f53 2a3b 4237 133c 61a7 053d
00000260: b36c d6bc 597b 8a3c 51ff cb3c 90ed b2bb
00000270: bb7c 263d 7089 383c d8bf 933c 2721 383d
00000280: 994f f2bc b45e 343c e973 f53c 3c85 4f3b
00000290: fdda 80bb 6672 c8bc 80f8 13bc f80e 313d
000002a0: 348d d13b 055d 7bbc dd0d 453c f32d 39bc
000002b0: 434b 1ebd de88 f63b 892d a6bc 0524 853b
000002c0: 94ef 243d fdcf 23bd 4648 f03a b8b2 393d
000002d0: f8dd 423c 2ce5 203d e3ed d6bc 99f9 233c
000002e0: c854 e4bc a4c6 5bbb 08df a43b b4b5 8b3c
000002f0: cf4a 8bbc 861b 533c 6c9e b6bb 3649 933c
00000300: f7f1 103d f761 04bd f6cc 7e3d 8f4c 09bd
00000310: 8c8d 17bd 6800 adbc be74 08bd d2e6 1e3d
00000320: afc2 e5bc ad20 92bc aea8 b13c 79a7 033d
00000330: 55f7 123c f192 993c 6e04 1dbd bcb8 ba3c
00000340: 748e e23c 18e7 da3b d38d 213d 87e3 343d
00000350: e39d c3bc 8842 0f3d 132b afbc ee77 dcbc
00000360: be58 b73c 3604 cbbc 979c 15bd 5131 3f3d
00000370: 3d40 123d 849e 0e3d 58e8 08bd 95f4 4d3d
00000380: 6d95 dbba 4437 123d 3374 323d 78b1 0dbd
00000390: b9a4 533d 8c32 0b3d f991 c23c d0ac f83c
000003a0: e8cb 0f3d de88 f7bc c8c2 1bbc 3b72 81bc
000003b0: 5463 9c3c dcf3 c1bc 2462 0cbd 0e08 a23c
000003c0: 0124 2bbd 76da 733a ee62 273d d9c8 ef3a
000003d0: 9ee5 21ba 2295 e7bc fc42 a53c d402 0e3d
000003e0: c0bf 2cbd 4698 4d3d 17de 13bd eb11 ff3a
000003f0: d7bb a5bc a2d9 e5bc 509c 81bb 5953 d4bc
-0.031385057 -0.047383483 -0.03369892 0.027946038 -0.020242859 0.05120248 0.03529822 -0.018976238
-0.02033589 -0.035857905 0.007353708 0.0014806538 0.052756302 -0.015434868 -0.027552214 0.04387696
-0.017331438 -0.008134861 -0.007921674 -0.031442985 0.028245127 0.019753674 -0.013270528 -0.030557401
0.023530211 0.04268028 -0.0041628596 0.007997902 0.026099678 -0.00658842 0.01360628 0.028094575
0.03381032 0.036310893 -0.02274535 0.0318101 -0.025804464 -0.008617751 0.034940936 0.0162119
-0.022862408 0.01960812 0.012125382 -0.0103908265 0.031896442 0.036357798 0.022136971 -0.0020225649
0.032092445 -0.016568625 -0.015401242 0.024500823 -0.018017972 0.0377446 -0.0030775405 0.032997765
-0.0333136 0.013769835 -0.024788557 -0.03027147 0.034101486 0.037392832 -0.019862447 -0.0035468498
0.035959452 0.06418829 0.036226947 0.0079085175 -0.011972394 -0.01713897 0.01786358 0.02362921
-0.02356435 -0.0049917093 0.017936522 -0.033127714 -0.012216138 0.032052185 0.007632448 -0.040497314
0.010573909 0.027435325 -0.011543426 -0.023968939 -0.025704194 -0.028855775 -0.028979098 0.0005087927
-0.020528873 0.00060240884 0.0032723509 -0.011743965 0.0020359783 0.0302171 0.027359689 0.05986444
-0.01988023 -0.03467593 0.0038939086 0.014694411 0.021919193 0.03342633 0.042081777 0.0108838985
0.012593631 0.035966996 -0.008793459 0.026015423 -0.009436291 -0.004952902 -0.0012381341 0.018334912
-0.0037463882 0.066307314 0.0018793503 -0.0035258948 0.013202804 0.031024357 -0.015539649 0.04084468
-0.026711006 -0.030459521 -0.015002026 -0.009743544 -0.03918751 0.008605437 -0.04018496 0.017814254
0.03468964 -0.0096414825 0.0056689493 0.0068075135 0.018444303 0.005525524 -0.008594304 0.012194988
-0.008546017 0.022617573 -0.016704595 0.009044912 -0.00742937 -0.010042506 -0.010309486 -0.020961769
-0.019503633 0.0003085019 0.023363555 0.036917835 -0.011921076 0.0025989634 0.008985342 0.032630328
-0.026174879 0.01690452 0.024902018 -0.0054604486 0.040646296 0.011263236 0.018035814 0.04495349
-0.02957897 0.011008907 0.029962497 0.0031665107 -0.0039323554 -0.024468612 -0.009031415 0.043227166
0.0063950066 -0.015342002 0.012027231 -0.011302459 -0.038645994 0.00752364 -0.020285385 0.0040631318
0.040267542 -0.039993275 0.0018332086 0.045336455 0.011893742 0.039281055 -0.02623648 0.010008239
-0.027872458 -0.0033535147 0.00503147 0.017054416 -0.017003445 0.01288498 -0.0055730846 0.017979246
0.035387006 -0.03231999 0.062207185 -0.033520278 -0.037000224 -0.021118358 -0.03331446 0.038794346
-0.028046934 -0.017837847 0.021686878 0.032142136 0.008970101 0.018746825 -0.038334303 0.022793166
0.027655818 0.0066803806 0.039441895 0.0441623 -0.023878997 0.03497556 -0.021382844 -0.026912656
0.022381183 -0.024782281 -0.03652629 0.04667789 0.035705794 0.03481914 -0.033424705 0.05028208
-0.0016752906 0.035697237 0.043567847 -0.034593076 0.051670764 0.033983752 0.023751246 0.03035584
0.03510657 -0.03021663 -0.009506889 -0.01580154 0.019090332 -0.023675852 -0.03427328 0.019779231
-0.041782383 0.00093022676 0.04086583 0.001829411 -0.0006175878 -0.028269354 0.020173542 0.034670666
-0.042175055 0.050194047 -0.036100473 0.0019460296 -0.02023117 -0.028057877 -0.0039554015 -0.02591865

fc2.weight f4 [128, 256]
00000000: 6d8f 46bd 8b1a 4d3c 1ba8 50bd 1c17 7bbd
00000010: 8051 16bb 98a9 343d 9fd2 7e3d 6ac2 7bbd
00000020: b01b 1bbc b28a aabc 000b d239 f30e 4b3c
00000030: 23eb 013d b540 6abd 38c6 353d f574 5a3d
00000040: 73bf 023d 2355 29bd e658 61bc 8b69 51bc
00000050: d13b 5ebd 5918 793d 8c2d 363d 36f4 043d
00000060: f3c8 1fbd de72 a6bc d90d b93c 4514 2d3d
00000070: 8abc 94ba 4e2a 30bd f545 273d 342f 4dbd
00000080: ad71 223d 7e2d acbb 2805 62bc 4a9a 26bd
00000090: d1cb f0bc 1201 64bd 2cf7 303d 479f e93c
000000a0: 8b4c 4c3d 80e7 063c 4834 26bd 59a6 d23c
000000b0: f7f1 c3bc 1d2f e7bc 5b83 103d 183e 74ba
000000c0: bc66 883c da4d 17bc 60f1 11bc 284c 45bd
000000d0: 5e9f d93b f832 073d 2441 603d 2535 343d
000000e0: 90f1 373d 5d5b ad3a d002 15bd bd2d 333d
000000f0: 4fe9 20bd 23bc ed3c a9ca 9f3b 8033 853c
00000100: d467 4a3c c780 573d 2473 a83c d87d 30bb
00000110: e89f 77bc a008 e93c b27b 9abc b0d3 07bc
00000120: eece 36bd 83ef 33bd 0429 383d c052 753c
00000130: 2032 4e3b 3b84 653b 25df 883c be46 3cbd
00000140: 0a4e 49bd 58de 3bbc 0834 133d 6e6d 73bd
00000150: d6c8 11bd 27ae 48bd 7f8a 1ebd a798 d939
00000160: 800c 1ebc a338 513c 43bd 683d 1df0 193d
00000170: b255 b7bc 7f2b 4ebb 0843 f13c 0bcb ffbc
00000180: ecbd fe3c e49d 513d fe62 1e3d 1ab5 d73b
00000190: 7665 523d 0b9b 323c 6703 d03c 6de0 9cbb
000001a0: 1e20 623d 6130 7bbc 885f 4dbd 9bfc 6fbc
000001b0: 08cf 7d3c a73d d13c ae5f 203d 0e36 1d3d
000001c0: f44a 9cbc 5f15 57bc 7782 d63c 78db 70bd
000001d0: fbc6 61bd a998 29bd 0d03 5cbc 38dc 543d
000001e0: 14ea 27bd feba 6fbd 0613 20bd 0699 08bd
000001f0: 5887 4b3c 2ea8 60bd a4d5 583d 4646 c73c
00000200: 4970 aa3c f800 2d3d 0837 1bbc 859f 6d3d
00000210: 0cdf 53bd e05e 1ebd 14cb f83c 596a 9ebc
00000220: 70ab 6bbd 3a58 5bbd 7259 2d3d 54db e2bc
00000230: be83 61bd ee13 6dbd ff66 f1bc c01a 0dbc
00000240: ee46 733d 331e 6e3d f432 163b 5b33 2e3d
00000250: 2173 473c 0a14 213c e6e5 08bd 41ad 50bd
00000260: c8b7 2cbd a6f2 e1bc 711a db3b b558 173c
00000270: c2ce d43c be9a 0e3d d8b6 eabc cfc3 73bd
00000280: 1d64 20bb 8626 f9bc c22e 3e3b 8fb5 823c
00000290: d2db 5bbd 5e94 90bc 4adb 77bd 8fd2 36bd
000002a0: 538d 603d 0839 233d acd0 423d 6dde 5c3d
000002b0: 41bd 2dbd b010 333c fcbe 97bc 307d 23bd
000002c0: 55c7 8f3c 590e 5fbd 0a98 a4bc d439 643d
000002d0: 886e 99bc cc8e 6bbd 780c b73c daaf 59bd
000002e0: 7c21 1c3d fa2f a3bc 38e6 313d 6673 a5bc
000002f0: d0f4 413d c34f 5e3d c2e7 efbc 7be3 8cbb
00000300: c2a1 b43c b070 8abc 9325 bf3c 121d 863c
00000310: c12a f13c ddcd 5b3d 3ac1 43bd f901 bc3b
00000320: 5bb1 48bd 6f95 353b dcee 3c3d 2765 be3c
00000330: 2423 653d c083 dcbc 5c92 b73c d6c7 59bd
00000340: 86f8 e6bc 00f6 e439 7c24 ae3c 1cc6 f03c
00000350: 61d1 583d 50bd afbb 4f77 a13c 8ef1 333d
00000360: 44b2 f93c 6655 9dba a01a 0fbd 9b4e afbb
00000370: d6e5 363d e481 d0bc 551a 7f3c 8fbc 50bd
00000380: db65 27bc eef8 0d3c 146f 3a3d 782c 31bd
00000390: 5240 7f3c 1128 69bd 9c07 5f3d 081a 72bc
000003a0: c92b 9ebc 56b8 36bc a808 a5bc e809 72bb
000003b0: 102a 423b 0085 193b 4282 143d 7f88 17bd
000003c0: 4823 6dbd 9521 52bd 6494 703d 56ed 7d3a
000003d0: 052f 07bb cfcb cbbc 86a3 3abd 8046 223c
000003e0: a5c8 b83c d700 08bd 9c04 0c3d f4f5 613d
000003f0: c711 083d 40bd e7ba b321 03bc 719a 81bc
-0.048476625 0.012518535 -0.050941568 -0.061301336 -0.0022936761 0.04410705 0.062212583 -0.061464705
-0.00946705 -0.020818088 0.00040062517 0.012393701 0.031718384 -0.057190616 0.04437849 0.053334195
0.03192086 -0.04134096 -0.013754105 -0.012781511 -0.054256264 0.060814235 0.04447703 0.03245946
-0.03901 -0.020318445 0.02258961 0.04225566 -0.0011347693 -0.043009095 0.0408382 -0.050093845
0.03965919 -0.0052544465 -0.013795175 -0.040674485 -0.029394062 -0.055665083 0.04320447 0.028518332
0.049877685 0.008233905 -0.040577203 0.025714086 -0.023919089 -0.028220708 0.03528152 -0.0009317114
0.01665055 -0.00923487 -0.008907646 -0.04816833 0.0066413125 0.033007592 0.054749623 0.043995995
0.044908106 0.0013226081 -0.036379635 0.04374479 -0.039285 0.029020375 0.004876454 0.016259909
0.012353856 0.052613046 0.020562716 -0.0026930477 -0.015113808 0.028446496 -0.01885781 -0.008290216
-0.044630937 -0.043929588 0.04496099 0.014973342 0.0031462982 0.0035021442 0.016707966 -0.045965903
-0.04914669 -0.011466585 0.035938293 -0.059430532 -0.035591923 -0.04899421 -0.0387063 0.000415032
-0.009646535 0.012769851 0.05682112 0.037582505 -0.02237973 -0.003145903 0.029450908 -0.031224748
0.031096421 0.051175967 0.038668625 0.0065828683 0.051366292 0.010901223 0.025392247 -0.004787496
0.05520641 -0.015331359 -0.050139934 -0.014647628 0.015491255 0.025542093 0.039153747 0.03838163
-0.01907871 -0.013127654 0.026185257 -0.05880305 -0.055121403 -0.041405354 -0.013428462 0.05196783
-0.04099472 -0.05852794 -0.039080642 -0.03334906 0.012422405 -0.05484789 0.05293812 0.024325501
0.020805495 0.042237252 -0.00947357 0.058013458 -0.051726386 -0.0386647 0.030370273 -0.01933782
-0.057536542 -0.053550936 0.04232163 -0.027692474 -0.05505728 -0.057880335 -0.029468058 -0.008612335
0.059393816 0.05813427 0.0022918554 0.042529445 0.012173445 0.009831438 -0.033422373 -0.050946478
-0.042167455 -0.027581524 0.0066865017 0.009237458 0.025977496 0.034815542 -0.02865164 -0.05951291
-0.0024473735 -0.030413877 0.002901957 0.015955715 -0.053676434 -0.017648872 -0.060511865 -0.044634398
0.054822277 0.03984931 0.047562286 0.05392306 -0.042416815 0.010929272 -0.018523686 -0.03991431
0.017551104 -0.054457042 -0.02009203 0.05571921 -0.018729463 -0.05750923 0.022344813 -0.05314622
0.03811787 -0.019920338 0.043432444 -0.020196628 0.047352612 0.054275285 -0.029285315 -0.0042995787
0.022049788 -0.016899437 0.023333346 0.016371284 0.029439332 0.053663123 -0.047791697 0.00573754
-0.048997264 0.0027707478 0.04612623 0.023241593 0.055941716 -0.026918292 0.022408657 -0.053169094
-0.028194677 0.00043670833 0.021257631 0.02939134 0.052934054 -0.005363144 0.019710211 0.043931536
0.030480511 -0.00120036 -0.0349375 -0.0053499467 0.044652782 -0.025452562 0.015570243 -0.050961073
-0.010217155 0.0086653065 0.04551609 -0.0432553 0.0155793 -0.056922976 0.054450616 -0.014776714
-0.019307988 -0.011152348 -0.02014573 -0.0036932174 0.0029627122 0.0023425221 0.036257036 -0.036995407
-0.057894975 -0.051301558 0.058735266 0.000968655 -0.002062739 -0.024877457 -0.045566104 0.009904504
0.022556612 -0.033203926 0.034184083 0.0551662 0.03322008 -0.0017680302 -0.00800364 -0.015820714

fc2.bias f4 [128]
00000000: 2b7c b3bc d9ff 2cbd 4f0b dfbc 04b8 55bd
00000010: d75b 5bbd 74ef 473d 1bc2 a53d 7cd4 203d
00000020: 8d74 d23c b199 fb3c 6125 543d 5d12 083d
00000030: a994 9d3d 93d0 8d3d d9c9 943d 3f8e 823c
00000040: 4af5 1c3d f28f bfbb 8ad1 ab3d f269 1abc
00000050: 4e8d 533c b53f ee3c 4f60 98bd 277d e63b
00000060: 50c5 ffbc 7a7c a0bc 2933 40bc 8cd1 2c3d
00000070: 11e8 60bd f013 9bbb f983 bc3c 4886 0dbd
00000080: 8c35 ff3c eb24 bf3b 012d 133d a3a7 43bc
00000090: 2d84 793d f6fb 2cbd 1905 73bd 323d 2abd
000000a0: 96bf b6bc ac74 9ebc 31bb 5f3d 150c 003d
000000b0: c8b5 193c a484 7d3c 9795 0c3d 72f0 843c
000000c0: 52f7 b4bc 7807 823d 7265 813d 65b8 493b
000000d0: a295 ebbb 9509 95bc fa05 303c fca6 363d
000000e0: c6c5 d43b b5c9 143d 475f 963c e762 453d
000000f0: e46a ae3d ec7b 4dbd 603b 6fbd dbd1 303c
00000100: c7aa 39bd 413b f0bc e158 1bbc fc97 9abc
00000110: d406 783c 5afb 54bd d1a4 253d 2420 e83d
00000120: 3ce0 59bb f7c4 06bd 5e41 1cbd cfb2 913d
00000130: f82e 5cbd e8e2 acbc 2852 a83d c313 053c
00000140: dbf5 ebbc 2018 913d 3911 4a3d c1d6 06bc
00000150: edb9 d23d 57fd febc 0115 62bd 379d 1ebd
00000160: a9dc 4cbd 05a6 17bd bbce 663c 99b7 2dbc
00000170: ca2c 9e3d 98d6 083d 0076 8fbc 4b91 8d3d
00000180: 8d57 98bc cf76 623d 1e2e 1f3b 8423 dcbc
00000190: 74d4 0bbd ab7a 06bd 186f d73c 0477 a13d
000001a0: 3108 3b3c 78a3 1cbc 1346 3cbd 11df 823d
000001b0: f3da 853b 7b1a 21bd d080 5b3d b024 53bd
000001c0: 45ab 6c3d 875c 78bd 9a2f 2c3d 9135 4abd
000001d0: bcda c03c 7338 4ebd cfea c83d 112c 06bd
000001e0: 1abc 583d c16a 253d daf2 8b3d 89da 753d
000001f0: 73c8 613d 3202 e5bc 11f3 873d 85d7 d13d
-0.021909794 -0.042236183 -0.027227072 -0.052177444 -0.053554382 0.048812345 0.08093663 0.03926514
0.025690341 0.030712934 0.05179346 0.033220638 0.0769437 0.06924548 0.07265062 0.015936969
0.038319863 -0.005846017 0.08389576 -0.009424673 0.012912108 0.029083112 -0.074402444 0.0070339623
-0.031222016 -0.019590605 -0.0117309475 0.042192027 -0.054908816 -0.0047326013 0.023012148 -0.03455189
0.031153463 0.0058332584 0.03593159 -0.011941823 0.06091707 -0.042232476 -0.059331033 -0.041562267
-0.022308152 -0.019342743 0.05462188 0.031261522 0.009381719 0.0154735185 0.034322347 0.016227935
-0.022090588 0.06349081 0.06318177 0.0030780074 -0.0071894685 -0.018193046 0.010743612 0.044592842
0.006493303 0.036325175 0.018355979 0.048190024 0.085164815 -0.05016701 -0.058406234 0.010792221
-0.04532888 -0.02932513 -0.00948164 -0.0188713 0.015138347 -0.05199752 0.040440384 0.11334255
-0.0033245226 -0.032902684 -0.038148277 0.07114183 -0.05375573 -0.021104291 0.08218795 0.008122387
-0.028803756 0.070846796 0.04933283 -0.008229912 0.10289369 -0.031126661 -0.055195812 -0.03872415
-0.050015125 -0.037023563 0.014087374 -0.010602855 0.077233866 0.033407778 -0.017512321 0.06912478
-0.018596435 0.055289086 0.0024288963 -0.026872404 -0.034138158 -0.03283183 0.02629809 0.078840286
0.011415527 -0.009560458 -0.045965265 0.06390203 0.0040849387 -0.039331894 0.053589642 -0.05154866
0.057780523 -0.060635116 0.042037584 -0.04936749 0.0235418 -0.050346803 0.09810411 -0.03275687
0.052913763 0.04038501 0.0683343 0.060022864 0.055122804 -0.027955148 0.06638158 0.10246185

fc3.weight f4 [10, 128]
00000000: 4462 063b 3c6c 92bd 41b3 36bc e68f 333e
00000010: a0f8 85bc 4319 7fbc 24aa 92be 322c b3bd
00000020: d529 293e bbb3 aabe 6b6b aa3d 18ec 083e
00000030: 2365 243e e04a 253e 158c 4d3e 9eb0 8bbd
00000040: 95f6 7cbd 9fd3 873d 0150 4a3e 90db 823d
00000050: 52cc 1abb 3f94 5b3e e6a8 603b 6b28 ce3c
00000060: 4413 b13d a47b 913d fb58 353d 5a3d 76be
00000070: 75c4 673d 7eeb a1bd dd9d 1bbd 7e97 563d
00000080: 2805 253e 8e5a f63c fd8f 6abe d437 36bc
00000090: ae8b 053e f42d e23c 80de d83c afd2 aa3b
000000a0: e4ff 8c3d b177 313c 0bc2 5abe e832 ac3d
000000b0: a9e0 153e 4848 393d 6aaa 40bd acbe a23c
000000c0: 49f9 cf3c 4f2a 60bd 74a8 4abd c903 033d
000000d0: 4967 633b 3c6b ae3d d2b6 28be 844b 013e
000000e0: 2b6c 00bd 7529 563d e481 8d3c e758 963e
000000f0: 073e b73e 3648 fa3d 5ecb 153d a1ee 253d
00000100: 11a3 9bbd 4ae6 1f3d 88a5 353d 154b a13b
00000110: ab6d 913c daa3 3abd 341e 0ebe fffe 803e
00000120: b6fe 5b3c ce56 03bd 927e f43c 72e0 86be
00000130: ecbf db3c 1db0 b4bd 3f21 713d db68 1dbe
00000140: bcb0 2dbd 3ddb 883d 62d4 03bf 35b8 e5bc
00000150: 379b 0e3e 1ab3 3c3e 86e9 523d c26e e63d
00000160: 643a 4f3d 335d afbd 425f 53be e62f 923d
00000170: f7ee b2be f265 8b3c 1209 49bc 2934 c3bd
00000180: ee70 24bd 37d0 323d a717 23bd b3c0 a0bc
00000190: 5cd2 b63d 3a01 283d bb1e 31bd da06 3f3e
000001a0: a688 37be bb90 0abd 1406 17bd 374d cbbe
000001b0: f7bc d4bd e0a7 15bc 4a45 4b3d b43a 8ebd
000001c0: 1a69 d0bc 2880 38bc 1a1c b53d 31a9 26be
000001d0: b19d c9be 16d7 f93d ca73 8f3e 2735 d6bd
000001e0: 2608 3f3e 0741 823c e3a0 8f3d 837e 393e
000001f0: 71bc 42be e82c 93be a12d 303e 3adf d4be
00000200: 64cf 1e3d 3fef a9bd 9a06 973d cb2e 9f3c
00000210: 8a11 de3c c42b d93d 38c0 f7bd d369 14bc
00000220: bb75 803b d07c ce3d 3b23 62be 1e8d 133e
00000230: 0f34 92be f053 a1bd 576f 113e c11b 363e
00000240: 724f 5b3c 4a56 b03e 0437 063b 7280 08be
00000250: 3073 2b3d d05e 823d 0d02 ed3d 7ed4 bebd
00000260: 31bf 57bd 43a3 90bb b8a4 21be d868 5bbc
00000270: 1c02 0bbd e9bf 8c3d 4eb4 5cbe e4d0 aabd
00000280: a7c6 8e3e 9cc4 143e 962e d8bc 731b 3d3e
00000290: c24f fd3c 8a4b 753d 5269 fd3c 22fc d53d
000002a0: ebd4 37be bf89 e2bd c9ea 8bbe 4a5f 173d
000002b0: 9f8c c83e ed12 19bb ab13 04be 5b3d d3be
000002c0: b7c6 f4bc 6512 ae3d 78a2 18be 4bf0 7f3e
000002d0: 289d 9b3e 6632 81bd dcad c4bd a337 653e
000002e0: 0f00 953d 8a72 853d a589 e13c aae2 a43e
000002f0: 3ae7 53bd ecec f73d 885d 79ba eeb6 ef3d
00000300: dfc7 4d3d 8bae afbd 4649 a13c 2955 f7bc
00000310: f202 94be 26cf d5bd eb72 a33d b3fe 743e
00000320: 5c33 80ba 25c0 093c 238c b53d d72a 323e
00000330: bfbd e23c 3ce8 743e 301d a03e 186f 02be
00000340: e673 793c a59f 2cbe c044 4c3e b021 64bd
00000350: 1634 3b3d 55d5 9e3d ee8b 853d 100b 9d3d
00000360: d0a2 a5bc 1730 983d f848 a3bc e0cc 47be
00000370: d65f 133e 8f26 9c3c 4797 923d 5903 2fbe
00000380: 7014 23be 87b1 4abe 82f1 8b3d 49d4 8f3d
00000390: 3510 d83d 3ff2 f63c ab2e b2bd 3158 133e
000003a0: a7b9 42bc f578 1ebd ccdc 68bd 534b 433e
000003b0: 6c09 2dbe 0b65 02be 4bad 883d 8f91 8abd
000003c0: 4434 983d 1246 a6bc 35bf 3b3e 1169 d8bc
000003d0: 0cc9 933d ae19 4c3d 288b f4bd 6be3 6fbc
000003e0: 7bbd 203e d51a d33d 3f6b 34be 4f71 103e
000003f0: de2d 26bd f22c dcbd 277d 793e 5241 b03d
0.0020505348 -0.0714955 -0.011151136 0.17535362 -0.016353905 -0.015569988 -0.28645432 -0.08748664
0.16519864 -0.33340248 0.083212696 0.13371313 0.16054206 0.16141844 0.20072968 -0.068207964
-0.061758596 0.066321604 0.19757082 0.063895345 -0.002362032 0.2144327 0.0034280359 0.025165757
0.08646253 0.07103661 0.04427431 -0.24046841 0.05658384 -0.07906245 -0.037992347 0.052390568
0.16115248 0.030072477 -0.2290649 -0.011121709 0.13041565 0.027609803 0.026473284 0.0052131037
0.06884745 0.010831759 -0.21363084 0.08408147 0.14636482 0.04523495 -0.04703752 0.01986631
0.025387423 -0.05472785 -0.049477056 0.03198603 0.0034699014 0.08516547 -0.1647599 0.12626463
-0.031353157 0.05228563 0.01727385 0.29364702 0.3578951 0.122208044 0.0365709 0.040510777
-0.07599462 0.03903798 0.044347316 0.0049222806 0.01775249 -0.045566417 -0.13878709 0.25194547
0.013427427 -0.032065205 0.02984551 -0.26343113 0.026824914 -0.088226534 0.058869597 -0.1537203
-0.042404875 0.066824414 -0.51495945 -0.028041938 0.13926397 0.18427697 0.051492237 0.11251594
0.050592795 -0.08562698 -0.20641807 0.07138042 -0.3494794 0.017016385 -0.012270229 -0.09531433
-0.04014676 0.0436556 -0.03981748 -0.019623136 0.089268416 0.041016795 -0.043242197 0.18654957
-0.17923221 -0.033829432 -0.03687103 -0.39707348 -0.10387605 -0.009134263 0.049626626 -0.069447905
-0.025440741 -0.011261024 0.088432506 -0.16275479 -0.39378121 0.121992275 0.28018028 -0.10459357
0.18655452 0.015900148 0.070131086 0.18114667 -0.19017197 -0.28745198 0.17204906 -0.41576558
0.038772 -0.08297586 0.07374306 0.019431492 0.027107973 0.10604051 -0.1209721 -0.009058434
0.0039202846 0.100824 -0.22083752 0.144093 -0.28555343 -0.07877338 0.14202629 0.17784025
0.01338564 0.34440833 0.002047957 -0.13330248 0.0418579 0.0636574 0.11572657 -0.093178734
-0.05267257 -0.0044139936 -0.15785491 -0.013391696 -0.03393756 0.068725415 -0.21553156 -0.08340624
0.27885935 0.14528126 -0.026389401 0.18467502 0.03092182 0.059886493 0.03093401 0.10448481
-0.17952316 -0.11061429 -0.27327564 0.03695611 0.39169785 -0.0023357228 -0.12898128 -0.41257748
-0.02987991 0.08499602 -0.14905727 0.24994008 0.30393338 -0.06308441 -0.096034735 0.22384505
0.07275402 0.06515987 0.027531454 0.3220418 -0.051734187 0.12105736 -0.00095125334 0.11704813
0.05023944 -0.08578213 0.01968826 -0.030191975 -0.28908497 -0.10439901 0.07980903 0.23925285
-0.0009780931 0.008407627 0.088646196 0.17399155 0.027678369 0.23916715 0.31272268 -0.12737691
0.015225386 -0.16857775 0.19948101 -0.05569619 0.04570397 0.077555336 0.0652083 0.07668126
-0.020219237 0.074310474 -0.019932255 -0.19511747 0.14392027 0.019061355 0.0715776 -0.17091121
-0.15925765 -0.19794284 0.06833173 0.07022912 0.10549966 0.030144809 -0.087003075 0.14389111
-0.011885083 -0.038689572 -0.056851193 0.19071703 -0.16898125 -0.12733857 0.06673678 -0.06766044
0.07431844 -0.020297084 0.18334658 -0.026417287 0.07216081 0.049829178 -0.119406044 -0.014641623
0.15697281 0.10307852 -0.17619036 0.14105724 -0.040571086 -0.1075076 0.24364148 0.08606209

fc3.bias f4 [10]
00000000: 2b1e cbbc bb6d 41bd a3b3 043d 630b f53d
00000010: a849 9c3d 92f2 e53d b49b 883d 9ddc 153d
00000020: e0ef 63bd 85d9 693d
-0.024794659 -0.047223788 0.032397877 0.119650625 0.07631236 0.11227907 0.06670323 0.036587346
-0.055648685 0.05709221
