trained_models/ConvNet2_randCrop_ep=500.pth (torch, 986503 bytes, 10 tensors)

conv1.weight f4 [128, 3, 3, 3]
0.19166423 -0.056438673 0.009105125 0.10992169 -0.017976252 -0.2629096 0.10810135 -0.09794325
-0.20716096 0.15461205 0.15996459 -0.17412433 0.16603328 0.1463314 -0.25043914 0.24199224
-0.09891718 0.03479121 -0.028646529 0.028788444 -0.27424258 0.25330377 0.032579504 -0.069985464
-0.024614489 0.08419949 -0.30376533 -0.034116447 -0.14909348 0.090026125 0.086425975 0.11077921
-0.10007207 0.13038604 -0.018283889 -0.13944083 -0.16622004 0.03944716 -0.069215685 -0.12735823
0.06441812 -0.19007696 0.11451875 -0.17569518 0.04551798 0.036189348 0.07383235 0.044705153
0.1435876 0.16815259 0.15791361 -0.19138435 -0.05559443 0.074450806 0.13039057 0.03369814
-0.12029874 0.06949211 0.016586496 0.16067994 0.13714875 -0.019321643 -0.1266878 0.1170743
-0.013367403 0.023706406 -0.10858856 0.01789056 -0.19919385 0.13694413 0.08669537 0.074576534
0.13570495 -0.13467586 -0.15780172 -0.15996876 -0.13523953 -0.03557164 0.04604869 -0.06970086
0.10608063 0.060546055 -0.089574344 0.11686455 0.18943714 -0.18027218 0.12968127 0.050576046
-0.07720532 -0.13931459 -0.16253935 0.12014346 0.1303214 0.15926193 -0.0026454031 0.18193595
0.12332119 0.108965024 0.15161167 -0.15409827 -0.06266481 0.1643626 -0.023903325 0.18283688
-0.17087105 -0.08840766 -0.008883491 0.115574196 0.18754344 0.17257576 0.022538694 0.078664295
-0.14018142 -0.022632234 0.17263277 0.10881681 -0.14825968 0.07109712 -0.15506954 0.038850654
-0.031708386 -0.15825506 -0.058066454 -0.074973896 0.08017904 0.15255895 0.033823 0.09099727
-0.022670144 0.07011133 0.037310716 -0.042720556 -0.16666655 0.00255993 -0.05282742 -0.07014466
-0.13888188 -0.02056246 -0.0010772658 -0.12715735 0.015148756 -0.11922053 -0.09026777 -0.13730769
-0.016716773 0.12124794 -0.040643375 0.1249065 -0.032352522 -0.049526148 0.11544264 -0.10872246
0.09847528 0.18077119 0.18773842 0.09438667 0.028674604 0.13154963 -0.002722091 0.17272393
0.019608935 -0.17811018 -0.022145474 -0.07722402 0.12503938 0.10133193 -0.06689839 0.050889496
-0.09949408 0.09247255 0.072715856 -0.022382794 0.09115461 0.078141004 0.12298838 -0.052784435
-0.013579659 -0.08689419 -0.020275988 0.17020491 0.14971274 -0.12708399 0.18600251 -0.09554453
-0.17085049 0.16692151 0.183984 0.048913915 -0.13435027 0.12151305 0.12460545 -0.019497538
-0.11062775 0.20007981 0.10223408 -0.073417924 0.14882234 -0.063427314 -0.19179451 -0.0110766115
-0.05791211 -0.012935718 0.048373237 -0.07373373 -0.10833234 -0.018301355 0.08486931 -0.07756692
0.056327034 0.09406246 -0.06634935 0.13004838 -0.022168012 -0.1303762 0.14539854 -0.17178205
0.104478866 -0.008905907 7.356851e-05 0.15810072 0.05275377 -0.15630007 -0.045034595 0.1872395
-0.11123171 0.065758646 0.16731903 -0.13444918 -0.017396849 -0.069460854 -0.14892018 -0.14339821
0.0463247 -0.00086159515 0.07350242 -0.008435368 -0.11259139 -0.17713504 0.09468768 -0.14154136
0.08108595 0.12685433 0.19321248 0.13657989 0.12028972 0.17504752 0.17749907 -0.09199262
0.1955083 0.1291113 -0.15862773 -0.16735356 -0.15289885 -0.14642431 -0.13818504 0.11609377
00000000: a143 443e 3d2c 67bd aa2d 153c 9f1e e13d
00000010: ef42 93bc 169c 86be 3e64 dd3d 7896 c8bd
00000020: 0122 54be 9f52 1e3e c2cd 233e a64d 32be
00000030: a104 2a3e e6d7 153e 8f39 80be d0cc 773e
00000040: 1795 cabd 3a81 0e3d 20ac eabc bed5 eb3c
00000050: 8669 8cbe 08b1 813e 1672 053d 8a54 8fbd
00000060: 53a4 c9bc c870 ac3d 2187 9bbe b0bd 0bbd
00000070: f6ab 18be 9e5f b83d 1a00 b13d 36e0 e23d
00000080: 96f2 ccbd eb83 053e 18c8 95bc 94c9 0ebe
00000090: 9635 2abe 5893 213d f4c0 8dbd 326a 02be
000000a0: a6ed 833d 89a3 42be ce88 ea3d 70e9 33be
000000b0: 1071 3a3d 483b 143d 6a35 973d c01c 373d
000000c0: a108 133e 3130 2c3e 1bb4 213e 42fa 43be
000000d0: fcb6 63bd aa79 983d 1b85 053e 1007 0a3d
000000e0: 305f f6bd e151 8e3d 67e0 873c 4889 243e
000000f0: b970 0c3e 6c48 9ebc 72ba 01be a7c4 ef3d
00000100: f402 5bbc f033 c23c ae63 debd 398f 923c
00000110: 79f9 4bbe 153b 0c3e 588d b13d 95bb 983d
00000120: 3df6 0a3e 78e8 09be c696 21be dace 23be
00000130: 3b7c 0abe 91b3 11bd 8d9d 3c3d 53bf 8ebd
00000140: cd40 d93d 24ff 773d c172 b7bd ae56 ef3d
00000150: cffb 413e 4599 38be 2bcb 043e d428 4f3d
00000160: d31d 9ebd 7ca8 0ebe b770 26be c60d f63d
00000170: f972 053e 8f15 233e 805e 2dbb 6b4d 3a3e
00000180: d28f fc3d 0e29 df3d 1740 1b3e f0cb 1dbe
00000190: 6856 80bd ab4e 283e e8d0 c3bc 9739 3b3e
000001a0: d2f8 2ebe 130f b5bd 108c 11bc 2ab2 ec3d
000001b0: 630b 403e b3b7 303e 11a3 b83c bf1a a13d
000001c0: b88b 0fbe 3c67 b9bc a5c6 303e 59db de3d
000001d0: 63d1 17be 5e9b 913d 8dca 1ebe dd21 1f3d
000001e0: a7e0 01bd 9d0d 22be 17d7 6dbd ea8b 99bd
000001f0: e934 a43d 6a38 1c3e fc89 0a3d c75c ba3d
00000200: bdb6 b9bc 8796 8f3d 1fd3 183d c0fb 2ebd
00000210: a3aa 2abe 80c4 273b 9161 58bd 01a8 8fbd
00000220: 0d37 0ebe 9b72 a8bc 0b33 8dba 8935 02be
00000230: 7d32 783c e529 f4bd 4fde b8bd 639a 0cbe
00000240: 9df1 88bc d750 f83d ab79 26bd fbce ff3d
00000250: 1484 04bd eedb 4abd 316d ec3d e2a9 debd
00000260: 68ad c93d 151c 393e 803e 403e cc4d c13d
00000270: 01e7 ea3c f2b4 063e 1c65 32bb 8bde 303e
00000280: eba2 a03c 8462 36be 6d6a b5bc a127 9ebd
00000290: 530a 003e 1d87 cf3d 0602 89bd 8171 503d
000002a0: 8dc3 cbbd 4062 bd3d 0dec 943d 1f5c b7bc
000002b0: 45af ba3d 6408 a03d 55e1 fb3d 7e34 58bd
000002c0: 387d 5ebc 95f5 b1bd d419 a6bc 324a 2e3e
000002d0: 4c4e 193e 4e22 02be 7177 3e3e daac c3bd
000002e0: 6ef3 2ebe 79ed 2a3e 4d66 3c3e f559 483d
000002f0: 1e93 09be d5db f83d 2431 ff3d 4db9 9fbc
00000300: cd90 e2bd b9e1 4c3e 1a60 d13d 235c 96bd
00000310: e264 183e 2ee6 81bd c865 44be ad7a 35bc
00000320: 4035 6dbd 55f0 53bc 0423 463d b601 97bd
00000330: 59dd ddbd b9ec 95bc f6cf ad3d 68db 9ebd
00000340: 2db7 663d d2a3 c03d 2be2 87bd 672b 053e
00000350: b199 b5bc 5781 05be 5be3 143e a2e7 2fbe
00000360: 04f9 d53d 15ea 11bc cb48 9a38 28e5 213e
00000370: 5614 583d 200d 20be 3276 38bd b6bb 3f3e
00000380: 73cd e3bd 78ac 863d ae55 2b3e 0cad 09be
00000390: d683 8ebc 7e41 8ebd 887e 18be fbd6 12be
000003a0: f8be 3d3d acdc 61ba 7088 963d 7f34 0abc
000003b0: 5196 e6bd e362 35be 9deb c13d 38f0 10be
000003c0: 6410 a63d 1ae6 013e 7ed9 453e 99db 0b3e
000003d0: 755a f63d a83f 333e 51c2 353e a066 bcbd
000003e0: 5433 483e c135 043e 4f6f 22be bb5e 2bbe
000003f0: 8491 1cbe 41f0 15be 6180 0dbe 92c2 ed3d

conv1.bias f4 [128]
-0.117299855 -0.14368992 0.018320866 -0.13319407 0.023726469 0.16070332 -0.03203849 0.067852065
0.022817655 -0.09252962 -0.04052429 0.04103428 -0.13246432 -0.059581332 0.021713689 -0.011650666
-0.0051928824 -0.14181323 -0.3473035 0.15290003 -0.19262233 0.15515046 -0.043981377 0.033161156
-0.0065789665 -0.08798913 -0.1936724 0.14182003 0.08491076 0.12205872 -0.15125147 -0.109822996
-0.09391864 0.043695405 -0.009214512 -0.06851253 -0.13062093 0.109759554 -0.10048356 -0.27920255
0.013294339 -0.09569479 0.13311414 0.11629992 -0.12044915 -0.07756002 0.19038454 0.17762141
-0.115281664 0.14108945 -0.106711775 0.12322209 0.08996135 -0.05174309 0.1581812 -0.06011933
0.09515346 -0.13217393 -0.18936308 -0.08112696 0.0026526283 -0.12216208 0.025068559 -0.007858687
0.1528533 0.07381591 -0.1188477 -0.08995066 -0.017619325 -0.08934075 0.107978635 -0.042057864
0.34852466 0.16659336 -0.033014998 -0.2269726 0.1471518 -0.03611997 0.13410531 0.11868647
0.049745183 0.021103483 -0.14454095 -0.053204462 0.056625556 -0.038296506 -0.03450738 -0.17356642
0.08504754 0.13016258 -0.06529965 0.09430979 -0.06671516 0.05192407 -0.17662272 -0.14600876
-0.15270127 -0.17068197 0.041496225 0.15119293 -0.026775362 -0.15392555 -0.00045556904 -0.29404148
-0.17993571 0.0013331975 0.067413956 0.1458641 0.099582486 0.06349068 0.07330768 0.12924606
-0.0006746646 -0.16917448 -0.092891395 -0.042560723 0.016570272 0.053417817 0.044948228 0.1607434
-0.073653884 -0.39536554 -0.08628734 -0.07167388 -0.16224797 -0.24244565 0.060989935 -0.11530637
00000000: e83a f0bd 7323 13be a415 963c 0764 08be
00000010: 035e c23c 698f 243e cb3a 03bd 06f6 8a3d
00000020: 17ec ba3c 2b80 bdbd ccfc 25bd 9013 283d
00000030: baa4 07be 8e0b 74bd e8e0 b13c 6fe2 3ebc
00000040: 0e29 aabb 7d37 11be c4d1 b1be d391 1c3e
00000050: ca3e 45be c3df 1e3e d125 34bd fed3 073d
00000060: 5f94 d7bb a533 b4bd 0f52 46be 4539 113e
00000070: b1e5 ad3d ecf9 f93d aae1 1abe e1ea e0bd
00000080: 6a58 c0bd f4f9 323d 77f8 16bc 4c50 8cbd
00000090: 7ec1 05be 9ec9 e03d 53ca cdbd a3f3 8ebe
000000a0: 80d0 593c a1fb c3bd 134f 083e a72e ee3d
000000b0: 0bae f6bd cad7 9ebd 2af4 423e 63e2 353e
000000c0: cb18 ecbd c179 103e b48b dabd dd5b fc3d
000000d0: a83d b83d 90f0 53bd 41fa 213e b03f 76bd
000000e0: d1df c23d 9a58 07be 65e8 41be e425 a6bd
000000f0: b8d7 2d3b 1d30 fabd 945c cd3c b9c1 00bc
00000100: 9385 1c3e cc2c 973d 6c66 f3bd 0d38 b8bd
00000110: 6756 90bc 48f8 b6bd e723 dd3d de44 2cbd
00000120: d371 b23e 7397 2a3e bc3a 07bd 816b 68be
00000130: f6ae 163e 89f2 13bd e752 093e e411 f33d
00000140: 9bc1 4b3d 36e1 ac3c 8b02 14be ecec 59bd
00000150: 33f0 673d ccdc 1cbd 9c57 0dbd 65bb 31be
00000160: 682d ae3d 5749 053e d3bb 85bd 7e25 c13d
00000170: f5a1 88bd 55ae 543d 96dc 34be 5283 15be
00000180: b95d 1cbe 41c7 2ebe f2f7 293d 52d2 1a3e
00000190: 0158 dbbc a99e 1dbe 71d9 eeb9 9b8c 96be
000001a0: 1141 38be afbe ae3a 5410 8a3d 665d 153e
000001b0: e7f1 cb3d 6707 823d 5622 963d 1459 043e
000001c0: fadb 30ba 133c 2dbe d83d bebd 2754 2ebd
000001d0: 61be 873c a4cc 5a3d a21b 383d eb99 243e
000001e0: d9d7 96bd 5a6d cabe 6bb7 b0bd c1c9 92bd
000001f0: 5524 26be ac43 78be 95d0 793d bf25 ecbd

conv2.weight f4 [56, 128, 3, 3]
0.0065649897 0.010862789 -0.00935529 0.02366089 -0.026103944 -0.030281302 0.006604265 0.01049124
0.014058221 0.00925518 -0.01638994 0.015008511 0.013741633 0.014265167 -0.015287656 0.0014946572
0.0035701413 0.020924488 0.02050985 -0.014695136 -0.007994039 0.012204633 0.014949679 0.0009795087
-0.004965773 -0.026984625 -0.03374301 0.016977148 -0.0050741676 -0.0042632762 -0.021367336 0.016953608
0.008101812 0.017813144 0.019383429 -0.005324876 0.014727299 -0.00023887907 -0.0072038486 -0.023026936
0.016783124 -0.0005686637 -0.023182677 0.028122524 0.007409772 -0.008903273 -0.0042185644 0.012450751
-0.008755169 0.008507643 -0.023569778 -0.008616915 -0.023055008 -0.025391513 0.0004497501 -0.0023792945
-0.0003423301 0.0022353027 -0.02115471 0.030307658 0.0107644815 -0.01767794 -0.021543816 -0.011503127
-0.00133065 -0.021091899 -0.030928778 0.0006961772 0.033457417 0.02058386 0.010949364 -0.01419464
0.022881776 -0.025419254 0.021455012 -0.030143932 0.02426269 0.013483765 0.0075021116 -0.01120659
-0.02391468 -0.0058329934 0.016991599 -0.012807757 -0.009985564 0.011496512 0.015015753 -0.014517109
0.00056466274 0.014174344 -0.021210797 0.06799405 0.020638518 -0.056458652 0.016943118 -0.008155744
-0.009282168 0.02504393 0.028368887 0.013818678 0.018711692 0.029006047 0.03423585 0.0053176195
0.018825246 0.026915148 -0.025969394 -0.026545456 -0.025747336 -0.025884232 0.016811067 -0.01341928
-0.026899094 0.025566466 -0.007994791 -0.006864804 -0.014746315 -0.028116621 0.009078646 -0.010563542
0.0011331048 -0.021639695 -0.009734619 -0.017936487 -0.016283076 0.028169578 -0.0021738932 0.0222451
-0.010651948 -0.016147666 0.022006867 0.011805521 -0.0030561164 0.008245779 0.012974871 -0.011251691
-0.013993295 -0.026182644 0.0063647195 0.020583184 0.0176061 0.006764934 0.013192788 -0.022034707
-0.008787398 0.00515838 0.028532868 0.022413597 0.024711752 0.026046572 0.0015076451 -0.014796093
-0.026652735 0.0059688743 -0.0046432484 0.01016774 0.028220752 -0.013129305 0.010571459 -0.02814686
0.005288398 -0.014453799 -0.004924566 0.014640786 -0.030474935 0.007138759 -0.010350654 -0.030143809
0.056576617 0.004691829 0.0040312526 -0.014476768 -0.0139916055 -0.01915995 0.026333435 0.0059183184
-0.028868435 0.010717982 -0.027461335 0.015638622 -0.038775492 0.048393175 -0.028397039 -0.052023027
0.0898165 -0.029612454 -0.026242932 0.09523312 -0.019228963 0.005993886 -0.0012213597 0.00091894617
0.025524758 -0.0068496037 -0.005462939 -0.0017897614 -0.0069604777 0.013201755 0.026873583 -0.018676901
0.015690047 -0.020127987 -0.02550894 -0.021686502 -0.02432025 -0.03663614 0.0039379126 0.027223438
0.0076869098 -0.005067386 -0.015210894 -0.016977353 0.025822904 -0.0021865235 -0.012447575 -0.006189805
0.010875658 0.022281414 0.008430019 0.036795683 0.009184842 -0.02698339 0.035818513 -0.011096807
0.011486275 -0.0048556887 0.0051131416 -0.022537554 0.00045756996 0.011781918 -0.0028319098 0.0072459895
0.00019675493 0.016378077 -0.05149221 0.051006936 0.0004960666 -0.06039331 0.0787804 0.009498673
-0.07200757 0.045000874 0.010555455 -0.010383814 -0.017623793 -0.0026405212 -0.014944084 0.0044284593
0.0144317765 0.012344332 0.024436543 -0.004468353 0.014647089 0.0283044 -0.020447018 0.018312259
00000000: 201f d73b d7f9 313c ee46 19bc 7cd4 c13c
00000010: f0d7 d5bc 7e10 f8bc 9768 d83b 73e3 2b3c
00000020: 7454 663c 0aa3 173c 3244 86bc 42e6 753c
00000030: 9624 613c 72b8 693c 1479 7abc 60e8 c33a
00000040: 08f9 693b d569 ab3c 4604 a83c dec3 70bc
00000050: 6ef9 02bc f1f5 473c 80ef 743c dc62 803a
00000060: ecb7 a2bb dc0e ddbc 1c36 0abd a913 8b3c
00000070: 3445 a6bb f4b2 8bbb 8d0a afbc 4be2 8a3c
00000080: 76bd 043c dfec 913c ffc9 9e3c 4c7c aebb
00000090: c54a 713c 9d7b 7ab9 430e ecbb fca2 bcbc
000000a0: c37c 893c 6012 15ba 99e9 bdbc 3561 e63c
000000b0: accd f23b 09df 11bc e23b 8abb 3cfe 4b3c
000000c0: d771 0fbc a463 0b3c 6815 c1bc f62d 0dbc
000000d0: dbdd bcbc dd01 d0bc 70cc eb39 f0ed 1bbb
000000e0: c57a b3b9 287e 123b a44c adbc c447 f83c
000000f0: 825d 303c 54d1 90bc a87c b0bc 9d77 3cbc
00000100: 3469 aeba ebc8 acbc 595e fdbc a97f 363a
00000110: a50a 093d 7c9f a83c f664 333c a390 68bc
00000120: 9072 bb3c 0a3c d0bc 6cc2 af3c 68f0 f6bc
00000130: 8dc2 c63c 02eb 5c3c 46d4 f53b d89b 37bc
00000140: b8e8 c3bc b222 bfbb f731 8b3c a0d7 51bc
00000150: 7e9a 23bc de5b 3c3c a204 763c 2bd9 6dbc
00000160: e005 143a 823b 683c 44c2 adbc 7740 8b3d
00000170: 1c12 a93c 3041 67bd 4bcc 8a3c ab9f 05bc
00000180: 3c14 18bc ee28 cd3c de65 e83c bd67 623c
00000190: 4349 993c 179e ed3c e43a 0c3d 6d3f ae3b
000001a0: 6737 9a3c 287d dc3c c4bd d4bc db75 d9bc
000001b0: 14ec d2bc 2b0b d4bc 5db7 893c 8adc 5bbc
000001c0: 7d5b dcbc c470 d13c 95fc 02bc 26f2 e0bb
000001d0: 879a 71bc d454 e6bc 9abe 143c b512 2dbc
000001e0: b084 943a bb45 b1bc f47d 1fbc 8aef 92bc
000001f0: 1664 85bc e3c3 e63c e077 0ebb 5b3b b63c
00000200: 8285 2ebc 1c48 84bc bf47 b43c f26b 413c
00000210: 2049 48bb 4e19 073c 8e94 543c 0359 38bc
00000220: 2244 65bc fc7c d6bc 238f d03b 119e a83c
00000230: ab3a 903c 61ac dd3b 9026 583c 2182 b4bc
00000240: 05f9 0fbc a107 a93b c3bd e93c b89c b73c
00000250: 4d70 ca3c 9f5f d53c 2d9c c53a 506b 72bc
00000260: d656 dabc 8c96 c33b 6426 98bb 9896 263c
00000270: 352f e73c 4c1c 57bc ea33 2d3c 3e94 e6bc
00000280: 4c4a ad3b a1cf 6cbc 415e a1bb e8df 6f3c
00000290: 92a6 f9bc 40ec e93b ca95 29bc 26f0 f6bc
000002a0: e2bc 673d eabd 993b 9918 843b f72f 6dbc
000002b0: 0c3d 65bc 54f5 9cbc 37b9 d73c 74ee c13b
000002c0: 7f7d ecbc 7a9a 2f3c 98f6 e0bc 911c 803c
000002d0: 0dd3 1ebd ec37 463d e8a0 e8bc 1916 55bd
000002e0: b7f1 b73d d195 f2bc 6bfb d6bc 9509 c33d
000002f0: 0f86 9dbc 5c68 c43b 0816 a0ba 6fe5 703a
00000300: 4c19 d13c a472 e0bb 7402 b3bb 6d96 eaba
00000310: b814 e4bb 2c4c 583c fd25 dc3c 4d00 99bc
00000320: 6a88 803c 73e3 a4bc 20f8 d0bc e4a7 b1bc
00000330: 433b c7bc c70f 16bd 9b09 813b b003 df3c
00000340: 79e2 fb3b 510c a6bb 1d37 79bc 1714 8bbc
00000350: 8e8a d33c c74b 0fbb eaf0 4bbc d9d3 cabb
00000360: d12f 323c 8387 b63c 101e 0a3c 12b7 163d
00000370: 057c 163c 450c ddbc 6fb6 123d 62cf 35bc
00000380: ee30 3c3c 781c 9fbb 248c a73b ada0 b8bc
00000390: 00e6 ef39 f208 413c 9097 39bb c46f ed3b
000003a0: 0050 4e39 512b 863c 7fe9 52bd a6ec 503d
000003b0: 770a 023a fa5e 77bd 9e57 a13d 52a0 1b3c
000003c0: b478 93bd d652 383d caf0 2c3c df20 2abc
000003d0: c65f 90bc 980c 2dbb 08d8 74bc 9c1c 913b
000003e0: 4273 6c3c e23f 4a3c 252f c83c 436b 92bb
000003f0: 58fa 6f3c a1de e73c 8180 a7bc 9703 963c

conv2.bias f4 [56]
0.020473432 0.024615103 0.017532593 0.019385414 -0.011462577 0.04590137 -0.011530995 -0.0043749064
-0.010262476 0.0014257261 0.03377823 0.0071714204 -0.014432341 -0.023214377 0.04697291 0.0034188826
0.002067776 -0.009273357 0.013634184 -0.028926177 0.034203682 -0.0112302415 0.015339142 0.0009887804
0.035978388 0.10445272 0.019217262 0.045317005 -4.829631e-05 0.032088038 -0.02326703 0.015309429
-0.02555269 -0.0014778506 0.02401579 0.022467678 0.0035998796 -0.01652335 0.008807632 0.07111665
-0.025559723 0.009328319 0.013111008 0.0340511 0.0030424779 0.028289136 0.025036057 0.008547204
0.021253487 0.017064242 0.0076663396 0.0058033047 0.031161705 -0.0042672115 0.00780675 0.008431207
00000000: e6b7 a73c 9da5 c93c 83a0 8f3c 29ce 9e3c
00000010: 88cd 3bbc 1303 3c3d 80ec 3cbc 605b 8fbb
00000020: f223 28bc 6edf ba3a 0b5b 0a3d 3cfe ea3b
00000030: a075 6cbc 142c bebc ab66 403d 550f 603b
00000040: 8683 073b 47ef 17bc ea61 5f3c 97f6 ecbc
00000050: 2919 0c3d 0cff 37bc 0651 7b3c f799 813a
00000060: 135e 133d 4feb d53d 856d 9d3c 539e 393d
00000070: c591 4ab8 bf6e 033d 809a bebc 66d4 7a3c
00000080: e053 d1bc 70b4 c1ba c3bc c43c 230e b83c
00000090: f5eb 6b3b fa5b 87bc e34d 103c 9ba5 913d
000000a0: a062 d1bc ced5 183c 8ecf 563c 2b79 0b3d
000000b0: 4f64 473b 9ebe e73c 6b18 cd3c 9209 0c3c
000000c0: cb1b ae3c 4fca 8b3c eb35 fb3b a629 be3b
000000d0: d546 ff3c f7d3 8bbb c4cf ff3b 0c23 0a3c

fc1.weight f4 [256, 560]
0.0054744864 -0.02159815 -0.010034203 -0.047279324 0.007421578 -0.009441323 0.0022877033 -0.048077587
-0.04390046 0.0015913799 0.00495908 -0.0058113923 -0.021247918 0.018483737 0.03491145 -0.032558523
-0.0057549556 0.034327287 -0.032648683 -0.024039736 -0.03539947 -0.0019424073 0.0044646002 0.03130853
-0.020889644 0.030618146 0.038947172 0.007725466 0.0015705712 -0.02183988 -0.005178942 -0.0035710377
-0.02040953 -0.03318008 -0.0043822955 -0.032864787 -0.046062175 -0.011157985 -0.028992347 -0.046867993
0.015921656 -0.016593816 0.03564918 0.00012253597 0.03509865 0.0414052 -0.002958551 -0.018648325
0.001972247 -0.030786265 -0.07069565 -0.017630238 0.0033843871 -0.022583352 -0.06537621 -0.015172602
0.009969003 0.015579175 -0.04633277 0.0008030323 0.0066733137 0.024958953 0.014987685 -0.037728056
-0.008956242 -0.020649742 -0.027027318 -0.026477383 0.011916529 -0.01777224 -0.015456608 0.034887344
0.0032884367 0.012567576 0.020835258 -0.016920988 0.021247461 0.02637706 -0.020870285 0.00026410818
0.036443852 0.036582485 0.029254027 -0.0018786341 0.039977826 0.015490219 -0.0022381656 -0.029658824
-0.017668363 -0.036771182 -0.041916136 -0.033825256 -0.025300883 -0.038336925 -0.0037695207 -0.026399987
0.034497812 -0.014397385 -0.016682638 -0.027777735 0.030794917 -0.00832201 0.0267747 0.0139983315
0.012915725 0.020114942 0.0061693094 0.009504611 0.048746657 0.02891426 -0.02205998 0.016475607
-0.041816264 -0.029322498 -0.01564598 0.039396863 0.03872168 -0.028086357 -0.024914926 -0.03776023
0.035273552 0.038351603 0.031254094 -0.016230617 -0.0061331415 -0.027822947 -0.033019453 -0.0033955707
-0.03622627 -0.034416508 -0.017571036 -0.03826042 0.027960792 -0.0068544634 -0.018566072 0.013415325
0.036875762 -0.012260906 0.02824299 -0.011129692 0.040415198 -0.02660146 -0.0049302364 0.04418263
-0.02062036 -0.035803724 0.032474697 -0.011014484 0.03165722 -0.008014357 0.03099629 -0.028828328
-0.00057538575 -0.053275663 -0.035910778 0.011870237 -0.008456405 -0.032319974 -0.024332834 -0.00991415
0.03766518 0.0078597665 0.03208354 -0.037681095 -0.03326916 -0.052628946 0.026299132 -0.0015061884
-0.03446269 0.032050956 -0.01898828 0.004399446 0.019531304 0.029260319 0.032625888 0.027240755
0.015989859 -0.008850041 -0.014240021 0.009977799 0.005468717 -0.014575494 -0.02039191 0.004264378
0.020247411 -0.0028233393 -0.021045608 -0.03878697 -0.055751663 -0.013147709 -0.024409413 -0.023583708
0.0021553806 0.024959108 -0.013968934 -0.013530659 -0.032974474 0.031859677 0.0043081488 0.037971843
0.03514999 0.037421588 -0.03940721 0.019182373 -0.011133296 0.009790406 0.041955095 0.009399869
0.06426 0.029911382 -0.021305008 0.031787418 0.0077081174 0.023909159 0.028634459 -0.0129615385
-0.016178729 0.012753308 -0.028456798 -0.02530186 0.03795381 -0.010984354 -0.019879619 0.03235039
-0.030520221 -0.03629027 -0.0029987486 -0.021339491 -0.010184564 -0.013006728 -0.0097706085 -0.043904036
-0.044010803 0.02235075 0.008819155 -0.015723007 -0.041508004 -0.033078063 -0.015156274 -0.008081373
-0.0044042347 -0.035339132 0.035671655 -0.019684607 -0.028094087 -0.04182865 -0.01649265 -0.018182388
-0.042102832 0.03133397 -0.0070788595 0.033327986 0.030755667 0.02315532 0.052340634 -0.0068331007
00000000: 5263 b33b 9aee b0bc 7f66 24bc f7a7 41bd
00000010: b530 f33b c7af 1abc 4bed 153b 01ed 44bd
00000020: f8d0 33bd d995 d03a c77f a23b 7e6d bebb
00000030: 1d10 aebc 356b 973c 4fff 0e3d 165c 05bd
00000040: 1194 bcbb c59a 0c3d a0ba 05bd fbee c4bc
00000050: 09ff 10bd 6098 feba c84b 923b 603d 003d
00000060: c220 abbc e8d2 fa3c 1287 1f3d e825 fd3b
00000070: a0db cd3a 8ce9 b2bc 1db4 a9bb 1208 6abb
00000080: e331 a7bc d6e7 07bd 5c99 8fbb 3a9d 06bd
00000090: b1ab 3cbd fbcf 36bc 5c81 edbc a7f8 3fbd
000000a0: 226e 823c c1ef 87bc e004 123d 007d 0039
000000b0: 9ac3 0f3d 8098 293d 40e4 41bb 5fc4 98bc
000000c0: d040 013b 7a33 fcbc e2c8 90bd 4a6d 90bc
000000d0: 98cc 5d3b b900 b9bc f6e3 85bd 8196 78bc
000000e0: 0755 233c cc3f 7f3c 6ec7 3dbd 9682 523a
000000f0: d0ab da3b b876 cc3c e88e 753c bc88 1abd
00000100: 34bd 12bc a629 a9bc 6568 ddbc 19e7 d8bc
00000110: 8c3d 433c 1797 91bc b63d 7dbc 08e6 0e3d
00000120: d082 573b 3ce8 4d3c b4ae aa3c e29d 8abc
00000130: 280f ae3c b414 d83c 29f8 aabc 0078 8a39
00000140: 2646 153d 84d7 153d 24a6 ef3c 803c f6ba
00000150: cabf 233d b0ca 7d3c 30ae 12bb 10f7 f2bc
00000160: 3ebd 90bc 619d 16bd 41b0 2bbd 5a8c 0abd
00000170: cc43 cfbc 2e07 1dbd 100a 77bb c944 d8bc
00000180: 944d 0d3d 02e3 6bbc 07aa 88bc 228e e3bc
00000190: 9f45 fc3c 0a59 08bc 9e56 db3c 4259 653c
000001a0: 7a9c 533c 17c8 a43c eb27 ca3b 3ab9 1b3c
000001b0: 93aa 473d 99dd ec3c 22b7 b4bc daf7 863c
000001c0: 8847 2bbd bc35 f0bc 002c 80bc 9b5e 213d
000001d0: a09a 1e3d 5c15 e6bc 631a ccbc 79aa 1abd
000001e0: 007b 103d 9216 1d3d 4b04 003d 12f6 84bc
000001f0: 85f8 c8bb f3ec e3bc 683f 07bd 3988 5ebb
00000200: ff61 14bd 53f8 0cbd 22f1 8fbc f5b6 1cbd
00000210: 080e e53c 689b e0bb e017 98bc f4cb 5b3c
00000220: 0a0b 173d f8e1 48bc d85d e73c 5059 36bc
00000230: 688a 253d 4eeb d9bc d28d a1bb d8f8 343d
00000240: 07ec a8bc eda6 12bd 3004 053d 1876 34bc
00000250: 00ab 013d a64e 03bc eeeb fd3c 6329 ecbc
00000260: 7cd5 16ba 9537 5abd 2e17 13bd 627b 423c
00000270: bc8c 0abc f361 04bd a755 c7bc f66e 22bc
00000280: ce46 1a3d 40c6 003c 086a 033d 7e57 1abd
00000290: 3e45 08bd 7391 57bd 4771 d73c 4c6b c5ba
000002a0: c028 0dbd dd47 033d 4f8d 9bbc 3a29 903b
000002b0: 1d00 a03c 56b3 ef3c b9a2 053d 0128 df3c
000002c0: 2afd 823c c3ff 10bc fa4e 69bc ec79 233c
000002d0: ec32 b33b 0ece 6ebc ef0c a7bc 32bc 8b3b
000002e0: e6dd a53c c607 39bb d767 acbc 16df 1ebd
000002f0: db5b 64bd 7d69 57bc 40f6 c7bc 9f32 c1bc
00000300: 4941 0d3b 0b77 cc3c f5dd 64bc b2af 5dbc
00000310: 3e10 07bd 4b7f 023d 5f2b 8d3b 5d88 1b3d
00000320: 70f9 0f3d 6147 193d 7469 21bd 5a24 9d3c
00000330: 6e68 36bc f067 203c 1bd9 2b3d e801 1a3c
00000340: bf9a 833d b708 f53c d787 aebc 8633 023d
00000350: 6094 fc3b 24dd c33c d092 ea3c a25c 54bc
00000360: 4189 84bc 40f3 503c 3b1e e9bc d945 cfbc
00000370: 7475 1b3d b8f7 33bc 95da a2bc d881 043d
00000380: 8b05 fabc 1ba5 14bd a786 44bb 28d0 aebc
00000390: 28dd 26bc 2c1a 55bc e714 20bc b8d4 33bd
000003a0: ac44 34bd ec18 b73c 387e 103c 89cd 80bc
000003b0: 4c04 2abd dd7c 07bd 0552 78bc bc67 04bc
000003c0: 6651 90bb c4bf 10bd 711c 123d 9d41 a1bc
000003d0: 9225 e6bc 8554 2bbd 981b 87bc 3bf3 94bc
000003e0: 0574 2cbd 0d58 003d c7f5 e7bb ed82 083d
000003f0: 4ff3 fb3c 3ab0 bd3c 2263 563d 34e8 dfbb

fc1.bias f4 [256]
-0.020916782 0.019722775 0.011369433 0.0061002215 -0.04044515 0.00057524815 0.047495246 -0.013591815
-0.013908885 -0.044012588 0.04239819 -0.0050092903 -0.020978527 -0.005577769 -0.023212634 -0.008454029
0.042963907 -0.039803542 0.02691563 0.0046477118 -0.007498231 0.0023201746 0.01747548 -0.021567388
0.029543325 -0.028997816 -0.014191725 -0.04876379 -0.025686862 -0.014965913 0.034830004 0.008973325
0.011992485 0.01294312 0.04844202 -0.03525844 0.022334114 0.042067684 -0.028039498 0.009538383
0.005723738 -0.00048091717 0.025192117 -0.029648457 0.017583003 0.022782138 -0.014531142 -0.032930985
0.036716707 0.00038476533 -0.03718051 0.00505436 0.05271317 -0.037051007 -0.03936521 0.0014234652
0.0035745641 0.003667532 -0.040431067 -0.008223976 0.06602485 -0.02821497 0.005729761 0.040585905
0.015071542 -0.03441332 -0.022875324 -0.030823447 -0.030271528 -0.022537632 0.052216683 0.016780779
0.050927557 -0.0035873896 0.023193501 -0.012183211 0.023365095 0.015743775 0.009889331 -0.006596367
0.038693305 -0.022798713 0.0029296433 -0.0001765057 0.03064888 0.003374732 -0.03417808 0.00010139367
0.0364353 -0.0018534261 0.033188052 0.057132393 0.0007044658 0.03380769 0.044597603 0.00062996976
0.0060600415 0.0063003683 0.0066505987 0.0348545 0.013213107 0.016549176 0.048003722 0.03305817
0.041570406 0.02028057 -0.029964384 0.01254822 0.02638609 0.03372422 0.007213956 0.012778081
0.027890429 0.016244365 0.037091542 0.033092115 0.001961265 0.033070754 0.020541178 0.0014427009
-0.006418176 -0.024592115 -0.039977983 0.05152467 0.0105479285 -0.0018643606 -0.016318008 0.006244364
-0.034157977 0.020133708 -0.032583166 -0.005525381 -0.04695852 -0.037168983 -0.038614076 0.018688567
0.041033 0.017720858 -0.016351467 0.0050877384 0.0031056467 -0.037380025 0.046839714 0.018844811
-0.011498019 0.00032261887 -0.01599266 -0.041257236 0.014556896 0.033558372 0.021887835 -0.016597109
0.0040790527 -0.020476758 0.0015742842 0.022704767 0.017891204 -0.0250127 0.009457827 -0.03371479
-0.040842243 -0.0043547787 0.015585332 0.025994763 0.037479144 -0.007033644 -0.01115919 0.020451443
-0.020097675 -0.027479358 0.00569057 -0.016158652 0.027605593 0.041266706 -0.02752075 -0.0007069573
-0.009234805 -0.037865426 0.009471194 0.04036241 -0.014408683 0.02673568 0.018577393 0.05188155
0.02116089 0.01975704 -0.024276862 0.036043067 -0.03096555 0.01344171 -0.02038908 0.011505986
0.01956617 -0.0016842298 0.023654222 0.0040228483 -0.0066278516 0.025824962 0.011574381 -0.036038406
-0.032307927 -0.019664664 0.061937567 0.040784527 0.051362596 -0.043343376 0.034019478 0.01609152
-0.026279233 0.035267606 -0.0029100385 0.035094384 -0.005314824 -0.028240103 0.036062755 -0.026323427
0.021830013 -0.024742331 -0.03751872 0.034271702 0.032422505 0.020460902 0.00027124703 -0.0051502124
0.02590578 0.009114694 0.022383258 0.0018757022 -0.0033505145 -0.028020097 0.039947845 -0.027282678
-0.012111175 0.029712455 0.026799144 -0.029424623 0.04550628 -0.008232562 0.015977152 -0.044739407
0.023625318 -0.0044925655 0.027986288 0.081683144 0.0058054067 0.0132247135 0.022513734 0.019998005
-0.025933176 0.035396893 -0.0059660603 -0.037379492 0.03275252 -0.017235179 -0.0070985253 -0.00013825617
00000000: ac59 abbc a891 a13c dc46 3a3c 5ee4 c73b
00000010: d0a9 25bd 40cc 163a 608a 423d 34b0 5ebc
00000020: 18e2 63bc 8b46 34bd b9a9 2d3d f924 a4bb
00000030: 29db abbc b8c5 b6bb 6c28 bebc c582 0abc
00000040: ecfa 2f3d 0a09 23bd 2b7e dc3c d54b 983b
00000050: b8b3 f5bb 120e 183b bd28 8f3c 17ae b0bc
00000060: d804 f23c d48c edbc 6984 68bc 8abc 47bd
00000070: 416d d2bc 9733 75bc e8a9 0e3d da04 133c
00000080: 217c 443c 610f 543c 246b 463d 276b 10bd
00000090: 08f6 b63c 2a4f 2c3d 17b3 e5bc e146 1c3c
000000a0: 328e bb3b 9c23 fcb9 b35f ce3c 52e1 f2bc
000000b0: 3b0a 903c 9ba1 ba3c 0714 6ebc a4e2 06bd
000000c0: 4264 163d 54ba c939 974a 18bd 0b9f a53b
000000d0: c4e9 573d ccc2 17bd 6a3d 21bd 9193 ba3a
000000e0: 3c43 6a3b fa5a 703b 0c9b 25bd dbbd 06bc
000000f0: 0938 873d 1523 e7bc b8c0 bb3b 683d 263d
00000100: a1ee 763c fbf4 0cbd 0865 bbbc 7481 fcbc
00000110: fffb f7bc d7a0 b8bc 29e1 553d d877 893c
00000120: 6a99 503d 691a 6bbb 4c00 be3c 179c 47bc
00000130: 2868 bf3c 17f9 803c dc06 223c 5626 d8bb
00000140: df7c 1e3d 5ec4 babc 42ff 3f3b 6314 39b9
00000150: 5c13 fb3c 9c2a 5d3b 50fe 0bbd 50a3 d438
00000160: 2e3d 153d a9ee f2ba 32f0 073d a803 6a3d
00000170: e6ab 383a ef79 0a3d faab 363d 8e24 253a
00000180: 5093 c63b 5273 ce3b 44ed d93b 98c3 0e3d
00000190: ca7b 583c 2392 873c 8d9f 443d 0168 073d
000001a0: bb45 2a3d 7023 a63c de77 f5bc 0d97 4d3c
000001b0: a427 d83c 6822 0a3d 0d63 ec3b 285b 513c
000001c0: 787a e43c e712 853c 4ded 173d 998b 073d
000001d0: 9188 003b 3375 073d f945 a83c 0219 bd3a
000001e0: 904f d2bb 6775 c9bc f4bf 23bd 880b 533d
000001f0: 38d1 2c3c 905d f4ba 58ad 85bc 869d cc3b
00000200: 3ce9 0bbd 72ef a43c ed75 05bd 410e b5bb
00000210: 9457 40bd 813e 18bd cb29 1ebd c418 993c
00000220: 3812 283d 552b 913c 83f3 85bc 0bb7 a63b
00000230: 1b88 4b3b cc1b 19bd 00db 3f3d 6f60 9a3c
00000240: 3062 3cbc 2c25 a939 0a03 83bc 59fd 28bd
00000250: 0c80 6e3c 8174 093d 1e4e b33c a9f6 87bc
00000260: 93a9 853b e0be a7bc 3658 ce3a 59ff b93c
00000270: 9390 923c 6fe7 ccbc 00f5 1a3c 8518 0abd
00000280: 324a 27bd 88b2 8ebb 9f59 7f3c f8f2 d43c
00000290: bb83 193d 7b7a e6bb 09d5 36bc c989 a73c
000002a0: e1a3 a4bc 641c e1bc f677 ba3b 265f 84bc
000002b0: 2025 e23c 4707 293d 3273 e1bc 1a53 39ba
000002c0: 944d 17bc c718 1bbd 112d 1b3c 0e53 253d
000002d0: 6612 6cbc c904 db3c 9e2f 983c c081 543d
000002e0: 9a59 ad3c 84d9 a13c 45e0 c6bc e5a1 133d
000002f0: 77ab fdbc 9e3a 5c3c 0007 a7bc 9a83 3c3c
00000300: 3c49 a03c 60c1 dcba 80c6 c13c 19d2 833b
00000310: 732e d9bb df8e d33c 79a2 3d3c 029d 13bd
00000320: 5155 04bd ca17 a1bc 3fb2 7d3d ad0d 273d
00000330: 9661 523d d388 31bd 0258 0b3d 5dd2 833c
00000340: 8c47 d7bc c474 103d 58b6 3ebb 21bf 0f3d
00000350: fa27 aebb ca57 e7bc 8ab6 133d 3aa4 d7bc
00000360: dbd4 b23c 6eb0 cabc 3bad 19bd 7c60 0c3d
00000370: 76cd 043d 9f9d a73c 2936 8e39 1dc3 a8bb
00000380: 5c38 d43c cc55 153c 185d b73c 1fda f53a
00000390: 4e94 5bbb 678a e5bc 5aa0 233d ec7f dfbc
000003a0: f36d 46bc 8967 f33c e189 db3c e80b f1bc
000003b0: cb64 3a3d dee1 06bc 84e2 823c ab40 37bd
000003c0: e289 c13c 5f36 93bb 8043 e53c 7e49 a73d
000003d0: 483b be3b 78ac 583c b96e b83c dbd2 a33c
000003e0: d071 d4bc 55fc 103d f17e c3bb 3d1b 19bd
000003f0: 8227 063d ca30 8dbc bf9a e8bb dcf8 10b9

fc2.weight f4 [128, 256]
-0.044231653 0.03351198 -0.09683676 -0.14582472 -0.016473008 -0.038140543 0.014925441 -0.06429719
-0.099235915 0.01073944 0.02905215 0.040798035 0.0576039 -0.0011543706 -0.12818485 -0.010079931
-0.055631217 0.021696039 -0.001442824 -0.036390644 -0.017845921 -0.07426212 -0.038007896 -0.121465124
0.09371588 0.018451322 -0.005360976 0.038871873 0.050252523 -0.057430454 -0.05760424 0.0072562685
-0.052065566 0.10073427 0.079794 0.038497537 -0.15436578 0.14891167 0.025364814 0.039506182
0.060277626 -0.03064689 -0.04128286 0.011241421 -0.0022119756 -0.037253946 -0.0059938417 -0.044636652
-0.034189057 -0.0037540833 0.027790373 0.087282084 -0.028502997 -0.007975846 -0.06021911 -0.021730851
-0.09110662 0.013791169 0.03224158 -0.06855495 -0.1497676 -0.09387001 0.044772137 0.09111641
0.028333426 0.011684273 0.07821979 -0.0069142333 0.055685174 0.010079179 -0.020491809 0.050124265
-0.07838523 0.025766907 0.014792933 0.09477487 -0.027017724 0.022406606 -0.03977299 0.0009987018
0.066220306 0.008607048 0.037891172 -0.017986912 0.025798641 0.013364269 0.012997704 0.07634604
0.047621515 0.020800496 -0.07805207 -0.028583834 0.019834466 -0.0737951 -0.07415583 -0.07150884
-0.057200372 -0.03221861 0.07628505 0.053982835 -0.024381155 -0.013816101 -0.16509575 -0.0022693824
0.17826681 0.037588533 -0.015519068 0.06708565 0.030040985 0.03832609 -0.032493018 -0.17118402
0.001679626 -0.018779721 -0.047121115 0.09809626 0.012309762 0.034597434 -0.011323963 -0.009723553
0.006294728 0.04117498 0.008530103 -0.011330755 0.01169022 -0.080811314 -0.17931606 0.020491607
0.003922886 0.012466115 -0.115897425 -0.044253413 -0.058831405 0.071965285 -0.029687477 -0.0590162
0.0434512 -0.009769199 0.029355241 -0.05316548 0.04032316 -0.06561984 -0.016387073 0.10114177
-0.012288265 0.16907114 0.007541584 0.0027147732 -0.031604435 0.0779176 0.015752418 -0.20103838
-0.13748997 0.0046469523 0.07772793 0.03687712 -0.058842517 0.031587925 0.071067266 0.13401572
0.018569615 0.040631637 0.10285371 -0.21548507 -0.23170424 -0.10256748 0.15733722 -0.052217092
-0.019012196 0.02245611 0.043306 -0.14508887 0.015800241 -0.24602358 -0.05977282 0.056747265
0.011641127 -0.018080045 0.0032319054 0.050636776 0.054637868 0.047909223 0.0016523435 0.115828164
-0.109674186 0.052955955 -0.07168226 0.050895613 -0.06304779 0.02164935 0.089962974 0.03536565
0.042375766 -0.059317917 -0.122290455 -0.049545616 -0.06423709 -0.10128417 -0.01596261 0.042127848
0.16444258 -0.021346752 -0.0416407 -0.02973807 -0.0072077857 0.0039070384 0.045786887 -0.026376
0.10451242 -0.052572638 -0.023119682 -0.03911508 0.014175925 0.043366946 -0.0077913185 -0.007525607
0.010602446 0.049831863 -0.060546145 -0.042364497 0.012933032 -0.002853632 -0.027172972 0.008154825
-0.20146716 0.057266504 -0.07786386 -0.025248693 0.030865908 0.040643748 -0.049644217 0.05474533
0.12279213 0.11140092 -0.024175089 0.006825496 -0.08083813 0.04126399 0.17435898 0.048837706
0.019651258 0.0093745375 -0.019104218 -0.118558384 -0.06560975 -0.012797335 -0.023779048 0.009783034
0.10224917 -0.054371156 0.0372567 -0.03465907 0.05488319 0.024075894 0.0038493231 0.0070129856
00000000: 402c 35bd dc43 093d 5a52 c6bd 1353 15be
00000010: 67f2 86bc 4239 1cbd d689 743c 3fae 83bd
00000020: 333c cbbd 7af4 2f3c c6fe ed3c d71b 273d
00000030: 11f2 6b3d 404e 97ba e442 03be 4b26 25bc
00000040: 8fdd 63bd e4bb b13c 241d bdba 5b0e 15bd
00000050: 9c31 92bc bd16 98bd 2bae 1bbd b5c2 f8bd
00000060: 1cee bf3d 3a27 973c 20ab afbb 1d38 1f3d
00000070: 97d5 4d3d 323c 6bbd 6cf2 6bbd fec5 ed3b
00000080: b442 55bd c54d ce3d 096b a33d 98af 1d3d
00000090: 1012 1ebe 4d7c 183e dfc9 cf3c 3cd1 213d
000000a0: ace5 763d 300f fbbc 3718 29bd f02d 383c
000000b0: cbf6 10bb 9897 18bd fd67 c4bb ecd4 36bd
000000c0: d309 0cbd 1107 76bb a3a8 e33c f3c0 b23d
000000d0: 1e7f e9bc 1fad 02bc 50a8 76bd e604 b2bc
000000e0: 1c96 babd 5bf4 613c bf0f 043d 8a66 8cbd
000000f0: ae5c 19be eb3e c0bd fd62 373d 3e9b ba3d
00000100: 801b e83c 656f 3f3c b231 a03d cb90 e2bb
00000110: 2316 643d 2423 253c 70de a7bc 1a4f 4d3d
00000120: 6f88 a0bd 1f15 d33c 0f5e 723c 5419 c23d
00000130: 4654 ddbc 0f8e b73c 01e9 22bd dfe6 823a
00000140: 839e 873d 9304 0d3c c633 1b3d 4a59 93bc
00000150: ac57 d33c cff5 5a3c 52f4 543c 505b 9c3d
00000160: c70e 433d cd65 aa3c c4d9 9fbd a528 eabc
00000170: e47b a23c e321 97bd 03df 97bd 3a73 92bd
00000180: f04a 6abd a9f7 03bd 563b 9c3d 1b1d 5d3d
00000190: fdba c7bc ed5c 62bc dc0e 29be ebb9 14bb
000001a0: 938b 363e 6ff6 193d b043 7ebc 3464 893d
000001b0: 8318 f63c d1fb 1c3d 6617 05bd dd4a 2fbe
000001c0: e526 dc3a eed7 99bc 1202 41bd b1e6 c83d
000001d0: e2ae 493c 0ab6 0d3d 2588 39bc 8a4f 1fbc
000001e0: 0144 ce3b 19a7 283d d8c1 0b3c a2a4 39bc
000001f0: 5688 3f3c 6780 a5bd a19e 37be 04de a73c
00000200: 8e8b 803b ad3e 4c3c a15b edbd 1143 35bd
00000210: 33f9 70bd 8962 933d 2733 f3bc f9ba 71bd
00000220: e3f9 313d fe0e 20bc 677a f03c 0cc4 59bd
00000230: e629 253d b263 86bd 2f3e 86bc 6b23 cf3d
00000240: b854 49bc fc20 2d3e 641f f73b 56ea 313b
00000250: a773 01bd 4393 9f3d 370b 813c 01dd 4dbe
00000260: 2cca 0cbe 7645 983b d22f 9f3d 770c 173d
00000270: da04 71bd 5762 013d b78b 913d 6b3b 093e
00000280: 4e1f 983c 5c6d 263d f7a4 d23d 1ea8 5cbe
00000290: e043 6dbe e60e d2bd 021d 213e 97e1 55bd
000002a0: 77bf 9bbc e0f5 b73c a261 313d 2d92 14be
000002b0: 826f 813c 9bed 7bbe 58d4 74bd d26f 683d
000002c0: 6dba 3e3c 9a1c 94bc 60ce 533b 8268 4f3d
000002d0: f5cb 5f3d 763c 443d 7393 d83a 5137 ed3d
000002e0: dc9c e0bd 58e8 583d 26ce 92bd eb77 503d
000002f0: 331f 81bd fa59 b13c 823e b83d 92db 103d
00000300: 3692 2d3d 58f7 72bd 6b73 fabd 58f0 4abd
00000310: bc8e 83bd 136e cfbd 05c4 82bc 408e 2c3d
00000320: a363 283e 62df aebc 708f 2abd 419d f3bc
00000330: 4a2f ecbb 9d06 803b 088b 3b3d 7b12 d8bc
00000340: 9c0a d63d 6856 57bd 7d65 bdbc 2237 20bd
00000350: 2442 683c 8aa1 313d 514e ffbb 5e99 f6bb
00000360: e2b5 2d3c 7f1c 4c3d 3cff 77bd 6586 2dbd
00000370: 11e5 533c 0004 3bbb da99 debc d19b 053c
00000380: 684d 4ebe 4890 6a3d 1677 9fbd 59d6 cebc
00000390: 80da fc3c 0f7a 263d bc57 4bbd a43c 603d
000003a0: 717a fb3d 2a26 e43d d60a c6bc 69a8 df3b
000003b0: 768e a5bd 6e04 293d 298b 323e 0c0a 483d
000003c0: adfb a03c a997 193c 7380 9cbc bdce f2bd
000003d0: 685e 86bd eaab 51bc 47cc c2bc 0549 203c
000003e0: 0368 d13d 4ab4 5ebd 7b9a 183d abf6 0dbd
000003f0: 32cd 603d cf3a c53c ed44 7c3b 30cd e53b

fc2.bias f4 [128]
0.042204402 0.047672376 -0.033333752 -0.037864633 0.0042810044 -0.05956538 -0.036791068 0.0031239
0.0020101648 0.004004654 0.022256948 -0.07247422 -0.017336808 0.026820255 -0.08145857 -0.065143496
-0.029116971 0.0011852483 -0.029128082 -0.024660457 0.0751946 0.07303669 0.011951491 -0.030271472
-0.023082787 0.00026387142 0.07151124 0.0057320152 -0.07581037 0.017776946 -0.024521556 -0.008811612
-0.04843959 0.08938794 0.0157835 0.040493246 -0.03962885 -0.0074811713 -0.008648631 -0.087565415
0.083139226 -0.020051498 0.10118043 0.01384754 0.047947373 -0.06323137 0.11139896 0.024021482
-0.032137863 -0.0293134 0.006951967 -0.03587254 0.042010766 -0.05248922 -0.05007336 0.021687161
0.077059336 0.10508805 0.008078989 0.06401129 -0.0305342 -0.0364254 -0.027514622 0.09063962
-0.019981414 0.052245904 0.043228216 0.027008533 -0.034990583 0.013374741 -0.062072188 0.08869573
-0.06826137 0.03930143 -0.062430333 0.034307778 0.017298358 0.08748678 -0.036870606 -0.043599136
0.053312004 0.0299644 -0.03276116 -0.0341015 -0.0703765 0.018596604 0.047093526 0.062277026
0.09219191 0.074106164 0.04660532 -0.09146095 0.03973156 -0.019200977 -0.04888052 -0.017589267
0.04194284 -0.030195694 -0.010594396 0.05571056 0.0043754503 0.021749884 -0.03868399 0.087411985
-0.054663006 0.034565624 -0.0039445926 -0.04509312 0.037801266 -0.038622454 -0.010606018 0.041328475
-0.07967692 -0.0416566 0.044071283 0.0026069132 0.0061451313 0.04179178 -0.03748411 -0.043085694
-0.07138426 0.053743787 0.0070421607 0.07230964 0.04582559 0.021465108 -0.0070954952 -0.012984402
00000000: 86de 2c3d 1c44 433d f988 08bd f217 1bbd
00000010: ab47 8c3b d4fa 73bd 3bb2 16bd 58ba 4c3b
00000020: f8bc 033b 7939 833b 3454 b63c 5d6d 94bd
00000030: ec05 8ebc 27b6 db3c c0d3 a6bd f469 85bd
00000040: b786 eebc 555a 9b3a 049e eebc ba04 cabc
00000050: a0ff 993d 4394 953d 30d0 433c e1fb f7bc
00000060: 1d18 bdbc 3958 8a39 7c74 923d a1d3 bb3b
00000070: 7842 9bbd f5a0 913c 6ee1 c8bc 945e 10bc
00000080: 9768 46bd 0611 b73d 664c 813c 3fdc 253d
00000090: dc51 22bd 9d24 f5bb fdb2 0dbc 7f55 b3bd
000000a0: e644 aa3d 0a43 a4bc af37 cf3d cbe0 623c
000000b0: 7764 443d 737f 81bd 2325 e43d b3c8 c43c
000000c0: fea2 03bd a822 f0bc 53cd e33b 16ef 12bd
000000d0: 7b13 2c3d f0fe 56bd b919 4dbd 46a9 b13c
000000e0: 49d1 9d3d 6738 d73d bc5d 043c 5a18 833d
000000f0: dc22 fabc cd32 15bd 5866 e1bc 44a1 b93d
00000100: 10b0 a3bc cdff 553d 1210 313d 0041 dd3c
00000110: 4952 0fbd bb21 5b3c 683f 7ebd 1ba6 b53d
00000120: 9ecc 8bbd 89fa 203d f3b6 7fbd 5086 0c3d
00000130: 49b5 8d3c 452c b33d a205 17bd 0295 32bd
00000140: b05d 5a3d e777 f53c 9130 06bd 04ae 0bbd
00000150: 8e21 90bd e857 983c 24e5 403d 3216 7f3d
00000160: 1dcf bc3d f9c4 973d 38e5 3e3d e14f bbbd
00000170: 8fbd 223d 5e4b 9dbc f136 48bd 5e17 90bc
00000180: 41cc 2b3d f65c f7bc 1e94 2dbc c230 643d
00000190: f05f 8f3b d02c b23c 1a73 1ebd 0e05 b33d
000001a0: 51e6 5fbd af94 0d3d a441 81bb 90b3 38bd
000001b0: 80d5 1a3d 9432 1ebd ddc4 2dbc 0c48 293d
000001c0: a72d a3bd 1ca0 2abd 1784 343d bfd8 2a3b
000001d0: 195d c93b dc2d 2b3d f088 19bd a07a 30bd
000001e0: e931 92bd 7222 5c3d edc1 e63b 1417 943d
000001f0: 9db3 3b3d 98d7 af3c 5481 e8bb 87bc 54bc

fc3.weight f4 [10, 128]
0.0067364466 0.050423175 0.033795316 -0.114319175 0.014866146 -0.034025785 0.04757769 0.21570599
-0.23116925 0.21370617 0.027397957 0.2366217 -0.0861077 0.3484164 -0.25962055 0.04227151
-0.06787745 -0.17686726 0.09858854 0.06883146 -0.14510228 -0.02172266 -0.048295747 0.23348117
0.37356848 0.085591584 -0.052844014 0.16713662 0.13727543 0.033312883 -0.06936166 -0.0005702188
0.053357255 -0.014773641 0.2270496 0.22724417 0.011528422 0.08062329 0.050827738 0.054118562
-0.017615966 -0.08788335 -0.2582411 0.065727435 -0.43443635 -0.10020784 -0.566968 0.18371296
-0.092219844 -0.08145484 -0.14462629 0.015719762 0.0001018135 0.16401845 -0.2732889 0.07502332
0.10517528 -0.08712399 -0.020232556 0.09031202 -0.08100986 -0.01694829 -0.028538413 -0.02447473
-0.26311207 0.16841765 -0.13710009 0.15330377 0.0712523 0.098547935 0.057733472 -0.31493574
-0.082986265 -0.028393704 -0.1018916 0.23323412 0.11768534 -0.2743552 0.07544572 0.045345794
-0.061041623 0.041824013 -0.1136663 0.23455834 -0.009706598 0.025743514 0.037017867 -0.0823587
-0.09789523 -0.3530944 -0.060796767 0.17573808 0.00012612522 -0.04289384 -0.08580504 0.08470121
-0.36387917 0.14551207 0.08114342 -0.21026623 0.08489294 0.22897582 0.07811364 -0.28977075
0.15668425 -0.2822062 0.058049057 0.051076986 0.06208437 0.2438679 0.06779626 -0.26149783
0.0990217 0.029525502 0.11500162 -0.14049911 -0.14355192 -0.1267636 0.15830062 0.103782885
-0.055770162 0.087171316 0.03966025 0.1468929 0.05786076 0.07970583 -0.13262518 0.009064987
0.19451873 -0.000975484 -0.052498784 0.014047989 0.21570528 0.018441958 0.023297515 0.00057069026
-0.041963566 0.019434908 -0.057416465 -0.08493028 0.06560461 -0.18809018 0.2572358 -0.03409977
0.037492555 -0.27693248 -0.13076772 0.10904517 0.3555736 -0.37073496 0.1555311 -0.035266176
-0.14600064 -0.08472527 -0.09877762 -0.09341156 0.22295392 -0.07357172 -0.057333235 -0.11259075
-0.12442267 -0.4332337 0.20116536 0.0680059 -0.08149047 0.03255724 0.10222429 0.20891027
-0.051102035 0.117644124 -0.06385908 0.093527354 -0.038175695 -0.048669904 0.16523582 0.37043646
0.053155467 -0.070002355 -0.29892787 -0.16021667 -0.0103723025 0.009958917 0.20787436 -0.05874925
-0.109479465 0.0819775 -0.06366329 0.33996773 -0.07573183 -0.03629393 0.041195307 -0.230293
-0.17483073 0.06468675 -0.13865618 0.029385373 -0.015111313 -0.066837065 0.071964405 -0.02198477
0.114778586 0.029819014 0.19415997 -0.1208429 0.111426406 -0.020880183 0.13163908 -0.14479895
-0.0094681205 -0.12099968 0.2076933 -0.17260958 0.21146475 -0.34157094 -0.069273666 -0.0014876798
-0.5108635 -3.6943416e-05 -0.012752017 0.05959728 -0.29925257 -0.022964628 0.032529615 0.043186773
0.05733043 0.08996266 -0.03536829 -0.0757543 -0.08410902 0.20133026 0.14951697 0.0028693585
0.33309656 0.23572123 -0.0045149582 0.36117452 0.15529609 -0.12207204 -0.18848446 0.16110274
-0.006599824 -0.01707067 0.19368818 0.027339784 0.2671815 0.016134433 0.009841946 -0.052422233
-0.039872788 -0.367527 0.018066118 0.036279302 0.06445231 0.17192698 0.11172782 0.016959252
00000000: 69bd dc3b 8888 4e3d f56c 0a3d 2c20 eabd
00000010: 2391 733c 9f5e 0bbd d3e0 423d 08e2 5c3e
00000020: a2b7 6cbe cad5 5a3e ae71 e03c f54c 723e
00000030: 3c59 b0bd a263 b23e fcec 84be e424 2d3d
00000040: 5503 8bbd b11c 35be cae8 c93d 82f7 8c3d
00000050: b195 14be b8f3 b1bc c3d1 45bd b015 6f3e
00000060: 5e44 bf3e a44a af3d f772 58bd dd25 2b3e
00000070: ee91 0c3e 1773 083d 7c0d 8ebd bc7a 15ba
00000080: 238d 5a3d 240d 72bc b17f 683e b2b2 683e
00000090: b5e1 3c3c d31d a53d bf30 503d 6dab 5d3d
000000a0: 5c4f 90bc 30fc b3bd 2d38 84be 1b9c 863d
000000b0: 716e debe c539 cdbd d124 11bf 401f 3c3e
000000c0: c2dd bcbd ccd1 a6bd ea18 14be bbc6 803c
000000d0: b584 d538 74f4 273e 86ec 8bbe d4a5 993d
000000e0: 2366 d73d 106e b2bd bfbe a5bc 82f5 b83d
000000f0: 7fe8 a5bd 24d7 8abc 64c9 e9bc 3b7f c8bc
00000100: a0b6 86be ad75 2c3e f763 0cbe aafb 1c3e
00000110: baec 913d 80d3 c93d ef79 6c3d 423f a1be
00000120: b4f4 a9bd ea99 e8bc 8bac d0bd edd4 6e3e
00000130: 0305 f13d 4978 8cbe 4983 9a3d 83bc 393d
00000140: c806 7abd a84f 2b3d e1c9 e8bd 1030 703e
00000150: 6c08 1fbc 10e4 d23c 0ca0 173d aeab a8bd
00000160: 4b7d c8bd cac8 b4be 0806 79bd aff4 333e
00000170: 7b40 0439 73b1 2fbd 8eba afbd d477 ad3d
00000180: 5f4e babe 1e01 153e 852e a63d 0850 57be
00000190: 5adc ad3d a378 6a3e 0bfa 9f3d d55c 94be
000001a0: d671 203e 557d 90be d9c4 6d3d 1a36 513d
000001b0: 2e4c 7e3d 82b8 793e c4d8 8a3d 0be3 85be
000001c0: e4cb ca3d 77df f13c f885 eb3d 00df 0fbe
000001d0: 46ff 12be 51ce 01be 8f19 223e 1f8c d43d
000001e0: 416f 64bd e086 b23d c972 223d 186b 163e
000001f0: 67ff 6c3d cf3c a33d e5ce 07be 5085 143c
00000200: eb2f 473e a0b7 7fba f708 57bd 8929 663c
00000210: d8e1 5c3e 9713 973c 6eda be3c 609a 153a
00000220: fde1 2bbd f535 9f3c 872d 6bbd edef adbd
00000230: b65b 863d b69a 40be 69b4 833e 33ac 0bbd
00000240: cb91 193d 18ca 8dbe f9e7 05be 1353 df3d
00000250: be0d b63e f9d0 bdbe 8b43 1f3e 4473 10bd
00000260: 3181 15be 7184 adbd ec4b cabd 8f4e bfbd
00000270: 084e 643e c5ac 96bd 41d6 6abd fb95 e6bd
00000280: 50d1 febd cfd0 ddbe 4bfe 4d3e ad46 8b3d
00000290: 7ae4 a6bd be5a 053d f85a d13d 93ec 553e
000002a0: 5e50 51bd 67ef f03d 8dc8 82bd 458b bf3d
000002b0: 1e5e 1cbd 185a 47bd 9433 293e d9a9 bd3e
000002c0: 8cb9 593d 655d 8fbd 130d 99be d70f 24be
000002d0: 97f0 29bc ba2a 233c 04dd 543e 0ea3 70bd
000002e0: c536 e0bd d2e3 a73d e661 82bd 4010 ae3e
000002f0: 4a19 9bbd f2a8 14bd 69bc 283d eed1 6bbe
00000300: d406 33be 7d7a 843d e3fb 0dbe 98b9 f03c
00000310: 7195 77bc dfe1 88bd 1362 933d 6819 b4bc
00000320: 0911 eb3d 0147 f43c dfd1 463e 7b7c f7bd
00000330: 8733 e43d eb0c abbc 65cc 063e 2d46 14be
00000340: 2d20 1bbc aece f7bd 8dad 543e 91c0 30be
00000350: 378a 583e 63e2 aebe 5adf 8dbd 40fe c2ba
00000360: f3c7 02bf b1f3 1ab8 d6ed 50bc 471c 743d
00000370: a237 99be 5120 bcbc c63d 053d 9de4 303d
00000380: 50d3 6a3d 583e b83d 57de 10bd 1225 9bbd
00000390: 5a41 acbd 8529 4e3e fa1a 193e d90b 3c3b
000003a0: a28b aa3e e860 713e 37f2 93bb deeb b83e
000003b0: f005 1f3e e800 fabd 1202 41be 1ef8 243e
000003c0: 5643 d8bb cad7 8bbc 3256 463e aff7 df3c
000003d0: 03cc 883e 5c2c 843c 1d40 213c b2b8 56bd
000003e0: a651 23bd 802c bcbe 65ff 933c 9b99 143d
000003f0: 93ff 833d a00d 303e 8ed1 e43d 21ee 8a3c

fc3.bias f4 [10]
-0.21161297 -0.09321138 -0.010025775 0.13884237 -0.024882568 0.0016859678 0.1666488 0.05756425
-0.11064097 0.041023254
00000000: 12b1 58be 9ce5 bebd 2643 24bc b22c 0e3e
00000010: 87d6 cbbc b1fb dc3a fca5 2a3e 7ec8 6b3d
00000020: bc97 e2bd 0008 283d
