cnn.pth (torch, 32599 bytes, 6 tensors)

conv1.weight f4 [32, 1, 3, 3]
-0.10741232 0.30615982 -0.2661364 -0.34513503 -0.0009882295 0.09862659 -0.1111905 0.39172047
-0.02263962 -0.038124368 -0.120542526 -0.023487192 -0.44146314 -0.24010868 -0.09574634 -0.0680079
0.14788112 0.24191186 -0.17572728 -0.3686309 0.18279926 0.32519597 -0.28865305 0.3111404
-0.0049135555 -0.1880847 0.3636863 -0.4998202 -0.07392457 0.009796431 -0.31493285 0.42693013
-0.121945865 -0.30996197 -0.09628115 -0.21795475 -0.09564361 0.28808218 -0.18453638 0.2604877
0.018236328 -0.48536673 0.1551736 -0.31204697 -0.5794176 -0.17466596 0.25077254 0.19279078
-0.1502377 0.028591642 0.21294165 0.32956222 0.17247877 0.04253139 0.37995762 -0.22342893
0.026693568 -0.10149212 -0.26038504 -0.19866711 0.30772305 0.10176663 -0.22524486 0.13708507
0.036626466 -0.027670851 0.049440656 -0.07263187 0.22206153 0.35698664 -0.40918708 -0.1076042
0.16072431 0.3756385 0.2475779 0.3271422 0.16627751 -0.3369458 0.06381448 -0.11021983
-0.354323 0.3507067 0.3251857 -0.55977654 0.117046736 0.015529193 -0.27161422 -0.098054186
0.1998524 -0.42313683 0.19307782 0.07838922 0.18523477 0.1951664 -0.42038628 -0.2714229
0.23701018 -0.020959016 -0.31638712 -0.124327 0.35200426 0.19878392 -0.07743877 -0.039980773
-0.4437237 0.061253607 -0.20708632 -0.38363078 0.09169429 -0.16747822 -0.032036126 0.3056769
-0.41377854 0.40829316 0.3361972 -0.49579507 0.022914533 0.13739207 -0.022827318 0.018644005
0.25307235 -0.05197925 -0.21990068 0.28009942 -0.39217752 -0.2579764 -0.42342913 -0.028407102
0.036343202 -0.59312826 0.06320284 0.22429536 -0.56392497 0.11773172 0.39158505 0.064075574
0.03401644 -0.022102414 0.16673775 0.2370516 0.3241719 0.30967188 0.3420271 -0.019897504
-0.42398772 -0.10577286 0.28820813 -0.11765005 -0.120476834 -0.19430204 -0.42589232 -0.23587324
-0.006322291 0.34006807 0.24090405 -0.5384928 0.36522895 -0.19960096 -0.27501613 0.022603119
-0.0029458934 -0.28582504 -0.12809062 -0.4746897 0.11547146 0.1725898 -0.32650763 0.29326293
-0.12976211 -0.20644961 0.46090558 -0.27789634 0.3868863 0.1014172 -0.43998384 0.29689145
-0.05871861 -0.2927742 0.3524256 -0.28827664 0.0779318 -0.28349653 0.3105958 0.13350573
-0.053517714 0.19042157 -0.03906669 -0.2844386 -0.20467971 -0.048334137 0.4231117 0.28612888
-0.4579345 0.17334712 -0.17835645 -0.41631338 -0.03489632 0.170925 -0.22838467 0.03275691
-0.017963298 0.20322253 -0.21188666 -0.2603877 -0.2812188 0.26660296 -0.15646088 0.3002722
0.1894138 0.026522174 0.015994497 0.0025172797 0.029207038 -0.060468696 0.06915257 0.028660806
-0.44409418 -0.072405905 0.38081145 -0.44255725 0.078478634 0.44136974 -0.06501719 0.11187397
-0.17695482 0.24673402 -0.47939536 -0.015291921 -0.030332403 -0.29026657 0.08552933 0.355218
-0.20144197 0.38043696 0.24629728 -0.40795356 0.21158424 -0.19211724 -0.3371729 0.16026233
0.15144953 0.05281964 -0.04669207 0.08592892 0.10368276 -0.35659406 0.32636556 -0.34091657
-0.02926459 0.030331599 -0.24363276 0.005680387 0.36673248 -0.2044431 -0.19942097 -0.030791594
00000000: fefa dbbd fbc0 9c3e 0843 88be 8ab5 b0be
00000010: 7b87 81ba bdfc c93d d8b7 e3bd 968f c83e
00000020: b976 b9bc 4c28 1cbd 00df f6bd 3668 c0bc
00000030: 7507 e2be 0ddf 75be a816 c4bd ba47 8bbd
00000040: 266e 173e beb7 773e daf1 33be 30bd bcbe
00000050: bb2f 3b3e 1680 a63e 55ca 93be cb4d 9f3e
00000060: e401 a1bb 4799 40be 1735 ba3e 6fe8 ffbe
00000070: c465 97bd 3681 203c e13e a1be 9696 da3e
00000080: c1be f9bd 56b3 9ebe 0d2f c5bd 882f 5fbe
00000090: cce0 c3bd 827f 933e 1bf7 3cbe a55e 853e
000000a0: 5a64 953c fd81 f8be d4e5 1e3e 9fc4 9fbe
000000b0: b654 14bf a2db 32be 4265 803e f26a 453e
000000c0: e9d7 19be 0539 ea3c 600d 5a3e 61bc a83e
000000d0: 469e 303e 6535 2e3d ce89 c23e 8eca 64be
000000e0: 78ac da3c 1adb cfbd 3051 85be 646f 4bbe
000000f0: e08d 9d3e 066b d03d 97a6 66be 0760 0c3e
00000100: a205 163d fbad e2bc 4982 4a3d 05c0 94bd
00000110: 1964 633e f4c6 b63e f880 d1be 975f dcbd
00000120: ea94 243e b153 c03e 1085 7d3e 2f7f a73e
00000130: a744 2a3e 2984 acbe 2bb1 823d efba e1bd
00000140: d369 b5be d48f b33e bd7e a63e 844d 0fbf
00000150: 33b6 ef3d 286e 7e3c 0511 8bbe a2d0 c8bd
00000160: 1ca6 4c3e 64a5 d8be 31b6 453e 878a a03d
00000170: 2fae 3d3e b3d9 473e df3c d7be f1f7 8abe
00000180: ccb2 723e 3eb2 abbc 7efd a1be 279f febd
00000190: e739 b43e 038e 4b3e 3898 9ebd e1c2 23bd
000001a0: c12f e3be 10e5 7a3d 700e 54be 416b c4be
000001b0: 37ca bb3d 697f 2bbe 5038 03bd af81 9c3e
000001c0: c8da d3be cd0b d13e 0a22 ac3e dad8 fdbe
000001d0: 42b7 bb3c 82b0 0c3e 5b00 bbbc 50bb 983c
000001e0: b392 813e 32e8 54bd a52d 61be 3169 8f3e
000001f0: 7ecb c8be 7c15 84be b4cb d8be 03b6 e8bc
00000200: 9cdc 143d 41d7 17bf 7e70 813d afad 653e
00000210: 635d 10bf 541d f13d d67d c83e 0e3a 833d
00000220: d354 0b3d 1f10 b5bc 4dbd 2a3e a8bd 723e
00000230: dcf9 a53e 508d 9e3e 2d1e af3e 1700 a3bc
00000240: eb14 d9be 719f d8bd 0490 933e 82f2 f0bd
00000250: 8fbc f6bd 1df7 46be 8f0e dabe c188 71be
00000260: 392b cfbb 671d ae3e 8daf 763e aada 09bf
00000270: 4aff ba3e 3264 4cbe eace 8cbe 2d2a b93c
00000280: e40f 41bb a957 92be 302a 03be 870a f3be
00000290: 4d7c ec3d 61bb 303e 022c a7be 8f26 963e
000002a0: 5ce0 04be 8767 53be d1fb eb3e 6e48 8ebe
000002b0: f615 c63e d2b3 cf3d 9045 e1be 2802 983e
000002c0: ed82 70bd 80e6 95be 2171 b43e ff98 93be
000002d0: b59a 9f3d 7526 91be 6a06 9f3e bab5 083e
000002e0: 6435 5bbd dffd 423e 6504 20bd f0a1 91be
000002f0: 8f97 51be 04fa 45bd 19a2 d83e 7c7f 923e
00000300: 6476 eabe e881 313e 13a3 36be 0727 d5be
00000310: 72ef 0ebd f706 2f3e acdd 69be 1c2c 063d
00000320: c427 93bc 9119 503e d1f8 58be 8951 85be
00000330: e9fb 8fbe 2f80 883e 4837 20be 47bd 993e
00000340: b1f5 413e 0845 d93c e406 833c f2f8 243b
00000350: 9943 ef3c 06ae 77bd dd9f 8d3d 11ca ea3c
00000360: 5060 e3be 8c49 94bd b8f9 c23e dd96 e2be
00000370: 68b9 a03d 37fb e13e bc27 85bd 2e1e e53d
00000380: a533 35be d8a7 7c3e 4f73 f5be f78a 7abc
00000390: a97b f8bc d29d 94be 002a af3d 22df b53e
000003a0: ce46 4ebe a2c8 c23e 5b35 7c3e 4adf d0be
000003b0: 8aa9 583e 62ba 44be eda1 acbe cf1b 243e
000003c0: 9615 1b3e 6859 583d 2f40 3fbd 80fb af3d
000003d0: a057 d43d 7f93 b6be 6319 a73e 9e8c aebe
000003e0: 4bbc efbc f979 f83c de7a 79be 8a22 ba3b
000003f0: 5cc4 bb3e 8859 51be 0335 4cbe a73e fcbc

conv1.bias f4 [32]
0.04883571 0.03284971 -0.13643223 0.25440723 0.15654866 -0.0102772 0.06754698 -0.19426781
0.21034916 -0.1841499 0.10159326 -0.07002266 -0.048770692 0.1268803 -0.043389555 0.07482457
0.12592708 -0.14711788 0.23107086 0.22378087 0.17268233 0.10993664 -0.24267645 -0.06907719
0.2159707 -0.05595467 0.18281189 0.29864967 -0.139621 0.018659003 0.25573763 0.04887119
00000000: f407 483d 6b8d 063d e4b4 0bbe aa41 823e
00000010: 4b4e 203e b361 28bc 1256 8a3d 24ee 46be
00000020: c565 573e cb91 3cbe 2110 d03d 0a68 8fbd
00000030: c7c3 47bd e9ec 013e 3fb9 31bd a03d 993d
00000040: 07f3 003e 12a6 16be d79d 6c3e d026 653e
00000050: a3d3 303e 7626 e13d 2d80 78be 5778 8dbd
00000060: 6c27 5d3e b930 65bd 0a33 3b3e 9ce8 983e
00000070: cff8 0ebe c4da 983c 0bf0 823e 282d 483d

conv2.weight f4 [16, 32, 3, 3]
0.31226254 0.17353702 0.0809498 0.33289698 0.20079651 0.1752447 0.34051952 0.16963607
0.14997905 -0.10490596 -0.088793345 -0.08127212 0.020352839 -0.011965308 -0.051206842 -0.039553504
0.008656263 0.04172265 0.13624784 0.124220386 -0.03159595 0.08429576 0.12212585 0.0075174877
0.06618841 0.125584 0.0015717306 -0.022643402 -0.08677944 0.0032363515 -0.07190801 0.016789893
-0.01072448 -0.028447509 -0.033568233 0.027964674 0.046583466 0.0031428149 -0.057037883 0.066347085
-0.09711052 -0.06642766 0.027577985 0.023009248 0.0065075173 -0.0058289696 0.045314647 -0.047850445
-0.10631483 -0.020303307 -0.04300527 -0.02562119 -0.056218527 -0.033411644 -0.22125198 0.21981266
-0.14986677 -0.115693435 0.2613716 -0.13377568 -0.10012366 0.17148365 -0.15730824 0.08152481
0.10932426 0.032942507 0.042539667 0.110361904 -0.051091064 0.060557548 0.0866064 -0.048107564
-0.081266955 -0.06216109 -0.034666967 -0.017102947 -0.002791054 -0.0057656984 -0.08413951 0.003310574
0.03656355 0.08157691 -0.113390304 0.20160812 0.114889175 -0.12395129 0.20894812 0.13179459
-0.08199527 0.18920478 -0.12327873 0.09574864 -0.010719442 -0.094279625 0.04492053 -0.07627137
-0.101155944 0.081324734 -0.055279046 0.064471036 -0.00025143567 -0.053731415 -0.061001852 -0.0038685878
0.07365202 -0.0048645684 -0.02811431 -0.04270527 0.05890663 0.18921696 -0.12898184 0.11286113
0.2097961 -0.08193591 0.06077591 0.1413569 -0.083429664 -0.15983124 0.23439296 -0.21891305
-0.17904739 0.13249385 -0.16687295 -0.07005711 0.14137726 -0.10852848 -0.15907122 0.0114117
-0.02017274 -0.18239139 0.044784624 0.009460968 -0.07174336 0.031511046 -0.05932434 -0.022481488
-0.018556347 0.033848565 -0.1204568 -0.050400104 -0.06138852 -0.09645252 -0.020870943 -0.049580295
-0.009237936 -0.019398227 0.003920058 -0.06677426 -0.08114481 -0.009651771 0.002809763 0.016610911
0.04537472 -0.04177602 -0.0074937735 -0.09706858 -0.06190393 -0.017618014 -0.07155639 0.009970368
-0.055600964 -0.058466896 -0.020003662 0.13239725 -0.07493314 0.11257672 0.13673264 -0.025318237
0.06335131 0.07724358 -0.06482968 0.29361525 0.1432843 0.008836041 0.3062191 0.10352698
-0.007906759 0.24225684 0.16458544 0.09171887 0.030191153 0.14586283 -0.025276406 0.12198126
0.14050694 -0.089023136 0.121756926 0.11703144 -0.07647084 0.015843095 0.10771013 -0.1706063
-0.032726318 0.0923182 -0.18672468 0.012314065 0.094327874 -0.17752442 0.005808314 -0.0038683163
0.033445068 -0.015284246 0.022287816 -0.03575899 -0.05859283 -0.056059506 0.069428615 -0.07388646
-0.010756612 -0.012230032 -0.00086582825 0.033265322 -0.038140047 -0.10866778 -0.066996686 0.0059646596
-0.14299731 0.037323244 -0.27184212 -0.15399638 0.051337317 -0.21732399 -0.15765993 0.050170064
-0.21840902 0.1675609 0.097832695 -0.05385762 0.12519415 0.18696244 -0.11185281 0.08723651
0.18564405 -0.09327318 0.09068416 0.11156991 -0.070040785 0.10537057 0.14203422 -0.0553806
0.052288294 0.06909445 -0.07671479 -0.06108361 0.14197697 -0.047185287 -0.10295381 0.14306015
-0.05127882 -0.059196614 0.22196771 -0.049718533 -0.101953626 0.07940863 -0.005540326 -0.024300732
00000000: e0e0 9f3e b0b3 313e 02c9 a53d 7971 aa3e
00000010: 9a9d 4d3e 5973 333e 9358 ae3e 14b5 2d3e
00000020: 1c94 193e f0d8 d6bd 49d9 b5bd ff71 a6bd
00000030: ffba a63c 240a 44bc 44be 51bd db02 22bd
00000040: 00d3 0d3c 5fe5 2a3d 8e84 0b3e 4267 fe3d
00000050: c16a 01bd 41a3 ac3d 1e1d fa3d 4255 f63b
00000060: ca8d 873d 1899 003e 8702 ce3a a87e b9bc
00000070: 6bb9 b1bd f818 543b 8244 93bd f58a 893c
00000080: bbb5 2fbc c00a e9bc d87e 09bd 2c16 e53c
00000090: 4ece 3e3d aff7 4d3b 8ea0 69bd fbe0 873d
000000a0: e1e1 c6bd 3a0b 88bd 3aeb e13c e47d bc3c
000000b0: 033d d53b f100 bfbb da9b 393d d4fe 43bd
000000c0: 97bb d9bd 1f53 a6bc 4b26 30bd 88e3 d1bc
000000d0: 6645 66bd a6da 08bd e18f 62be 9216 613e
000000e0: ad76 19be aef0 ecbd 80d2 853e 7efc 08be
000000f0: a20d cdbd 6999 2f3e 6915 21be 7bf6 a63d
00000100: 66e5 df3d b9ee 063d 133e 2e3d 6c05 e23d
00000110: dd44 51bd 310b 783d b25e b13d 700c 45bd
00000120: 4a6f a6bd a19c 7ebd f3fe 0dbd 7b1b 8cbc
00000130: 1eea 36bb 2fee bcbb 5651 acbd 37f6 583b
00000140: a9c3 153d cc11 a73d 2d39 e8bd 5c72 4e3e
00000150: 044b eb3d 2dda fdbd 7ff6 553e 29f5 063e
00000160: 23ed a7bd e6be 413e 8f79 fcbd dd17 c43d
00000170: 99a0 2fbc ad15 c1bd 97fe 373d 2a34 9cbd
00000180: d92a cfbd 958d a63d 486c 62bd 6409 843d
00000190: 20d3 83b9 7915 5cbd 14dd 79bd 2288 7dbb
000001a0: dfd6 963d f566 9fbb fb4f e6bc b9eb 2ebd
000001b0: 1448 713d 17c2 413e d113 04be bc23 e73d
000001c0: cad4 563e 04ce a7bd 29f0 783d ddbf 103e
000001d0: 2cdd aabd cdaa 23be b504 703e be2a 60be
000001e0: 3358 37be 78ac 073e bee0 2abe 1a7a 8fbd
000001f0: 33c5 103e 2e44 debd 91e3 22be 24f8 3a3c
00000200: 4d41 a5bc cfc4 3abe 1570 373d 2d02 1b3c
00000210: 2fee 92bd ba11 013d 14fe 72bd 192b b8bc
00000220: 7b03 98bc cba4 0a3d 0eb2 f6bd 5770 4ebd
00000230: 8772 7bbd e688 c5bd 8af9 aabc b514 4bbd
00000240: b65a 17bc 08e9 9ebc d473 803b f1c0 88bd
00000250: 402f a6bd 7622 1ebc 0024 383b 9b13 883c
00000260: d8da 393d 551d 2bbd 548e f5bb e4cb c6bd
00000270: fa8e 7dbd a753 90bc 288c 92bd c15a 233c
00000280: d6bd 63bd fc7a 6fbd b8de a3bc 2593 073e
00000290: 8c76 99bd a08e e63d a403 0c3e 3168 cfbc
000002a0: 55be 813d e231 9e3d 6cc5 84bd bd54 963e
000002b0: 1fb9 123e 0bc5 103c c0c8 9c3e f405 d43d
000002c0: 5a8b 01bc 2d12 783e 1689 283e 1ad7 bb3d
000002d0: 7053 f73c 115d 153e 7710 cfbc 50d1 f93d
000002e0: 0de1 0f3e c351 b6bd b25b f93d 2eae ef3d
000002f0: be9c 9cbd 61c9 813c 2197 dc3d 6bb3 2ebe
00000300: 080c 06bd 5311 bd3d c134 3fbe efc0 493c
00000310: f92e c13d f6c8 35be ab53 be3b 9483 7dbb
00000320: b2fd 083d c66a 7abc f094 b63c 0578 12bd
00000330: 09ff 6fbd a79e 65bd 9730 8e3d c951 97bd
00000340: 803c 30bc 7960 48bc c0f8 62ba 3841 083d
00000350: bd38 1cbd 378d debd 8f35 89bd 3173 c33b
00000360: e36d 12be 42e0 183d e42e 8bbe 3ab1 1dbe
00000370: 1447 523d 2e8a 5ebe 9b71 21be 207f 4d3d
00000380: 9da6 5fbe 1695 2b3e 825c c83d cf99 5cbd
00000390: e532 003e 1573 3f3e 1613 e5bd 0ea9 b23d
000003a0: 7919 3e3e 0206 bfbd 9eb8 b93d c47e e43d
000003b0: 8b71 8fbd 87cc d73d 6b71 113e c5d6 62bd
000003c0: 402c 563d 6481 8d3d a51c 9dbd cf32 7abd
000003d0: 6962 113e 5c45 41bd 72d9 d2bd 5c7e 123e
000003e0: bd09 52bd 2678 72bd 814b 633e a9a5 4bbd
000003f0: 10cd d0bd fea0 a23d 9f8b b5bb 5412 c7bc

conv2.bias f4 [16]
0.01725331 0.018719388 0.022207133 -0.055714823 -0.0033596603 -0.006455792 0.011938181 0.028390534
-0.00026109614 -0.016469661 -0.009360824 -0.007515526 -0.052098397 -0.06650569 0.048435125 0.0475836
00000000: d056 8d3c 6759 993c bceb b53c 3a35 64bd
00000010: bf2d 5cbb 1c8b d3bb 5c98 433c 4493 e83c
00000020: bbe3 88b9 62eb 86bc 245e 19bc cd44 f6bb
00000030: 2165 55bd 2334 88bd e963 463d 05e7 423d

fc1.weight f4 [17, 160]
-0.21987516 -0.020592164 -0.16531536 -0.16970581 -0.23170258 -0.076573305 -0.17361811 -0.020402916
-0.19286047 0.090897 -0.12249348 -0.053441886 -0.15346579 -0.081220634 -0.028441356 -0.020746592
-0.11270809 0.04525992 -0.14988782 0.013400982 0.05818657 -0.030321736 -0.041023225 -0.010228254
-0.011264995 0.014447935 0.028983958 -0.060956553 0.07184393 -0.07516364 0.104211934 -0.011781988
0.04462309 0.0808875 -0.00021593914 0.023015715 0.12554803 0.08646018 0.00719959 0.022806272
0.03791247 -0.0121187065 -0.02239372 0.015290808 -0.015961345 -0.0070268214 0.012495847 0.044807788
0.017485395 0.063266076 0.0492539 -0.17275065 -0.007837773 -0.2970546 0.06340327 -0.1797695
0.132984 -0.14608686 0.031381015 -0.11256955 -0.22555712 -0.05473025 -0.20684506 -0.15014404
-0.14921083 0.06423052 -0.10674074 0.060057856 -0.12466949 0.026461842 0.09650792 0.046777558
-0.043299865 0.10828232 0.07087702 0.037833996 0.057796165 0.056545336 0.025102302 0.06900289
0.066407375 -0.03902721 0.104485855 0.0073986766 0.15055571 0.04997317 0.024865942 -0.022636905
0.04310459 0.06721241 -0.02447994 0.07908824 0.010961418 -0.019674378 -0.044390935 0.15901636
-0.061569862 0.061260734 0.03630132 0.1099249 0.062051766 -0.06964837 0.039516255 -0.012092382
-0.050647542 -0.033859808 -0.07646974 0.05468964 -0.015169539 -0.07751884 0.06761081 0.051205598
0.032688677 0.07737542 0.07139269 0.07388333 0.07079751 0.064247794 0.020696245 -0.006620668
-0.03649418 -0.08659991 -0.03352366 -0.08848738 -0.036493286 -0.066777 -0.087042004 0.043310497
-0.031219902 0.06919167 -0.14429168 -0.06446783 -0.07759509 -0.036807537 0.04343424 -0.011568347
0.0008199981 -0.03254631 0.016726078 -0.021272328 0.09607495 -0.004854767 -0.040125053 -0.0019369109
0.041081123 0.053453393 0.024794323 0.038315125 0.09595616 0.12906997 0.12053192 0.06345709
0.06934113 -0.028925065 0.09528509 0.068465106 0.06509101 -0.039972782 0.10828902 -0.016811373
-0.4035366 0.1577454 -0.37569758 0.07862915 -0.42204893 0.20725448 -0.3267228 0.06916574
-0.3805908 0.10353069 -0.007046019 -0.22962342 -0.039514527 -0.10445488 0.004847454 -0.0655161
-0.078789614 -0.19799986 -0.0011125861 -0.114126585 -0.023868859 -0.07064955 0.023130946 -0.05542671
-0.05165304 0.021549806 -0.010070508 -0.0053775012 0.068346955 -0.013866767 0.09317053 0.019767402
0.104806505 0.06990087 0.115036 0.07440916 0.01832723 0.07865254 0.11389132 0.058079764
0.2543183 -0.23747902 0.2601754 -0.2566575 0.28520286 -0.13833481 0.2204955 -0.2522703
0.2848791 -0.13676846 -0.098814815 0.16578734 -0.20729133 0.15824516 -0.26207936 0.20686692
-0.20165837 0.17335115 -0.22095709 0.19835804 -0.28244933 -0.29460675 -0.21914068 -0.12602772
-0.15120712 -0.19871512 -0.22538917 -0.20149161 -0.18194471 -0.20556079 0.087247446 -0.15188986
0.08497411 -0.11021157 0.03344121 -0.036170933 0.06788991 -0.046667717 0.12913448 -0.081357025
0.09026511 0.009001771 0.08972256 0.048957665 0.09574655 0.1171177 -0.014790341 0.12018807
0.10588484 -0.018241819 -0.07959971 -0.0230551 -0.10456851 0.080674835 -0.2082402 0.09936683
00000000: f426 61be e6b0 a8bc 6e48 29be 5cc7 2dbe
00000010: 7143 6dbe 77d2 9cbd f2c8 31be 0424 a7bc
00000020: 377d 45be 3528 ba3d dddd fabd e1e5 5abd
00000030: 2326 1dbe 0157 a6bd d9fd e8bc c2f4 a9bc
00000040: 80d3 e6bd 7762 393d 317c 19be cb8f 5b3c
00000050: 0a55 6e3d 4a65 f8bc f807 28bd 6894 27bc
00000060: d090 38bc 08b7 6c3c c46f ed3c 94ad 79bd
00000070: e922 933d 65ef 99bd 116d d53d 3d09 41bc
00000080: b4c6 363d 58a8 a53d b96d 62b9 748b bc3c
00000090: aa8f 003e 0912 b13d 8aea eb3b 38d4 ba3c
000000a0: 1b4a 1b3d 8a8d 46bc 0973 b7bc 4c86 7a3c
000000b0: 5ec1 82bc 4041 e6bb 62bb 4c3c 5f88 373d
000000c0: 883d 8f3c a591 813d 75be 493d 8ce5 30be
000000d0: 016a 00bc 8a17 98be 93d9 813d 7f15 38be
000000e0: f52c 083e cb97 15be 6189 003d dd8a e6bd
000000f0: 72f8 66be d42c 60bd 31cf 53be 5cbf 19be
00000100: b9ca 18be 4a8b 833d e49a dabd 3aff 753d
00000110: b852 ffbd 81c6 d83c f2a5 c53d d399 3f3d
00000120: 335b 31bd 1fc3 dd3d f927 913d d2f7 1a3d
00000130: acbb 6c3d 159c 673d 58a3 cd3c 6351 8d3d
00000140: 9700 883d ffda 1fbd aefc d53d 9970 f23b
00000150: 472b 1a3e abb0 4c3d a9b3 cb3c 0871 b9bc
00000160: 708e 303d a9a6 893d 288a c8bc 04f9 a13d
00000170: 8597 333c 292c a1bc 45d3 35bd 2fd5 223e
00000180: ae30 7cbd 89ec 7a3d b1b0 143d 4e20 e13d
00000190: fe29 7e3d cea3 8ebd ccdb 213d 201f 46bc
000001a0: cc73 4fbd 95b0 0abd 2b9c 9cbd 3e02 603d
000001b0: a889 78bc 33c2 9ebd 8977 8a3d f6bc 513d
000001c0: 90e4 053d 0177 9e3d 5536 923d 2550 973d
000001d0: 49fe 903d 5994 833d 2c8b a93c 30f2 d8bb
000001e0: ec7a 15bd 4b5b b1bd 1b50 09bd df38 b5bd
000001f0: fc79 15bd 61c2 88bd 1443 b2bd 5966 313d
00000200: e1c0 ffbc 5db4 8d3d 33c1 13be b607 84bd
00000210: 2dea 9ebd 80c3 16bd 1ae8 313d 2a89 3dbc
00000220: 24f5 563a 484f 05bd 2105 893c 4e43 aebc
00000230: f2c2 c43d bd14 9fbb 2b5a 24bd f2df fdba
00000240: ae44 283d f2f1 5a3d 771d cb3c 52f0 1c3d
00000250: aa84 c43d eb2a 043e 70d9 f63d caf5 813d
00000260: b902 8e3d 42f4 ecbc d424 c33d 6f37 8c3d
00000270: 6f4e 853d 80ba 23bd a2c6 dd3d 01b8 89bc
00000280: 599c cebe 0388 213e 6f5b c0be 5208 a13d
00000290: cc16 d8be 853a 543e 3648 a7be c4a6 8d3d
000002a0: ccdc c2be e607 d43d 4be2 e6bb 6722 6bbe
000002b0: fcd9 21bd 71ec d5bd 64d7 9e3b 4e2d 86bd
000002c0: 735c a1bd 7ac0 4abe 32d4 91ba 33bb e9bd
000002d0: a088 c3bc b6b0 90bd 1c7d bd3c 1e07 63bd
000002e0: 2392 53bd 3889 b03c c6fe 24bc c035 b0bb
000002f0: 7df9 8b3d 7031 63bc 31d0 be3d 3fef a13c
00000300: cba4 d63d 3028 8f3d ff97 eb3d d463 983d
00000310: fd22 963c 9514 a13d da3f e93d 0ce5 6d3d
00000320: 0236 823e b32d 73be b635 853e 9d68 83be
00000330: 1c06 923e a4a7 0dbe 93c9 613e 9329 81be
00000340: acdb 913e 080d 0cbe 6c5f cabd 28c4 293e
00000350: 2e44 54be 050b 223e 442f 86be ecd4 533e
00000360: 887f 4ebe f782 313e 9342 62be 5f1e 4b3e
00000370: 339d 90be b2d6 96be 6a66 60be 690d 01be
00000380: 0ad6 1abe fa7b 4bbe 6bcc 66be d153 4ebe
00000390: b74f 3abe 877e 52be caae b23d 0489 1bbe
000003a0: e806 ae3d 9bb6 e1bd a6f9 083d f927 14bd
000003b0: dd09 8b3d a626 3fbd d43b 043e 839e a6bd
000003c0: eadc b83d 2a7c 133c 76c0 b73d d587 483d
000003d0: c416 c43d 68db ef3d 3053 72bc 2a25 f63d
000003e0: 27da d83d de6f 95bc 2c05 a3bd 0dde bcbc
000003f0: 0428 d6bd d938 a53d eb3c 55be d680 cb3d

fc1.bias f4 [17]
0.0869913 -0.05692046 -0.088148244 -0.09162405 -0.07977489 0.014043385 0.016661935 0.039629877
-0.094012275 0.05528221 0.054696716 0.050193198 -0.043083303 -0.07970769 0.06544895 -0.017541278
0.004600273
00000000: 7f28 b23d 6e25 69bd 1187 b4bd 64a5 bbbd
00000010: 0461 a3bd 3a16 663c 9c7e 883c f052 223d
00000020: 8289 c0bd 996f 623d aa09 603d 6297 4d3d
00000030: 1e78 30bd c93d a3bd 190a 863d bab2 8fbc
00000040: e3bd 963b
