cnn.pth (torch, 37079 bytes, 6 tensors)

conv1.weight f4 [32, 1, 3, 3]
000000 92 ff 3d be 5b 43 a3 3e c6 bf ab be b4 b3 d0 be
       -0.18554524 0.31887326 -0.3354475 -0.40762103
000010 d9 3f 46 3c ed d5 f4 3c 1c 35 4e be ae 0f cf 3e
       0.012100183 0.029887164 -0.20137447 0.4044165
000020 30 3f b8 bd 8d dc 41 be 0f fc 7b bd b4 0f 28 3d
       -0.08996427 -0.1893179 -0.06151968 0.0410306
000030 cc ec 27 bf 05 75 42 be 63 8e f9 bc 54 ca 95 be
       -0.655957 -0.18989952 -0.030463403 -0.29255927
000040 85 30 36 3e f8 99 9d 3e 45 c3 54 be 15 37 b2 be
       0.17791946 0.3078153 -0.20777614 -0.3480765
000050 c0 f0 48 3e ce 21 96 3e 20 5d 83 be 70 5d a2 3e
       0.19623089 0.29322666 -0.25656986 0.31711912
000060 75 58 19 bd 64 c3 2a be b0 35 bf 3e 15 e2 5a bf
       -0.037437875 -0.16676098 0.37345648 -0.85501224
000070 8b 7b bf bd d2 74 9d 3d ab 80 46 bf 1a 1d d3 3e
       -0.09349736 0.07688297 -0.7754008 0.4123314
000080 d6 77 60 bd 21 7e 35 bf cf ff fe bd 9c aa 1d be
       -0.054801784 -0.7089558 -0.12451135 -0.15397114
000090 15 2f c2 bc 6f d4 83 3e f4 27 5a be 15 ac a8 3e
       -0.023704091 0.2574801 -0.21304303 0.32943788
0000a0 d1 da 81 bc 6b 6a 09 bf a4 fc 65 3e 53 e3 af be
       -0.01585141 -0.53678006 0.22459656 -0.34353122
0000b0 d7 4e 1e bf 9b 19 b3 be ac cc 63 3e b2 67 03 3e
       -0.6183905 -0.34980473 0.22246045 0.12832525
0000c0 82 85 a0 be 96 5e 56 ba 20 8f 0f 3e 21 74 2b 3e
       -0.31351858 -0.00081775466 0.14019442 0.16743518
0000d0 ea b2 12 3e a1 9a 1a 3b 97 20 9e 3e 96 b9 5d be
       0.14326063 0.0023590701 0.3088424 -0.21652827
0000e0 04 f7 af bc b6 01 33 be 39 f9 90 be af dd f9 be
       -0.02148009 -0.17481121 -0.28315142 -0.48801944
0000f0 00 2f 6f 3e 79 49 eb 3d 90 f2 fa be 0b 9b 8c 3e
       0.23357773 0.11488623 -0.49013186 0.27462038
000100 05 92 a1 3c 2b c3 ba bd de 22 3f 3e 68 06 b2 bd
       0.019722948 -0.091192566 0.18665645 -0.08692628
000110 a8 9e 1a 3e a9 09 fd 3e 29 ed d5 be 22 a2 30 be
       0.15099585 0.49421433 -0.417825 -0.17249349
000120 cb df 27 3e 0b 69 d7 3e f0 fb 48 3e f4 98 a9 3e
       0.16393964 0.4207233 0.19627357 0.33124506
000130 4a 61 57 3e 16 32 c4 be 0b 90 8b 3d b3 a8 8f bd
       0.21033207 -0.38319463 0.068145834 -0.07014599
000140 65 72 d1 be 2f 22 e6 3e 07 21 67 3e 81 b9 3c bf
       -0.4090759 0.44947955 0.22571193 -0.73720556
000150 9e ef 5c 3e 38 5e a7 bd 0c 59 ea be f4 85 2d ba
       0.21575782 -0.08172268 -0.45771062 -0.0006619387
000160 41 bb d0 3d 84 86 1b bf 25 3b af 3e fb 23 2b 3d
       0.10191966 -0.6075213 0.3422481 0.04178236
000170 2a e1 e6 3d 12 46 b1 3e 60 3d e8 be 11 de b3 be
       0.112734154 0.34623772 -0.45359325 -0.3513036
000180 88 4e c7 3e 22 c0 4b bd 32 cf ca be 8b 40 0b bd
       0.38927102 -0.04974378 -0.39611202 -0.0339971
000190 d8 8a c5 3e 23 47 51 3f 8e 7c 2a 3c d0 40 3f be
       0.38582492 0.8174917 0.010405673 -0.18677068
0001a0 c5 7b 0b bf a6 c1 18 3e 31 6c b4 be 50 71 fc be
       -0.5448573 0.14917621 -0.35238793 -0.493052
0001b0 78 f6 4c 3e de b2 6d be c1 67 26 bd e6 07 d0 3e
       0.20015895 -0.23212764 -0.04062629 0.40631026
0001c0 14 62 f8 be 75 34 ca 3e a2 24 e1 3e 0f dc 10 bf
       -0.48512328 0.39493147 0.4397326 -0.5658578
0001d0 6c 01 77 3c ea 70 92 3e 41 12 83 bc 4c 3b 13 bd
       0.015076023 0.28601772 -0.015999915 -0.03594522
0001e0 83 8f cc 3e 8c eb 3c bd b5 99 94 be 76 36 dc 3e
       0.3995324 -0.046123073 -0.2902352 0.430103
0001f0 0d d1 c4 be a4 35 a2 be ad 2f ce be a5 ad 68 bd
       -0.38440743 -0.3168155 -0.4027075 -0.056806225
000200 ab 07 1a bc c8 34 1d bf dc 63 13 3d 50 9e 36 3e
       -0.009401242 -0.6140866 0.035983905 0.17833829
000210 88 69 0b bf 1d 88 bd 3d a9 06 b1 3e 9c 43 96 3d
       -0.544579 0.09254477 0.34575394 0.07337114
000220 82 b4 0d bc 46 3b ee bd 78 04 34 3e fc eb 4a 3e
       -0.008648993 -0.11632399 0.1757983 0.19816583
000230 a8 ee 61 3e 31 8a a1 3e b7 9d 9a 3e 4e dc d6 bd
       0.22063696 0.31550744 0.30198452 -0.104912385
000240 bf 1d 02 bf 9a 6d 5a be 3c 3d c6 3e 24 7f b2 be
       -0.5082664 -0.21330872 0.38718593 -0.34862626
000250 2f 3c 5b be c3 ce 11 be 28 27 0f bf 4f cd a4 be
       -0.21409677 -0.1423903 -0.5591912 -0.32187888
000260 c0 44 84 3d 1b f5 71 3e 5f de 23 3e e6 f5 10 bf
       0.064584255 0.23628657 0.16002797 -0.5662521
000270 0e 4e 85 3e fd df 90 be 44 10 c3 be 49 0e b3 bd
       0.26036114 -0.2829589 -0.38098347 -0.08742959
000280 fe 2d a9 bd bc 42 99 be a9 d5 27 bf d1 16 65 be
       -0.082607254 -0.29933727 -0.65560395 -0.22371985
000290 94 96 cd 3c 56 85 c5 be b5 3b b6 bd dc 16 4e 3e
       0.025096215 -0.3857829 -0.08898107 0.20125908
0002a0 cd 70 29 bf 34 88 49 3d 6d 18 bd 3e a4 c5 9d be
       -0.66187745 0.04920216 0.36932698 -0.3081485
0002b0 aa 98 ce 3e 98 68 d5 3d 87 be ef be f3 bb 9f 3e
       0.40350848 0.1042034 -0.46825048 0.3119808
0002c0 e0 f8 3a bd a5 a2 a3 be 1d a9 bd 3e a4 fa 8c be
       -0.045647502 -0.31960025 0.37043086 -0.27534974
0002d0 00 57 fc bb 6f 2a bf be 37 99 a3 3e 29 f5 20 3d
       -0.007700801 -0.37337062 0.3195283 0.039296303
0002e0 cc de 11 be 8b e7 48 3e f1 e2 09 be 57 8c bf be
       -0.14245147 0.19619577 -0.13465478 -0.37411758
0002f0 0d b2 47 be 84 2c 65 be d9 4f c5 3e ad a2 b0 3e
       -0.19501515 -0.22380263 0.3853748 0.34499112
000300 2a 83 1c bf 5c 85 09 3e e8 52 ee bd 6b 74 18 bf
       -0.6113764 0.13429779 -0.11636907 -0.5955264
000310 42 c1 9c bd 65 3d 6f 3e 97 f6 44 bd 69 54 4f bc
       -0.076540485 0.23363264 -0.04808673 -0.012654402
000320 08 5f 27 3f b2 6c bd 3e 06 41 8c be ac e3 24 bf
       0.6537938 0.3699699 -0.2739336 -0.644099
000330 54 c4 46 bd a6 48 a8 3e 91 c7 0d bf 41 c9 d3 3e
       -0.048527077 0.32867926 -0.5538264 0.41364482
000340 de c5 89 3e 2c 73 ef 3b fd e7 05 3e 2c 93 b3 3d
       0.26908773 0.0073074307 0.13076778 0.08768305
000350 11 6d 8f ba 5b 70 4c 3d 29 d0 1d 3e 6c 9b e7 3b
       -0.0010942539 0.049911838 0.15411438 0.0070680883
000360 41 b6 3f bf 31 2c 67 bd 14 a1 b2 3e e6 70 38 bf
       -0.7488747 -0.05643863 0.34888518 -0.7204727
000370 43 07 c2 3d 19 e6 d1 3e f8 a4 b5 be b6 b3 02 3e
       0.09474041 0.40995863 -0.35477424 0.12763867
000380 51 f7 55 be b0 e2 92 3e ce 31 e8 be 35 2f 46 bd
       -0.20895125 0.28688574 -0.45350498 -0.048384864
000390 40 0c 3a 3c b5 7e 82 be d3 08 2d 3d 7e dc c9 3e
       0.01135546 -0.25487295 0.042244744 0.39426035
0003a0 90 0e 32 be 1d 0a ae 3e 2a fc 8f 3e 3a db e6 be
       -0.17388368 0.3399209 0.28122073 -0.45089132
0003b0 40 02 51 3e 83 75 19 be 4a 22 b9 be 03 11 19 3e
       0.20411015 -0.14986233 -0.36158973 0.14947896
0003c0 58 ae 43 3e 6a b1 86 3c 9b dd 4e bd 08 8a 18 3e
       0.19109476 0.01644202 -0.05050431 0.14896405
0003d0 03 79 0b be 5d 6a a3 be 39 e8 c7 3e a8 ef 18 bf
       -0.13620381 -0.31917086 0.3904436 -0.59740686
0003e0 02 05 21 3c 7b b2 c5 3d 3a 74 ff be 41 d4 46 3d
       0.009827854 0.09653183 -0.4989336 0.048542265
0003f0 d5 10 a1 3e ec 4f aa be b0 2c ce bd b7 34 bf bd
       0.31458154 -0.332641 -0.10067117 -0.093362264

conv1.bias f4 [32]
000000 e2 3e 5b 3d 64 a9 c7 3d d0 93 1b be 31 ca 8c 3e
       0.053526767 0.097491056 -0.15193105 0.2749801
000010 93 51 a2 3d 39 95 9a bd fe dc 21 3c 19 45 a6 be
       0.07925715 -0.07547993 0.009879349 -0.32474592
000020 74 a4 62 3e 7e e8 90 be fe 07 40 3d 58 80 30 3d
       0.22133046 -0.28302377 0.046882622 0.04309115
000030 43 78 a0 bd c8 5d aa 3b 64 74 80 bd 3f a2 61 bd
       -0.07835438 0.005199168 -0.062722 -0.05508637
000040 d8 4a d2 3e 6c 3a 42 be a1 31 2e 3e 3e df 7c 3e
       0.41072726 -0.18967599 0.1701112 0.24694535
000050 22 65 56 3e e6 04 8a 3d 5b 0f 25 be e4 70 05 be
       0.20937017 0.067392156 -0.16119139 -0.13031346
000060 59 66 69 3e c9 74 bd bd b6 59 28 3e a7 1d 8c 3e
       0.22792949 -0.092507906 0.16440472 0.27366373
000070 b5 27 70 bd bc 87 a8 bd 6d 2f 63 3e 38 3b 13 3d
       -0.058631618 -0.08229014 0.2218606 0.035945147

conv2.weight f4 [16, 32, 3, 3]
000000 55 db 81 3e a0 46 76 3e d4 21 90 bc ea ef 90 3e
       0.2536265 0.24050379 -0.017594256 0.2830804
000010 00 41 83 3e 90 02 b6 3d 93 3d a5 3e 46 f9 63 3e
       0.2563553 0.088872075 0.3227354 0.22263059
000020 46 b5 b8 3d e9 a8 c2 3c ca 10 b2 bd cb 21 76 be
       0.0901895 0.023762183 -0.086946085 -0.24036328
000030 b0 2b 37 3e fa 47 14 3d cd ec 6b be 95 ce 13 3e
       0.17887759 0.036201455 -0.23039551 0.14434274
000040 91 85 7b 3d a4 db 3a bd 68 d5 d3 3d d6 97 ec 3d
       0.061406676 -0.045619622 0.103434384 0.11552398
000050 d8 10 8c 3d 0d 01 32 3d 36 04 e1 3d be f4 f3 3d
       0.0683915 0.043458033 0.10987131 0.11911915
000060 62 de ec 3c f4 c9 e1 3d c5 be 02 3e cc a5 9b bc
       0.028914634 0.110248476 0.12768085 -0.018999957
000070 98 c5 92 be 4e f1 85 3e 8a 80 6d 3c 4e 38 40 be
       -0.28666377 0.26160663 0.014495978 -0.18771479
000080 87 8b 2c 3e ec e4 d7 3d ed ce 65 be 4c 44 95 3e
       0.168501 0.1054171 -0.22442217 0.2915367
000090 3c c3 90 bd 28 22 8c be b3 b3 1c bd e0 6e c4 bc
       -0.07068488 -0.2736981 -0.038257312 -0.02397865
0000a0 65 41 b4 be 59 dd 84 bc 90 bd 81 bd d1 1d 30 be
       -0.35206142 -0.016218828 -0.06334984 -0.17198874
0000b0 2e b2 a6 3e db 60 4e 3d 01 3f 00 3c 1c e7 3c bc
       0.32557815 0.050385337 0.007827521 -0.01152971
0000c0 81 57 2f bd 1a c5 54 bd b2 b4 b9 bb 9a 45 4c 3d
       -0.04280806 -0.051945783 -0.0056672925 0.049871065
0000d0 71 ac bd bd 36 ad d2 3b cc 23 5d be 7b d0 9e be
       -0.09261406 0.0064293398 -0.21595687 -0.31018433
0000e0 97 28 99 3e 8f 61 b4 bd bc 4e 7b be a1 77 97 3e
       0.2991378 -0.0880767 -0.24541754 0.29583457
0000f0 3a 3e 1e be ca dc 42 3d 1d ce 0b 3f f7 e0 e8 bd
       -0.15453425 0.047573842 0.5461138 -0.11371034
000100 f1 7c 34 3d 89 12 3d 3e ef 18 e7 bd e3 ee 3c 3d
       0.044064466 0.18464102 -0.112840526 0.046126258
000110 62 5d d4 3d 3c ba 00 be 40 85 9e 3c 3a b8 19 3e
       0.10369374 -0.12571043 0.019350648 0.15011683
000120 09 7c 42 bc 68 03 3b bd f8 cb d1 bd 67 91 81 3d
       -0.011870393 -0.045657545 -0.10243982 0.063265614
000130 56 fa bc 3c c9 5a 8b bd 8e 7b 24 bc 71 f4 0f 3d
       0.023068588 -0.06804425 -0.010039223 0.035145227
000140 38 32 3d bb 80 c4 26 bd 62 74 c7 be d6 f6 91 bb
       -0.0028869044 -0.04071474 -0.3895598 -0.004454474
000150 c4 c0 81 bc 94 cd d7 be 6b c7 17 3d cc 1b 00 3d
       -0.015838988 -0.4214903 0.037055414 0.03127651
000160 f6 bd b2 be c0 7d 31 3e f8 04 9d be 3b f4 8f bd
       -0.34910554 0.17333126 -0.30667853 -0.07029005
000170 9f 8d f1 3d cc 96 76 be 14 38 e3 bd 03 ec 5b 3d
       0.1179459 -0.24080962 -0.110946804 0.053691875
000180 99 d7 84 be 86 fe 88 bd 1b 6f 1e 3e 80 ef 9d 3c
       -0.25945738 -0.066891715 0.15472071 0.019279242
000190 16 db 29 be df f6 bc 3e f4 cd 9f 3e 4e 14 99 bd
       -0.16587481 0.36907098 0.31211817 -0.07474576
0001a0 68 60 df 3e a1 ae 0c be da 9c 74 3e 6b 19 43 3f
       0.4362824 -0.1373849 0.23887959 0.7621066
0001b0 fc a2 9d bd 17 df b0 3d 2d be 0d 3e 37 b2 71 bb
       -0.076971024 0.08636301 0.13842078 -0.0036879906
0001c0 cd c0 b8 3d fd e0 3a 3e 64 d4 93 bd 8b a1 97 3c
       0.09021149 0.18249889 -0.07218245 0.018509647
0001d0 b2 b7 58 3e d6 4b ba be a4 72 04 be 35 5f 5a 3c
       0.21163824 -0.36385983 -0.12934357 0.013328363
0001e0 9e 24 b8 be ed f5 72 be f4 95 74 3d b1 75 87 be
       -0.35965437 -0.23726626 0.05971332 -0.2645698
0001f0 7c 38 5d be 46 4a 3d 3e 01 82 92 3c 60 16 a5 bb
       -0.21603578 0.18485364 0.017884256 -0.0050380677
000200 e2 24 7f be 4a 0e 35 3d b2 96 16 3d 07 2f 4c be
       -0.24916413 0.04420308 0.036764808 -0.19939815
000210 47 ba 2b 3e 60 11 0b 3d c7 d3 5c be e9 ea 91 3c
       0.16770278 0.033952117 -0.21565162 0.01781221
000220 1c 56 03 bd 9e 54 45 3c 62 5e a1 bd dd f8 6a bd
       -0.032064542 0.0120441 -0.0787933 -0.05736624
000230 69 80 a7 bd 4b 32 5b bd e4 60 e3 bc 57 a6 91 bd
       -0.08178789 -0.05351476 -0.027756162 -0.07111805
000240 cd 9e e6 3d 14 a5 b3 be bc 1d 22 3e e9 36 04 3d
       0.112607576 -0.35086882 0.15831655 0.03227893
000250 07 0c d8 be 30 bb 9c 3d 66 56 ef 3d da 87 29 be
       -0.42196676 0.07652891 0.11686401 -0.1655573
000260 4f 14 8c 3e 23 ef 7c be e0 a0 13 be 48 9d 77 3d
       0.27359244 -0.24700598 -0.14416838 0.06045273
000270 cd 9c d5 bd 49 71 98 be bc bb 21 3e 8d 54 66 be
       -0.10430298 -0.2977393 0.15794271 -0.22493191
000280 c3 bb 9a be 3d da 76 3e 40 2d 47 bc 8c 1a a1 3c
       -0.30221376 0.24106689 -0.012156785 0.019665979
000290 a0 05 88 be ce 06 d0 3d ee 82 0a 3d ec 5c 61 be
       -0.26566792 0.10157548 0.03381627 -0.22008103
0002a0 17 15 9d 3d d6 07 01 bc 5f ff 5d be 95 f4 eb 3d
       0.07670038 -0.007875403 -0.21679448 0.1152126
0002b0 c6 e4 3a 3e 7c c3 01 3d 57 c9 2b 3e c0 91 07 3e
       0.18251333 0.03168057 0.16776024 0.13239193
0002c0 15 5b cf 3c c3 fb ca 3d 00 be 43 3e 83 5c 14 3e
       0.025311986 0.09911301 0.19115448 0.14488415
0002d0 34 50 9b 3d c3 8e 97 3e 45 87 45 3d 25 79 3c 3e
       0.07583657 0.29601106 0.048224706 0.18405588
0002e0 af 20 9c 3e c3 bc bf bc f9 32 41 3e 54 71 92 3e
       0.30493686 -0.023405438 0.18867101 0.28602087
0002f0 69 02 a1 3d e5 68 cc 3d d1 0a 17 3d f1 d5 14 3e
       0.07861788 0.099809445 0.03687555 0.14534737
000300 05 59 c7 3d a6 e4 27 3c 1c 8f df 3d a4 b6 1b 3e
       0.09733776 0.010247385 0.10915968 0.1520639
000310 25 2b 56 3c 64 ca d9 3d 8f a3 0e be 17 68 6b 3d
       0.01307181 0.10634306 -0.1392958 0.057472315
000320 14 81 c1 3e dd ef ea bd 19 10 eb 3d 47 b7 a6 3e
       0.3779379 -0.114715315 0.1147768 0.32561705
000330 aa 74 8c bd c2 f1 ac 3e 52 78 46 3f 37 10 86 bd
       -0.068581894 0.33778197 0.77527344 -0.065460615
000340 2f af ef bc d8 77 4a bd 4f 07 44 3c c7 2c a4 3c
       -0.029258339 -0.0494307 0.011964633 0.020040883
000350 92 78 98 bd 94 d6 c5 bd 05 58 a5 bd c7 7e ff bc
       -0.07444872 -0.09660068 -0.08073429 -0.031188382
000360 1a ed 72 3c 89 fa 30 3d 05 6d d6 3d 34 e2 51 3d
       0.014827037 0.04320768 0.104700126 0.051241115
000370 08 27 30 3d 8b 28 03 3e 95 7a 3f 3d e3 ea 29 3d
       0.043005973 0.12808435 0.046747763 0.04148377
000380 34 47 06 3e 3a c3 8a 3c 45 2a 90 3d 73 fc 0b 3e
       0.131131 0.016938794 0.07039312 0.1367052
000390 d9 e8 19 bd b0 bf 1d 3e cb 32 a5 3d be 97 8a bd
       -0.037575576 0.15405154 0.080663286 -0.06767224
0003a0 73 49 15 3e 9b b9 dd 3d d0 99 da 3c 12 c6 9a 3d
       0.145788 0.10826417 0.026684672 0.0755731
0003b0 2b 84 dc 3d d9 c3 8b 3c ee 36 de 3d 5b 2f e9 3d
       0.107673965 0.01706116 0.10850321 0.113859855
0003c0 8c 8b 8a bc ad b2 00 3d 28 f4 e1 3d e4 07 bf bd
       -0.016912244 0.0314204 0.11032897 -0.09327677
0003d0 0e 75 db 3d c5 7e 5e 3e 24 2a ae bd 82 7f e2 3d
       0.10715686 0.21728046 -0.085041314 0.110594764
0003e0 a1 f9 52 3e d3 a7 50 bd 8e 09 30 3e b2 7a 86 3e
       0.20603038 -0.0509413 0.17191145 0.26265484
0003f0 b7 8e f7 3d 6d be 02 bf 61 e0 6b bc f4 bc fc 3e
       0.120877676 -0.51071817 -0.014396758 0.4936291

conv2.bias f4 [16]
000000 e6 4e 00 3c e7 76 03 3e d6 f6 ec 3d a5 c9 ab bc
       0.007831311 0.12838326 0.11570518 -0.020970175
000010 e6 ea bf bc 2f 0f 62 3c a1 dd c0 3c c7 3d 94 bd
       -0.023427438 0.013797565 0.02354318 -0.072383456
000020 c9 9e 35 bd 5f 0f 11 bd e1 e9 3e bd 65 5b 2b bc
       -0.044340882 -0.03541505 -0.046609763 -0.010458802
000030 2c 2f 2b bd a6 7d 52 bd 87 4f 49 3d 1b 9d 08 3e
       -0.041793033 -0.05138936 0.04914811 0.13341181

fc1.weight f4 [24, 160]
000000 02 c0 80 bc a1 24 8c 3d 0f f5 42 3d 6c f7 4b bd
       -0.015716556 0.06842924 0.047596987 -0.049796507
000010 48 3e 37 bd b3 69 5e bd 8c 7c 48 3c c0 07 03 3b
       -0.04473713 -0.05430002 0.012236726 0.0019993633
000020 27 f5 c5 bc 5b e6 39 3d 0b 25 35 bd 15 9d 67 bd
       -0.02416475 0.0453857 -0.04422478 -0.05654629
000030 51 62 8e bd 4c 21 5b bd db c3 80 3d 09 d6 53 bd
       -0.06952346 -0.05349855 0.062873565 -0.05171779
000040 6f ac 0f bd 7c 1a b7 3c 62 a3 97 bd ed ed 7a bd
       -0.035076555 0.022351496 -0.0740421 -0.06126206
000050 c9 c1 37 3d 4a 65 f8 bc 36 9b 5e bd 68 94 27 bc
       0.044862542 -0.030321736 -0.05434724 -0.010228254
000060 e4 6e c9 bc 08 b7 6c 3c 4a 49 80 3c 94 ad 79 bd
       -0.02458901 0.014447935 0.015659947 -0.060956553
000070 94 b2 6f 3d 65 ef 99 bd 99 5f 5c 3c 0b de 11 bd
       0.058519915 -0.07516364 0.013450527 -0.035612147
000080 36 53 3f bd d6 66 78 3d 23 50 b7 bd 94 8d 01 bc
       -0.046710216 0.060644947 -0.08950832 -0.00790729
000090 2b eb 18 3d ff fc 6a 3d 59 2b a4 bd e3 5a 78 bb
       0.03733365 0.057370182 -0.080160804 -0.003789597
0000a0 18 e6 84 3d 46 d1 b9 bd 09 19 c4 3b c2 a8 80 bd
       0.064891994 -0.09073119 0.0059844297 -0.06282188
0000b0 b7 da 00 ba 2d aa ad bd 18 7a d1 3c 3a 8d fc bc
       -0.00049154036 -0.08479724 0.025570914 -0.03082906
0000c0 46 f2 0a 3d 72 9e 6d bc 4d 73 c9 bc 83 30 05 bd
       0.033922456 -0.014503108 -0.024591113 -0.032516968
0000d0 d3 88 af bd ef 1d 40 bd 25 42 2f bc c6 8b 98 bd
       -0.08571019 -0.046903547 -0.010696922 -0.07448535
0000e0 20 9d 65 3d 00 96 84 bd 82 b9 34 bd 8e c0 c3 bc
       0.05605805 -0.06473923 -0.044122227 -0.023895528
0000f0 f8 27 83 bd 68 5e 64 bc 96 ee 1b bd ba ca a2 bd
       -0.06404108 -0.013938524 -0.03806933 -0.07948823
000100 00 2b fe 3a c4 22 68 3d c4 7a 9f 3c cb 8b 54 3d
       0.0019391477 0.05667378 0.019467719 0.05189113
000110 00 ab 4a ba 24 8f 27 bd 4b 7a 4e 3d bc f3 62 bd
       -0.00077311695 -0.040907994 0.050409596 -0.055408224
000120 aa f8 b0 bd 3c be 8d 3c c8 17 d6 3c 07 91 41 bd
       -0.08641179 0.017302625 0.026134387 -0.04725745
000130 61 63 6e 3c 12 c5 e5 bc 60 61 bb bc f4 86 fc bc
       0.014550061 -0.028048072 -0.02287358 -0.03082607
000140 a6 88 f7 bc a3 06 9f bd f3 db c6 3b 6b c0 0b bd
       -0.030216526 -0.07764938 0.0060687005 -0.03411905
000150 d3 18 41 3d 6f 56 06 b9 22 aa 9f bd a2 75 96 bd
       0.047142815 -0.00012811435 -0.07796122 -0.073466554
000160 4f 44 5f bd 6a fd c8 3c 3b d0 83 bd a0 97 4a bd
       -0.054508504 0.0245349 -0.06436201 -0.049461007
000170 4d 71 87 3a 05 70 8b bd 0c 03 56 bd de 44 6f 3d
       0.0010333449 -0.068084754 -0.052249 0.058415286
000180 73 c1 61 bd b8 40 22 bd 1b 0a 31 3d 15 71 91 3b
       -0.05511613 -0.0396125 0.043222528 0.0044385293
000190 fe 29 7e 3d ce a3 8e bd cc db 21 3d 20 1f 46 bc
       0.062051766 -0.06964837 0.039516255 -0.012092382
0001a0 cc 73 4f bd 95 b0 0a bd 2b 9c 9c bd 3e 02 60 3d
       -0.050647542 -0.033859808 -0.07646974 0.05468964
0001b0 a8 89 78 bc 33 c2 9e bd 89 77 8a 3d f6 bc 51 3d
       -0.015169539 -0.07751884 0.06761081 0.051205598
0001c0 90 e4 05 3d 01 77 9e 3d 55 36 92 3d 25 50 97 3d
       0.032688677 0.07737542 0.07139269 0.07388333
0001d0 49 fe 90 3d 59 94 83 3d 2c 8b a9 3c 30 f2 d8 bb
       0.07079751 0.064247794 0.020696245 -0.006620668
0001e0 38 fc 28 bc bc 22 3d bd a5 2c c3 3c 85 bb 34 bc
       -0.01031404 -0.046175703 0.023825 -0.011031036
0001f0 05 b1 ae 3b 35 93 83 bd 9a 7c 30 bd c0 33 3c 3d
       0.005331161 -0.06424562 -0.04308758 0.04594779
000200 00 86 b8 bb b4 b9 64 3c f1 58 8d bd c0 aa 0a bd
       -0.0056312084 0.013960291 -0.0690173 -0.033854246
000210 80 dc 03 bb 70 eb 07 bc 02 b5 4e 3d 3a 72 c3 bc
       -0.0020120442 -0.008295879 0.05046559 -0.023858178
000220 e5 20 87 3d e0 83 7a bc 90 e5 fb 3c f6 f9 63 bd
       0.06598071 -0.0152902305 0.030749112 -0.055658303
000230 e6 f4 cc 38 f8 1f b9 bd 55 32 a6 bd d1 e4 82 bd
       9.773094e-05 -0.09039301 -0.08115069 -0.063912995
000240 06 5f 10 3c 63 8f eb bb 1b c7 b9 bb f0 ed b3 bc
       0.008811718 -0.007188724 -0.005669487 -0.021964043
000250 40 86 59 3d 19 53 83 3d 51 f3 a5 3c 7b f9 4a 3d
       0.053106546 0.06412334 0.020257624 0.04955433
000260 79 14 8d bc c7 8b 2d bd 2a ab 06 3b d5 6b 1e 3d
       -0.017221676 -0.04236963 0.00205488 0.038677055
000270 52 2a d1 bc 2e 92 97 bd 8e 99 51 3c 0b 0d 09 bd
       -0.025532875 -0.074009284 0.012792958 -0.033459704
000280 35 04 96 bd 36 b0 9b 3c 89 41 19 bd fd a2 93 bd
       -0.07325021 0.019004922 -0.037416015 -0.07208822
000290 08 48 a7 bd db da 3a 3d 9b 53 8e 3c 53 0c ae bd
       -0.08168036 0.045618873 0.01737385 -0.084984444
0002a0 89 e7 0d bd c7 35 ea bc e2 94 98 3c d5 8e a2 bd
       -0.034644637 -0.028590096 0.01862568 -0.07937399
0002b0 00 e3 9b bc 56 3c 66 3c 74 36 9a 3c c0 18 84 bb
       -0.01902914 0.014052471 0.018824793 -0.0040312707
0002c0 80 fc 78 bd 35 78 b4 bd 88 65 a8 3c 13 38 75 3d
       -0.060787678 -0.0881199 0.020556226 0.05986793
0002d0 81 72 25 bd ea 10 ac bd 3d 57 d9 3b c5 e3 8c bd
       -0.040392403 -0.084016636 0.006632714 -0.06879381
0002e0 c6 a5 8b bd 2b 20 06 3c 74 cd cb bc 84 92 99 bc
       -0.06818728 0.00818638 -0.024878241 -0.018746622
0002f0 24 a7 5e 3d f8 2d df bc 6d da 74 3c 0d 9a 55 bd
       0.054358616 -0.0272436 0.014944655 -0.052148867
000300 ca b7 db 3c 7b 60 d2 ba d1 b5 1e 3d 76 6d f4 3a
       0.026821036 -0.0016050482 0.038747612 0.0018648345
000310 4a a2 70 bd 79 56 18 3c 35 a9 14 3d 1d c9 30 bc
       -0.05874852 0.00929796 0.03629418 -0.010790137
000320 14 75 d4 3b 8a 83 9f bd 32 b5 58 3c 9e ec c5 bd
       0.0064836834 -0.07788761 0.013226794 -0.09664272
000330 a5 7d 25 3d 90 b1 29 3c bc 61 c4 bc 57 69 c5 bd
       0.040403027 0.010357276 -0.023972385 -0.096392326
000340 45 b7 2d 3d 2d 6f e6 3c f7 53 6a 3d af 6e 90 3b
       0.042411108 0.028129185 0.05720898 0.0044077258
000350 30 58 00 3c 59 70 47 bd b3 7f 55 bd 46 6d 6b 3b
       0.007833526 -0.048691127 -0.052123737 0.0035923286
000360 a7 9d ee 3b e0 4b f7 bc 68 40 01 bc 79 f4 fd b9
       0.007281977 -0.030187547 -0.007888891 -0.00048438067
000370 19 b1 b6 bd 6f ae c9 bd ce ae 0a bd 81 9c ce 3c
       -0.089204974 -0.09847724 -0.033858113 0.025221111
000380 b6 20 d3 3c 8d 80 d3 bd 94 d1 15 bd 61 68 16 bd
       0.025772434 -0.103272535 -0.036576822 -0.036720637
000390 4e 62 57 3c 79 ec 13 3d 0a 80 08 bd 1d e3 c2 bd
       0.013145996 0.03611419 -0.033325233 -0.09515975
0003a0 23 7a f1 bc db 76 60 bd cd 92 a8 bd df 8c b1 3b
       -0.029477185 -0.05480085 -0.08231125 0.0054184045
0003b0 bb c8 37 bd ea a4 98 3c 69 39 db 3c 0c f3 24 bd
       -0.044869166 0.018633325 0.026760774 -0.04027085
0003c0 12 c9 8d 3c 7a 6b 6c bd a2 98 8a 3c b3 d1 8e bc
       0.017307792 -0.057719685 0.016918484 -0.017433977
0003d0 16 6a cf 3c 52 85 61 3d 17 3c b2 bd 20 6b 5f 3d
       0.02531914 0.055058785 -0.087028675 0.05454552
0003e0 46 d4 07 3d 45 74 ac bd 43 1e 98 bb 28 ad b7 bd
       0.033161424 -0.08420614 -0.0046422794 -0.08968574
0003f0 02 68 c9 b9 a6 e5 19 bc 88 da cf bd c4 53 df 3b
       -0.000384152 -0.009393131 -0.101491034 0.0068154056

fc1.bias f4 [24]
000000 4b 73 9d bd ef f3 72 3d 49 66 86 3c 9b 6e 45 bd
       -0.07688006 0.059314664 0.016406195 -0.048201185
000010 aa bb ad bd cf a7 26 bd 2f c2 c4 3c 4d d6 56 bd
       -0.0848306 -0.04068738 0.024018375 -0.052450467
000020 1d 59 90 3d 2f 10 69 bd 42 2c 8d 3c 17 c1 2f 3d
       0.07048247 -0.0569002 0.017233018 0.042908754
000030 db 56 8c bd 21 46 9d bd d5 e0 b8 bd f9 15 56 3d
       -0.06852504 -0.07679392 -0.09027258 0.05226705
000040 4e 51 33 3d cb e1 72 bd 60 15 09 bd ba cc 20 3d
       0.04377871 -0.059297364 -0.03346765 0.039257742
000050 90 b3 3f 3d 9d ce 69 3c a9 41 84 3c 47 b0 a2 bb
       0.046802104 0.014270452 0.01614459 -0.0049648616
