checkpoint/ConvNet2_ep166.pth (torch, 986503 bytes, 10 tensors)

conv1.weight f4 [128, 3, 3, 3]
000000 78 d9 a7 bd 1c 38 96 3c 44 b3 8b 3d e2 02 2e bd
       -0.08195776 0.018337302 0.068213016 -0.042483218
000010 1f 39 bc bd b4 22 54 3d 51 85 3f be f0 a8 4d 3e
       -0.091905825 0.051790908 -0.187032 0.20083976
000020 93 e5 e2 3d c2 26 0d 3c e5 3e 1b be d7 f4 21 be
       0.11078944 0.008615198 -0.15160711 -0.15816055
000030 32 83 e4 3c 63 9c c7 3b 2f c7 1d 3e 02 ca 30 bd
       0.02789459 0.006091641 0.15408014 -0.0431614
000040 0c e6 4d 3d b8 0b 4d be f2 d9 c8 3d fe ff a1 3d
       0.050268218 -0.20024002 0.09807195 0.07910155
000050 81 c3 ee 3c 2b f4 d7 3d 25 0c 0d bd cb f6 2b be
       0.029145958 0.10544618 -0.03443541 -0.16793363
000060 38 0c c8 3d c8 6f 5f 3e 9f 10 15 be fa 10 d0 bd
       0.097679555 0.21819985 -0.14557122 -0.10159488
000070 c8 dc c9 3c c4 37 61 bd 02 c0 ab 3d 04 33 24 bd
       0.02464141 -0.054984823 0.08386232 -0.040087715
000080 6e 6f f2 3d d4 6c 4f bd f1 81 37 3e a0 79 c0 bb
       0.1183766 -0.050640896 0.17920662 -0.005873874
000090 c7 fc 10 be 42 25 aa 3d fd 22 d1 bd 3c ba 3c bd
       -0.14158927 0.083078876 -0.102117516 -0.046076044
0000a0 f0 8b cc bc 6d d7 0d 3e 9c 66 31 bd 8c 96 77 bd
       -0.024969071 0.1385171 -0.043310747 -0.060446307
0000b0 c2 72 fd 3d 34 45 16 be 6c b1 2f 3d ea 1f a4 3d
       0.12375404 -0.14674836 0.042893812 0.080138996
0000c0 28 53 ff bc 89 63 04 3e 50 30 76 bc e1 14 3a 3e
       -0.031167582 0.12928595 -0.015026167 0.18172027
0000d0 3f f4 42 3e ea ec ec 3d 1b 15 cd bd 84 d3 53 3e
       0.19038485 0.11568625 -0.10013791 0.20686156
0000e0 59 54 b3 3b ab b9 22 bd fb b1 1f be 67 fd a3 3d
       0.0054727015 -0.039727848 -0.15595238 0.08007317
0000f0 59 4b 84 3c 79 13 bf bd da c3 27 be ec de f0 bd
       0.01614921 -0.09329886 -0.16383305 -0.11761269
000100 2d 04 e8 3d a7 cd 13 3e f2 f7 df bd 6f 4f 4b 3e
       0.113289215 0.14433919 -0.10935964 0.1985452
000110 c3 85 a9 3d 21 96 ad bc 8b f3 c6 bd a7 18 44 be
       0.08277466 -0.021189751 -0.09714421 -0.19150029
000120 52 c4 4a bc 0b fa 28 be fb cd 04 3e 29 11 49 be
       -0.012375908 -0.16501634 0.129692 -0.19635452
000130 29 49 f1 3d 8f eb 46 be 59 4f d2 bd 76 fd c0 3b
       0.11781532 -0.19425796 -0.102690406 0.00588959
000140 35 c2 1d be 0b c1 44 be 2e 14 9f 3c 5f 2a 85 bd
       -0.15406115 -0.19214265 0.019418802 -0.06502222
000150 ef c5 62 bd e6 40 4e 3e 9e b1 32 be 05 6c 4c bd
       -0.055364545 0.20141944 -0.17450568 -0.049907703
000160 b7 ca 2f 3e 5c 08 0f 3e f1 f9 c8 bd 2c 11 22 3e
       0.17167173 0.13968033 -0.098132975 0.15826863
000170 82 7b ef bd 81 40 1b 3d 74 fd 15 3e 84 17 07 be
       -0.11693479 0.037903313 0.14647466 -0.13192564
000180 84 77 cc 3d d4 2a 91 3d 63 8d 24 3d 8b dd 3e bd
       0.09983733 0.07088247 0.0401739 -0.046598
000190 54 60 5a 3e 03 93 40 be 15 fb 70 3d ad 16 20 3e
       0.21325809 -0.1880608 0.0588332 0.1563365
0001a0 50 b5 28 be a0 92 2b be b6 fc 53 bc 47 19 a5 3d
       -0.16475415 -0.16755152 -0.012938669 0.08061462
0001b0 25 62 b4 bc 28 88 bf bd 3c 22 f1 bd 57 e9 93 bd
       -0.022019455 -0.093521416 -0.11774108 -0.072222404
0001c0 ce 16 16 3e af 51 57 3e d3 c5 bb bd fb 31 0d be
       0.14657137 0.21027254 -0.09168591 -0.13788597
0001d0 08 fd 83 3d ca 7a 84 bd c2 d1 eb 3d 7d b8 c5 3b
       0.06444746 -0.06468733 0.115146175 0.0060339556
0001e0 82 fd 76 bd a7 ec 02 be b4 cf ba bd 9b c9 4c be
       -0.060300358 -0.12785588 -0.091216475 -0.19998781
0001f0 e3 37 ad bb 74 81 05 be d3 9d e3 3d b0 37 3f be
       -0.005286203 -0.13037664 0.11114087 -0.18673587
000200 84 0a bc 3d 48 cf 37 be f4 fe 1b be 19 63 c4 3b
       0.09181693 -0.17950165 -0.15233976 0.0059932587
000210 e8 bc 31 3d 93 f6 af bd 2f b2 4d 3d 00 40 18 3d
       0.043393046 -0.08591952 0.050218757 0.03717041
000220 4f e6 1a 3e 98 97 87 bd ae 55 94 3d a4 37 52 bd
       0.15126918 -0.06620711 0.072429046 -0.051322594
000230 b0 11 8e bc 77 01 3e 3e 5c b0 00 bd b9 d3 12 be
       -0.017342418 0.18555246 -0.03141819 -0.14338578
000240 61 7e 44 3e 85 6a 3e be 28 3f c7 3c 8e 01 de bd
       0.19188835 -0.18595321 0.024322107 -0.1084014
000250 50 65 31 bc 36 6a 9c 3d 3c 83 fb bd 2b 2c 3c 3e
       -0.010827377 0.07637446 -0.1228089 0.18376224
000260 09 f8 08 be d9 cd 42 3e 9f 94 31 3e 2a 10 ab 3d
       -0.13375868 0.19023837 0.1734185 0.083526924
000270 a0 58 13 3d 00 fe 60 3a 06 7f 0c be 04 91 2b bd
       0.03597319 0.0008582771 -0.1372033 -0.041886345
000280 3a 78 da 3d 19 91 16 3e 13 fe 25 3e 42 33 92 bd
       0.10667463 0.14703788 0.16210203 -0.07138683
000290 4f 6a 63 bd 4f 61 31 3d dc 0d 78 3d 72 a4 ba 3d
       -0.055521306 0.04330569 0.060560092 0.09113397
0002a0 e9 a5 00 3e b4 9e cd bd 14 4a 43 be b9 bf 94 3d
       0.1256329 -0.10040036 -0.19071227 0.07263131
0002b0 01 e6 3c 3e fd e4 b3 bd 22 37 33 3e 16 fa 8d bd
       0.18447115 -0.087839104 0.175015 -0.06932466
0002c0 d6 37 32 3d 88 e5 f4 bc 72 a5 1d be 50 79 b8 bb
       0.04351028 -0.029894605 -0.15395144 -0.005629696
0002d0 62 76 15 be 9e 9b ee bd ce fc 01 be c0 4b 14 be
       -0.1459594 -0.116507754 -0.12694094 -0.14482021
0002e0 c0 fb ac bd d8 17 59 be e0 37 ce 39 1a 63 01 3e
       -0.08446455 -0.21200502 0.00039333012 0.1263546
0002f0 4b b9 d6 bc b3 15 00 be be db b9 3d 98 4d 59 bd
       -0.026211401 -0.12508278 0.090751156 -0.053052515
000300 bb 40 50 3d 92 cc 1d be 09 88 1c 3e 18 d1 f2 3d
       0.05084298 -0.15410069 0.15286268 0.11856288
000310 2d d2 8d bb 6b 94 9d 3d ce 3f db bd f2 d3 58 3d
       -0.0043280334 0.07694324 -0.10705529 0.0529365
000320 16 66 6e bd e8 e9 10 be 7c dc 72 bb 33 a4 2a bd
       -0.058202825 -0.14151728 -0.0037057688 -0.0416605
000330 54 e5 b9 3d 9c 74 58 be 78 c9 04 3e 43 99 34 be
       0.09076944 -0.21138233 0.12967479 -0.1763659
000340 18 36 a5 bc ea 7e 40 3e 03 46 29 be 8e 7b 59 bd
       -0.020167395 0.18798414 -0.16530614 -0.053096347
000350 8e 90 a2 3d 0a 97 2a 3e 26 1f e2 3d f2 8b 81 bd
       0.07937728 0.1665918 0.11041097 -0.063255206
000360 8c b6 2c 3e 4a fe 00 be 36 5e f4 bd d0 a4 f2 bd
       0.16866511 -0.12597004 -0.11932032 -0.11847842
000370 c5 87 25 be 88 df 2e 3e bd 22 78 bd 75 75 9a bc
       -0.16165073 0.17077458 -0.060580004 -0.018854836
000380 6f f0 04 be 29 f4 e1 bb 11 54 37 be 38 3a dd bd
       -0.12982343 -0.0068955612 -0.17903163 -0.1080212
000390 b5 02 41 3e 08 3b d0 3d ec df 07 3e cf 59 21 be
       0.18848689 0.10167509 0.13269013 -0.15756916
0003a0 90 08 12 be 99 e0 19 3e 1a ca 9e 3d 49 99 b0 3c
       -0.14261079 0.15027083 0.077533916 0.021557467
0003b0 b8 1d 05 3e cc d2 79 bc 15 72 c4 bd 71 3e 31 3d
       0.12999618 -0.015248012 -0.09592072 0.04327244
0003c0 36 0c c4 3c a1 60 19 3e 46 67 94 3d 1b 61 9d bd
       0.023931604 0.14978267 0.0724626 -0.07684537
0003d0 29 91 dc 3b 48 d0 9a 3d 92 50 f1 bd 66 41 78 3d
       0.0067311716 0.07559258 -0.11782946 0.060609244
0003e0 4d d5 7b 3d 38 83 c0 3d 15 64 09 be a5 59 31 be
       0.061482716 0.09400028 -0.13417085 -0.17319353
0003f0 a8 35 9b 3c 59 d8 c3 3d 1c 46 d2 3d b8 d3 91 bc
       0.018946484 0.095627494 0.102672786 -0.01780115

conv1.bias f4 [128]
000000 2c c1 09 3d 01 83 39 be 09 9b de 3d e6 2c 20 3e
       0.03363149 -0.1811638 0.10869414 0.15642127
000010 90 1f 8b 3d bb 99 1d be 9d 92 f4 bd c2 31 ec 3d
       0.067931294 -0.15390675 -0.11942027 0.11532928
000020 61 5c cc bd 17 6c f3 bc 79 c9 fd bc 04 6d 45 bd
       -0.099785574 -0.029714627 -0.030979859 -0.04819967
000030 e0 9c 3b be 70 41 5b 3d 61 05 36 3e 68 36 40 be
       -0.18321562 0.053529203 0.1777549 -0.18770754
000040 77 e9 1f bb 0a 4e b2 3d b5 7d c3 bd 28 68 c9 bd
       -0.002440063 0.08706291 -0.09545461 -0.09834319
000050 40 b9 11 bb 90 0f 19 3e e1 46 86 bd b4 c1 71 3d
       -0.0022235662 0.14947343 -0.06556488 0.05902262
000060 30 21 9d 3d bb 76 aa bd 51 7d 15 3e cc 67 41 3e
       0.07672346 -0.08323427 0.14598586 0.18887252
000070 f4 6b 3a be 98 2b 0e be 2c a0 fc 3d 7f 3c 1a be
       -0.18205243 -0.13883817 0.12335238 -0.1506214
000080 0e a9 36 be 5c 10 36 3e 9f 3e b2 bc a6 2a 67 3d
       -0.17837927 0.17779678 -0.021758376 0.056437157
000090 b8 c1 81 bd d3 b1 18 be 3b 63 c0 bd ba 43 98 3d
       -0.06335777 -0.14911585 -0.09393927 0.07434793
0000a0 ed 2b 85 3d 60 29 cf 3d c7 66 09 be ed 57 91 3d
       0.06502519 0.101153135 -0.13418113 0.07096849
0000b0 d4 75 76 bd f6 18 25 be 91 64 5c bd 2f 23 42 bc
       -0.060170963 -0.16122803 -0.053806845 -0.011849209
0000c0 c1 80 f1 3d a6 a0 33 3e 0d 94 35 3e 19 0f 1a bd
       0.11792136 0.17541751 0.17732258 -0.037612054
0000d0 e0 2b 33 be 31 3c 10 bd 5d 15 e7 3d 8f ce 54 bd
       -0.17497206 -0.035213653 0.112833716 -0.051954802
0000e0 c0 fa 3e be 8a c5 1d be 63 20 80 bd 00 30 31 be
       -0.18650341 -0.15407386 -0.06256177 -0.17303467
0000f0 55 6c 1a 3d 80 ce fb bb 1b 91 e4 3c 26 5f 1d 3e
       0.03770097 -0.007684529 0.027901223 0.15368327
000100 ac 1e 07 be 1b d3 f5 bb 07 0f 00 3d 30 dc 26 3e
       -0.13195294 -0.0075019724 0.03126433 0.16294932
000110 c7 27 94 3d d1 09 ba 3d 73 38 18 3e 7c a9 31 3e
       0.072341494 0.090839036 0.14865284 0.1734981
000120 60 68 29 3c 43 55 35 be 84 1f 5e 3d 22 be 2c 3e
       0.010339826 -0.17708306 0.054229274 0.16869405
000130 16 f6 10 3e 8d 97 ad bd d9 0e 1c be 42 f5 87 bc
       0.14156374 -0.08476172 -0.15240039 -0.01659644
000140 6c b9 c5 3d 5e b4 8f 3c 09 ef d0 bd 43 7d 04 be
       0.09654507 0.01754206 -0.10201842 -0.12938409
000150 f6 0d 31 be 21 04 34 3d fc 49 16 be 63 01 16 3e
       -0.17290482 0.04394925 -0.1467666 0.14648966
000160 f5 91 12 3b 49 b4 0e 3e b6 f5 7b 3d 4d 2d e9 bd
       0.002236483 0.13935961 0.061513625 -0.113855936
000170 2f 72 cc bc 89 b7 31 be 33 2b c0 3d 66 4e 28 3e
       -0.02495679 -0.1735517 0.093832396 0.16436157
000180 5e ef 9a 3d 37 34 00 bb df 25 ab 3d a4 ff b7 bd
       0.07565187 -0.0019562372 0.08356833 -0.089843065
000190 e3 b6 ec bd 3a 92 d4 3d 27 a4 4f 3d ef b3 8c bd
       -0.115583204 0.10379453 0.050693657 -0.06870257
0001a0 ff e8 1f be a6 2a 83 bd 18 f0 1d be 74 17 7d 3d
       -0.15616225 -0.06404619 -0.1542362 0.061789945
0001b0 b4 cc 0a 3e 56 4c c1 3d 36 fd 42 3e 5b 95 20 3e
       0.1355465 0.09438388 0.19041905 0.15681975
0001c0 25 35 d7 bd c2 8f 6d 3c 87 82 2b be 3e c4 2e 3d
       -0.105081834 0.014499607 -0.16749011 0.04266762
0001d0 60 72 cb 3c 8d 1f 44 3d 3d 85 1d be 1a 4b b0 bc
       0.024834812 0.04788165 -0.15382858 -0.021520186
0001e0 61 75 e7 bd 41 95 42 3e 73 ff 1e 3e 81 5d 89 bc
       -0.11301685 0.19002248 0.15527134 -0.016768219
0001f0 a0 6d a8 3c 5f 5d 93 bb 75 96 46 bd 9a f0 36 3e
       0.020560086 -0.0044972147 -0.04848333 0.1786522

conv2.weight f4 [56, 128, 3, 3]
000000 15 83 6d bc 06 11 ce bc ac 5d 23 bc 4e 38 27 bc
       -0.014496584 -0.025154602 -0.009971064 -0.010206295
000010 2b bd e8 3c 34 a9 cb 3b 38 42 d8 bc de b8 07 bc
       0.028410515 0.006215239 -0.026398763 -0.008283822
000020 1c 72 f8 3b f0 20 33 bb 20 a9 e7 bc 3a 46 85 bc
       0.0075819623 -0.0027332865 -0.028278887 -0.016268838
000030 04 63 e5 3b b2 d3 11 3c 59 f5 8a 3c 17 9a c1 3c
       0.007000329 0.00890057 0.016962694 0.023633046
000040 f2 0c a5 bc 01 34 d9 bc 2c 64 de bb 66 f5 30 3c
       -0.020147774 -0.026514055 -0.0067868438 0.010800695
000050 5d 88 b4 3c 46 40 69 3c 25 9d 9b bc 42 a6 4f bc
       0.02203768 0.014236515 -0.01899583 -0.012673916
000060 c9 8c 96 3c 9d 82 c9 3c 37 2a 6a bc a8 ec 94 bb
       0.018377678 0.024598414 -0.014292291 -0.004544813
000070 40 d2 2e bc 2a 4f 22 3c b0 9c f3 3a b5 8c ef 3c
       -0.010670245 0.0099065695 0.0018586125 0.029241899
000080 f9 74 ab 3c 79 e8 e0 bc cb 77 96 3c 4d e1 96 3c
       0.0209298 -0.027454602 0.018367669 0.018417979
000090 a8 2d 1f 3b 32 4c 1a bc b8 92 5c 3b 1f c1 c3 3c
       0.0024288688 -0.00941758 0.0033656787 0.023895798
0000a0 49 8b 94 3c 74 55 48 bc 23 90 ce 3c d0 e2 c9 3a
       0.018132823 -0.012227405 0.025215214 0.0015402678
0000b0 31 71 bc 3c 06 a0 c5 bc aa d5 77 3c 25 96 b9 bc
       0.023003193 -0.024124157 0.015126625 -0.022654602
0000c0 d1 e3 84 3c d8 23 7a 3b 4a cf 54 bc 66 34 51 3c
       0.016221913 0.0038168337 -0.012988875 0.01276884
0000d0 3a 93 08 3c 56 93 a1 bc 80 6d 57 bb ff 3d 95 3c
       0.008335883 -0.019723576 -0.0032871664 0.018218039
0000e0 04 05 a8 bb 58 48 4b bb 54 d4 b0 bb 70 1e b0 bc
       -0.005127551 -0.0031018462 -0.0053964052 -0.021498889
0000f0 97 fa b2 3c 37 0c b4 3c 9a 12 01 3c 21 af e3 bc
       0.021848006 0.02197848 0.00787797 -0.027793469
000100 53 7b dd 3c 36 fd 5a 3c 9b c0 b5 bc 98 5d 9c bc
       0.027036345 0.013366034 -0.022186568 -0.019087598
000110 18 c9 98 bc f3 b1 ec 3c e4 fe 8e bc 1d 9f 66 bc
       -0.018650576 0.028893447 -0.017455526 -0.0140760215
000120 04 d4 ab 3b 04 c2 82 bc 24 87 11 bc 96 88 74 3c
       0.00524378 -0.015961654 -0.008882318 0.014925143
000130 e8 e2 83 bb d8 5a 2c 3b 8c f3 84 bb ce 57 4a 3c
       -0.004024852 0.0026299264 -0.0040573534 0.012350036
000140 fe a8 2c bc 9c 29 9d 3b 68 10 0f 3b 80 22 c8 ba
       -0.010538338 0.00479622 0.0021829847 -0.0015269071
000150 d3 43 d0 3c 50 70 93 bc 7b d1 b1 3c 80 b1 c1 bc
       0.025422966 -0.01799789 0.021706333 -0.023644209
000160 67 fe 8a 3c 1c 0c f3 3b 2f c0 95 3c 61 5f c8 3c
       0.016967012 0.007417215 0.018280117 0.024459543
000170 66 10 0c bc 40 7d fa 39 90 f8 cf ba ac 6a e5 3b
       -0.008548832 0.00047777034 -0.0015866924 0.0070012417
000180 50 ad 19 bb 34 e7 83 bb 3a 2b 6a 3c 22 8d ef bc
       -0.002344925 -0.0040253643 0.014292533 -0.029242102
000190 a0 d5 80 bc d1 2c c6 3c 13 71 bd bc d2 1e 63 3c
       -0.015726864 0.024191292 -0.023125207 0.013862329
0001a0 e0 4a 6c bb 5c 27 f9 3b fa 10 23 bc e4 fc e2 bb
       -0.0036055371 0.007603569 -0.009952778 -0.0069271196
0001b0 96 cb 48 bc cc ae f6 bb 74 33 c5 bb 06 3a 34 bc
       -0.01225557 -0.0075281616 -0.0060180966 -0.011000162
0001c0 ce 16 3a 3c 48 45 32 3b 57 6d b9 3c 97 c6 e8 3c
       0.011357976 0.002720194 0.022635145 0.028415008
0001d0 56 55 09 3c ce af 56 3c 3c cd 90 bc e8 55 aa bc
       0.008382162 0.013103439 -0.017675988 -0.020792916
0001e0 c0 59 d4 bb c3 fd cc bc 2c c5 b8 bc 65 2e de bc
       -0.0064804256 -0.025023347 -0.022554956 -0.027121732
0001f0 b9 34 d3 bc 83 ac d7 bc 34 c1 e6 bb 8e fe 27 3c
       -0.025781976 -0.026327377 -0.0070420746 0.010253562
000200 40 5c 30 3a a8 9c 7b 3b df 39 c7 3c 20 c5 53 bc
       0.00067276135 0.0038392935 0.024319587 -0.012925416
000210 5c cc bf bc af 4c b0 3c 20 97 83 bb b3 fc 6b bc
       -0.023412876 0.02152094 -0.0040158182 -0.01440351
000220 73 46 b0 bc ec 2f cb bc 9e 87 09 3c 2f 3c cd bc
       -0.021517968 -0.024803124 0.00839415 -0.025053112
000230 98 1c 66 bb 8b b1 96 bc 6b 8f ab bc 24 34 06 bc
       -0.0035112258 -0.018395206 -0.02094241 -0.008191142
000240 ca c0 0a 3c 90 3d dc bc 9d f5 82 3c db fc be bc
       0.008468816 -0.026884824 0.015986258 -0.02331393
000250 91 fa 8a 3c 54 fe d0 3b 57 4f 98 3c d0 c1 83 bc
       0.016965182 0.0063779745 0.01859252 -0.016083628
000260 ac 95 58 bc 00 ed d1 b9 e0 96 ca ba 0b a1 da 3c
       -0.013219278 -0.00040040165 -0.0015456341 0.02668812
000270 c0 1b 0b bc 24 7f 90 bb f2 b7 9b bc 2c 62 fa bb
       -0.008490503 -0.0044096876 -0.01900861 -0.0076410975
000280 32 ee 54 3c d8 3e 9a bb 90 eb be ba aa 60 09 bc
       0.012996243 -0.0047071986 -0.0014566053 -0.008384863
000290 3c 6d 6d bc 82 c0 6c 3c 7f 70 81 3c 60 bb 2b ba
       -0.014491376 0.014450194 0.015800713 -0.00065510534
0002a0 ce e6 92 bc d9 8f e9 3c 0c 68 de 3b d3 d5 dd 3c
       -0.017932322 0.028510975 0.0067873057 0.027079498
0002b0 2c 43 de 3b 6f d7 ce bc 52 3f 08 3c 92 10 18 bc
       0.00678291 -0.025249211 0.008315878 -0.009281294
0002c0 9c d4 de bc da 8e 1b 3c 02 11 4e bc 45 51 e2 3c
       -0.02720099 0.009494508 -0.012577297 0.027626643
0002d0 00 5e 8c b8 a8 6f 3b 3b e0 f4 d5 bc 80 ee 3f 39
       -6.693229e-05 0.0028600488 -0.026117742 0.00018304028
0002e0 d9 02 a9 3c 2f 53 d1 3c 5c 09 82 bc 00 ee d1 39
       0.02063124 0.02555236 -0.015873604 0.0004004091
0002f0 5d 5e a8 3c eb db ea 3c 4c 30 ae bb ea 80 5c 3c
       0.020552808 0.028669318 -0.005315816 0.01345847
000300 be 01 d9 bc 6e e4 d6 bc e7 c5 a4 3c 04 cf ba bc
       -0.026490089 -0.02623197 0.020113898 -0.02280379
000310 78 1f 1b bc 30 d1 67 bb f5 db 85 3c 76 b8 b0 bc
       -0.009467952 -0.0035372488 0.016340235 -0.021572333
000320 66 77 5d 3c 26 c1 49 3c 0e 2c c3 bc b4 52 49 bc
       0.013517236 0.012314117 -0.023824718 -0.012287784
000330 c0 89 d8 bb 32 69 97 bc 75 0d b8 3c 4e 31 8b bc
       -0.006608218 -0.018482778 0.022467354 -0.016991284
000340 29 ca cc 3c de 16 7e 3c 88 90 9c bc 32 f7 4a bc
       0.024998741 0.015508382 -0.019111887 -0.0123880375
000350 be 9c 2a 3c f3 5d 9c 3c 86 0e 67 3c 3a 8d 64 bc
       0.010413347 0.019087767 0.014102584 -0.013949687
000360 5d df e9 bc 25 7f ab 3c 16 22 7f 3c 9a bf c9 bc
       -0.02854889 0.02093465 0.015572092 -0.024627496
000370 2c 22 dd bc 64 d6 e8 3b 08 e8 26 3b 60 1d 49 bb
       -0.026993833 0.0071056355 0.0025467891 -0.0030687675
000380 fb ea d8 3c dc 6c 88 bb 9a 7a 69 bc f6 60 49 3c
       0.026479235 -0.0041633677 -0.014250422 0.012291184
000390 0a da 35 bc 55 5e b9 3c 26 9d 5c bc e4 ef aa 3b
       -0.011099348 0.022627989 -0.0134652015 0.0052165855
0003a0 57 b1 a5 bc 28 fc 7a bb f6 40 55 bc d9 cc ad 3c
       -0.020226164 -0.003829727 -0.013015976 0.021215843
0003b0 82 ff 84 bc dc 20 80 bb 4b 5b d7 3c 00 dd c2 bb
       -0.016235117 -0.003910167 0.026288649 -0.0059467554
0003c0 b4 1f e9 bc 22 ab 9e bc 0b f2 93 3c 34 9f c7 3b
       -0.0284575 -0.019368712 0.018059751 0.0060919765
0003d0 ba 4b 6a 3c 70 ce 40 bc 4e 27 14 3c 99 50 f1 bc
       0.014300281 -0.011767969 0.009042574 -0.029457377
0003e0 60 38 e3 3a 77 d3 ee bc 34 55 fa 3b 40 e4 e2 bb
       0.0017335527 -0.029153569 0.0076395515 -0.006924182
0003f0 3f 3c da 3c 76 fe 75 3c 06 9e 9d bc 50 95 58 bb
       0.026640056 0.0150142815 -0.01924039 -0.0033047982

conv2.bias f4 [56]
000000 d2 c6 3d bc 82 0c d9 3c 22 2a 58 ba 58 26 dd 3c
       -0.011583047 0.026495222 -0.00082460244 0.026995823
000010 18 e0 81 3b 77 da df 3c 65 77 cc 3c 6d 40 07 3c
       0.0039634816 0.027325852 0.024959275 0.008255106
000020 eb 6f aa bc bc fd 7b bc 3f e3 89 3c 34 37 1d 3c
       -0.02080532 -0.015380319 0.016831992 0.009595681
000030 4f eb 02 bc 63 85 81 bc 0c 4b c9 bc 5d 2e 69 bb
       -0.007990672 -0.015810674 -0.024571918 -0.0035580613
000040 36 af 5c bc 1b 47 c0 3c 20 fa cf bb 50 57 bf 3c
       -0.013469508 0.023471406 -0.006346956 0.023357064
000050 a7 ac aa 3c 0e 3d 6c 3c 85 d3 9b 3c 98 97 65 bc
       0.02083428 0.014418853 0.019021759 -0.014013194
000060 a0 e9 93 bc 1c 38 d7 bb 6f 94 3a 3b 6b 02 a2 3c
       -0.018055737 -0.006567968 0.002846982 0.019776544
000070 dd dc e1 bc a4 5e f8 3b ef ff 0a bc 11 09 0e 3b
       -0.027571136 0.0075796414 -0.008483871 0.0021672884
000080 9c ee 91 bc e4 16 2e bb c5 74 b5 3c b9 36 dc bc
       -0.017813973 -0.0026563937 0.022150407 -0.026881563
000090 e8 7f 69 bb cc bb a8 3c 43 9b 9e bb fa ca b6 bc
       -0.0035629217 0.020597361 -0.004840286 -0.022313584
0000a0 a2 09 b4 bc 42 86 11 bc 8e 28 33 bc f6 1c 70 3c
       -0.02197725 -0.008882107 -0.010934962 0.014655342
0000b0 6d a6 66 b9 a6 1a ad bc f9 ec 03 bb 38 f4 64 3b
       -0.00021996508 -0.021130871 -0.002013026 0.0034935605
0000c0 bc a1 6b ba 95 d0 91 bb fa 4b 3b bc 61 fd a0 3c
       -0.0008988639 -0.0044499137 -0.011431688 0.01965207
0000d0 d1 fd 95 3c ce f2 e7 3a f0 af a9 3a 1e 7e e4 3c
       0.018309506 0.0017696263 0.001294611 0.027892169

fc1.weight f4 [256, 560]
000000 80 3c d0 3c 56 5b 1e 3d 6c 0e 77 bc 97 7f 8b bc
       0.025419474 0.038661323 -0.015079122 -0.017028613
000010 14 4e 03 bd 50 59 46 bc 86 77 e8 bc 08 e6 93 bb
       -0.032056883 -0.012106255 -0.028377306 -0.004513506
000020 e1 80 2a bd d8 d5 47 3c 05 89 e6 bb d1 91 f5 bb
       -0.041626815 0.01219698 -0.007035377 -0.0074941893
000030 43 ca 1e 3d cc c1 29 3d c5 4a f8 bb 6a ef 1f 3d
       0.03876711 0.041444585 -0.0075772726 0.039046682
000040 89 b4 2a bd 72 2c 00 bc 21 4e 97 3c 92 ba 8d bc
       -0.041676078 -0.007823097 0.018469872 -0.017300878
000050 2a 13 8f 3c b7 6d bc 3c c8 2f 3e 3d 20 77 8c bc
       0.017465193 0.023001535 0.046432287 -0.017146647
000060 16 77 15 3d d4 74 5e bb 09 c0 99 bc e6 63 bf 3c
       0.036490522 -0.0033944147 -0.018768327 0.023363065
000070 c9 1a 0c bd b6 7b 18 bc 1b 5a 98 bc c7 a9 30 bb
       -0.03420523 -0.009306839 -0.018597653 -0.0026956664
000080 b1 2c 27 bd be 9e 2e 3c e5 be de 3b 93 7a a7 3c
       -0.040814105 0.010657964 0.0067976587 0.02044419
000090 2d ee f5 3c d1 e9 8d 3c 30 d0 27 bb 21 36 ac bc
       0.030020798 0.017323406 -0.0025606267 -0.021021904
0000a0 6b 75 32 bc 43 ea f4 3c b3 6f 19 bd 67 2e 4a 3c
       -0.010892252 0.029896861 -0.03746004 0.012340165
0000b0 82 47 a0 bc 9b 8b 25 3d 46 cc 35 3d b1 b7 4a 3d
       -0.019565348 0.04041634 0.044384263 0.049491588
0000c0 27 b3 54 3d 7b 2d dc 3c fd 50 27 bd 0a fc e5 3c
       0.051928665 0.026877156 -0.04084872 0.028074283
0000d0 06 a2 69 3c e3 0a 46 bc 0f d0 93 3c b3 6c 49 bc
       0.014259821 -0.0120875565 0.018043546 -0.012293982
0000e0 55 55 68 3c 98 8a 8b 3c 96 a7 17 3c 4c 83 01 3d
       0.014180501 0.01703386 0.009256264 0.031619355
0000f0 fe b4 73 bc 9f fc b8 bc 80 d5 d1 39 e8 24 d9 3c
       -0.014874695 -0.022581397 0.00040022656 0.026506856
000100 78 70 e9 3b c2 a8 27 3d c0 8f 58 bb 64 7f 44 bc
       0.007124003 0.040932424 -0.0033044666 -0.011993263
000110 c9 3b 8c bc d4 e8 b9 3c 41 00 0a bd ac cc 3d 3d
       -0.017118352 0.022694029 -0.03369165 0.04633777
000120 c3 c7 1e 3d bf 6b 36 3d 4c da e8 3c 7f 5a 05 bc
       0.038764726 0.04453635 0.028424405 -0.008139252
000130 55 f9 23 bd 3f b0 d2 39 92 26 35 bd 0a 36 8c bc
       -0.040032703 0.00040185635 -0.044226237 -0.017115612
000140 04 3b 3d 3a da ec b6 bb d9 da 0a bb 06 4b 34 bd
       0.0007218572 -0.005582434 -0.0021187572 -0.04401686
000150 16 46 2d bd 71 1d 0a bd 26 2d 89 3c 6d 24 77 bc
       -0.042303167 -0.033719484 0.016745161 -0.015084368
000160 05 ba 6e 3c f0 82 16 bc 68 00 d9 3b 00 28 c8 3b
       0.014570718 -0.009186491 0.006622363 0.006108284
000170 71 bf c4 bc 34 82 e8 3c 1c 44 0f 3d 8c d0 b7 3c
       -0.024017068 0.028382398 0.034977064 0.02243831
000180 24 ed ec 3c 39 d3 a8 bc b8 ff 90 3b 68 dd 2d 3c
       0.028921671 -0.020608531 0.0044250153 0.010611869
000190 2c e1 ac 3b af c6 0c bd cb 7c c5 3c c5 82 97 3b
       0.005275866 -0.034369167 0.024107357 0.0046237432
0001a0 46 69 0d bc 0d 17 04 3b 3d 22 ba 3c 3f 59 9a 3c
       -0.008631056 0.002015534 0.022721404 0.018841384
0001b0 89 f6 05 3c 22 ee 87 ba bf 6d f7 3b d8 bb 29 3d
       0.008176454 -0.0010370652 0.0075509246 0.041438907
0001c0 43 7b 8e 3c 73 bf f1 bc ef 92 1e 3d e5 d0 ed bc
       0.01739276 -0.029510235 0.038714346 -0.029030273
0001d0 58 32 ad 3c 33 7f e6 3c 13 fc 14 bc 08 cb 41 3b
       0.02114217 0.028136825 -0.009093302 0.002957048
0001e0 11 4a 82 3b fd 1f 5a 3b b4 5a df bb 05 bd 52 3c
       0.0039761146 0.0033283227 -0.0068162326 0.012862449
0001f0 b4 f9 9a bb af 3d b8 3c 43 e1 60 3c e5 92 29 3d
       -0.004729474 0.02249035 0.013725582 0.041399855
000200 e3 44 0b 3d d7 f8 05 3b 60 76 2d 3c 08 d0 29 3d
       0.034001242 0.002044251 0.010587305 0.04145816
000210 18 6e 07 3d c2 b2 21 3d 20 29 43 bc 50 c0 d4 3c
       0.033063978 0.039477117 -0.01191166 0.025970608
000220 ed 83 15 bd ee 46 23 3d f8 b9 0f 3d 9e 89 1c 3d
       -0.036502767 0.039862566 0.035089463 0.03821718
000230 d6 1a c8 bb a0 d2 6f bc 1c ac 71 bc ba e3 3b bc
       -0.0061067147 -0.014637619 -0.014750507 -0.011467868
000240 7e 67 16 bd f0 94 f3 3b c2 42 96 bc ba e9 c1 3c
       -0.03671979 0.007433526 -0.01834238 0.02367102
000250 c9 fa 15 3d 5b 35 f0 3c e9 2a 01 3d 06 41 22 bd
       0.03661612 0.029322317 0.031535063 -0.039612792
000260 7b 65 d0 bc c2 ad 45 bd ed e4 19 bd 47 e6 9c bc
       -0.025439015 -0.04826141 -0.037571836 -0.019152774
000270 73 76 79 3c 77 66 ef bc 63 db c6 bb be cc bb 3c
       0.015225994 -0.029223664 -0.0060686334 0.022924777
000280 28 2f 08 3c 28 e2 14 bc ec 18 cd bc 34 35 1a bd
       0.008312024 -0.009087123 -0.025036298 -0.037648395
000290 5e e1 2b 3d 12 e3 9b 3c 34 c2 7d 3c a8 25 98 bb
       0.041962974 0.019029174 0.015488196 -0.004643161
0002a0 40 a1 77 bb 2e 5b 92 3c a8 6f 94 ba e4 da 2e bd
       -0.0037785321 0.017865743 -0.001132478 -0.04268922
0002b0 7f d6 36 bc d0 ce b6 3b 80 0e 84 ba 5d 79 e1 3c
       -0.011159538 0.005578853 -0.0010075122 0.02752369
0002c0 a8 6c 0b 3d 80 73 c1 bb 37 a6 03 3d eb 48 4a 3d
       0.03403917 -0.0059036613 0.032140937 0.049385946
0002d0 bb bf e9 bb 6e 62 f0 ba 7c 22 9b 3b bf 29 28 3d
       -0.0071334518 -0.0018339881 0.0047343355 0.041055437
0002e0 c6 cb 10 3d ac 67 2e 3c 5e ab 69 3c 70 f2 13 bd
       0.035350583 0.0106448345 0.0142620485 -0.03611988
0002f0 b4 cb 0f bd 88 a2 17 bd ea 82 87 3b e0 c3 11 3d
       -0.035106376 -0.037020236 0.004135479 0.03558719
000300 6d 4d 31 bd 1d f4 17 bd 0b 87 19 3d 1f 33 fc bc
       -0.04328673 -0.03709804 0.037482303 -0.030786095
000310 04 02 89 3c 91 f5 0d 3d 11 0b 7e bc 3d 72 12 3d
       0.016724594 0.03465802 -0.015505568 0.035753477
000320 69 e7 99 bc 45 10 22 3c 2c ca 44 bc dc 08 19 bd
       -0.018787103 0.009891574 -0.012011092 -0.037361965
000330 fe f2 14 3b c5 c0 1e 3d 00 18 05 3d 0d f2 9a 3c
       0.0022727842 0.038758058 0.03249359 0.018914247
000340 f0 a2 47 bb 99 a2 dc 3c 8e 4f 24 3d fc 52 b6 3c
       -0.0030462109 0.026933001 0.04011493 0.022256367
000350 90 06 02 3d 10 a4 29 3b e4 a1 20 bd 60 2f 22 3d
       0.03174454 0.0025885142 -0.03921689 0.03959596
000360 3e e1 e4 bc 24 a6 08 3c f8 08 31 bc 6b 57 1c bd
       -0.027939435 0.008340392 -0.010805361 -0.038169306
000370 38 a7 55 3c 7d 37 40 3c e9 27 66 3c 05 05 e2 bb
       0.013040356 0.011731979 0.014047601 -0.006897571
000380 ea f9 d0 3c a4 8b 0f 3d c8 10 14 3d ad 14 e5 bc
       0.025509793 0.03504528 0.036148816 -0.02796396
000390 19 c9 3e bc 93 04 f2 bc 83 b0 73 3c 3b 14 0b bd
       -0.011644625 -0.029543197 0.014873627 -0.03395484
0003a0 a5 ec c0 bc 53 d0 c8 3c ed 1d cf 3c fe d5 14 3d
       -0.02355034 0.0245134 0.025282824 0.03633689
0003b0 ec 33 04 3d 61 da 69 ba 5c b6 44 bc b3 6c 72 3c
       0.03227608 -0.00089207856 -0.0120063685 0.014796424
0003c0 f1 ba fb 3b e6 e7 c9 bb 0d 8d b2 bc f3 77 90 b8
       0.0076821973 -0.0061616777 -0.021795774 -6.888797e-05
0003d0 23 b0 e6 3b 59 88 dd ba c8 8b 53 3b 80 41 a0 bc
       0.00704004 -0.0016901597 0.003227936 -0.019562483
0003e0 d9 69 ae 3c 94 38 2d 3d 2e b1 9e bc d0 aa 3d 3b
       0.021290706 0.042290285 -0.019371595 0.0028940924
0003f0 24 be aa 3c b8 fc 25 bd 20 fe eb ba 36 c8 8a 3c
       0.02084262 -0.040524215 -0.0018004812 0.016941171

fc1.bias f4 [256]
000000 78 b1 1b 3d d3 48 1e bd 20 f5 5d 3b 0f ed 7d 3c
       0.038011044 -0.03864367 0.003386803 0.015498414
000010 d0 12 ec bb b1 c6 12 bd a8 7a ed 3c d9 57 ae bb
       -0.007204391 -0.03583402 0.028989151 -0.005320531
000020 f0 f4 19 3c 9b c4 46 3d b5 56 05 3d 8c 51 43 3c
       0.009396777 0.04852734 0.032553393 0.011921298
000030 e9 4f 6e 3c c9 b0 71 bb 6d c0 ca ba f0 0d 06 bb
       0.014545419 -0.0036879054 -0.0015468724 -0.0020455085
000040 34 b5 dc bc f0 02 0d bd 72 7c 4e 3c bc d4 c4 3c
       -0.026941873 -0.03442663 0.012602912 0.02402722
000050 e9 ee 03 bd 20 20 85 bb 7a 5e f8 bc a0 8f c3 ba
       -0.032210264 -0.0040626675 -0.030318487 -0.0014920123
000060 9d ad 3d 3d 94 09 34 3c 0b 10 f7 3c 04 a7 a7 3b
       0.04630815 0.010988612 0.030159017 0.0051163454
000070 40 42 25 bc 2b eb 5d bc 6c d8 24 3d f6 ec 26 bc
       -0.010086596 -0.013544838 0.04024546 -0.010188332
000080 ff de 66 bb 3a d9 73 bc 0c 27 4c 3c 9f 71 8c bc
       -0.003522813 -0.014883334 0.012460481 -0.017144023
000090 86 1a 0c 3c c0 e4 14 bd 37 a6 92 bc 7e 13 3d bd
       0.008551246 -0.036350965 -0.017901523 -0.046161167
0000a0 38 8d f4 3c a0 b0 99 3c 78 23 0a bd d8 37 be bb
       0.029852495 0.01876098 -0.033725232 -0.005804997
0000b0 51 5a a6 3c 67 03 c1 3b 09 fa 31 3b e2 b7 ba 3c
       0.020306738 0.005890298 0.002715709 0.02279276
0000c0 99 89 57 3c 46 b5 c4 3c 3d e5 e0 3c 5f a8 1f bd
       0.013155364 0.02401222 0.02745306 -0.03897893
0000d0 ad 3b 94 3a e0 5e d1 bc dd 1c a9 bc 88 c2 6b bc
       0.0011309289 -0.025557935 -0.020643646 -0.014389642
0000e0 18 a3 48 3c 7e 90 84 3c 5f a6 1e 3d 90 af 9f 3c
       0.012245916 0.01618218 0.038732883 0.019492894
0000f0 18 84 23 bd 6a 77 41 bc f5 bb 1c 3d 1a 53 b8 bc
       -0.039920896 -0.011808256 0.038265187 -0.022500563
000100 84 df 02 bc bc 52 19 3c fa 66 de bc b8 46 90 bb
       -0.007987861 0.009358104 -0.027148712 -0.0044029616
000110 53 c0 8d bc 19 40 37 3d 70 e0 21 3d e0 56 a4 3b
       -0.017303621 0.044738863 0.03952068 0.005015239
000120 eb 88 f2 bc 20 6c 4a 3b 99 fe de 3b 79 ae eb bc
       -0.029606303 0.0030887201 0.0068052527 -0.028769718
000130 39 7a 91 3b bf 10 e7 3c 8c ff 1d bd f0 5a 4c 3b
       0.004439619 0.028206227 -0.038573787 0.0031182133
000140 7b 57 9f bc 65 67 c1 bc d1 f2 86 3b 73 1b c5 3c
       -0.019450894 -0.023608873 0.0041183014 0.02406094
000150 30 7e 1a bb 83 5f 19 3d 73 5d 1f bd 9e ff 09 bd
       -0.0023573749 0.037444603 -0.03890748 -0.03369104
000160 92 06 27 3d ed a3 d4 3b 00 33 d4 3a f0 08 b7 3c
       0.04077775 0.006489268 0.0016189516 0.022343129
000170 e1 f2 a6 bc f7 6c 32 3c 6d 81 0d bd 98 9b b9 bc
       -0.020379486 0.010890237 -0.03454726 -0.0226572
000180 3a 71 f3 bc 93 4b ff bc 10 ab 1c bd 07 3a 37 bd
       -0.029717077 -0.031163966 -0.038249075 -0.044733074
000190 37 ee 5c 3a fe 83 85 3c 96 af 23 bd f0 22 81 bc
       0.0008427831 0.01629829 -0.039962374 -0.01576373
0001a0 3c db 3c 3d c4 0c 52 bc b4 9e ef 3c fc e3 29 3d
       0.046107516 -0.012820426 0.02925048 0.04147719
0001b0 8e b0 c3 bc 33 bb e8 3c be d1 8a bc ce 92 02 bd
       -0.023887899 0.028409576 -0.016945716 -0.031878285
0001c0 3a 2b 0e 3d 18 b2 3e 3c 1a cb 1e bd 72 1d 13 bd
       0.034709193 0.011639141 -0.03876791 -0.035916753
0001d0 58 c1 55 bc ec 1b ed bc 7e 3f 17 3c 0f 97 1d bc
       -0.013046585 -0.028943978 0.009231446 -0.009618535
0001e0 31 95 f6 3c c8 ac 20 3d 2d 25 91 bc b6 29 d8 3c
       0.030100437 0.039227277 -0.017717922 0.026387077
0001f0 a0 2f 89 bb 66 9e a8 3c 9f dc c2 bc 36 44 03 3d
       -0.0041865855 0.020583343 -0.023786841 0.032047473
000200 67 89 f8 3c 77 42 a6 bc 6e 68 21 bd 3c 08 b2 3c
       0.030338956 -0.020295365 -0.039406233 0.021732442
000210 31 73 2e bc f1 d4 aa 3c 49 39 b0 3b 99 c7 70 bc
       -0.010647581 0.020853492 0.0053779227 -0.014696025
000220 ff c0 0f 3c 55 8c 2c bd 8d 1a 92 bc 7f ea 2e 3d
       0.008774041 -0.04212602 -0.017834926 0.0427041
000230 4a 10 2e 3d 6e 1a 3d ba 92 f4 2c 3d 0e c4 1c 3d
       0.042496003 -0.0007213716 0.042225428 0.03827291
000240 c5 2b 14 3d f5 81 d7 bc ef 67 27 bd 84 51 0b bd
       0.036174554 -0.026307086 -0.040870603 -0.034013286
000250 bc 7d 1d 3d 98 32 21 bc 0a 87 21 3d d5 2c 04 bd
       0.038449988 -0.009838723 0.039435424 -0.032269318
000260 f3 e7 1e bd a9 13 8a bc a0 b2 93 3a da 79 df bc
       -0.038795423 -0.016855078 0.0011268444 -0.027279783
000270 aa b2 16 bd 95 e2 22 bd 4c 4a d4 bc d2 19 70 3c
       -0.03679148 -0.039766867 -0.025914334 0.014654594
000280 e9 6c ab 3c ef fe 56 3d 20 e9 85 3a 01 f1 b4 3b
       0.020925956 0.052489217 0.0010216571 0.005521894
000290 98 3a ef 3c 0b 62 f7 ba 2f 1e fd bc b0 a3 dc 3b
       0.029202744 -0.0018873824 -0.030898182 0.0067333803
0002a0 b2 5d 45 3c 5d 26 c4 bc c9 92 46 3b c4 3d a4 3c
       0.0120462645 -0.023944074 0.0030299893 0.020048983
0002b0 a4 7f fa 3c 95 8f 18 bd 80 4c c3 3c da 81 05 bd
       0.030578442 -0.037246305 0.023840189 -0.03259454
0002c0 2c 0f e2 3b 68 f2 b8 bc a0 2a f6 3b 81 ee c6 bc
       0.0068987813 -0.022576526 0.0075124055 -0.02428365
0002d0 98 a0 ef 3c af d3 10 bd 76 88 ea 3c f3 c1 97 bc
       0.029251382 -0.035358127 0.028629523 -0.0185251
0002e0 4f 7d b4 bc c3 e4 00 3d 20 52 3f 3b 1b 05 bf 3c
       -0.022032408 0.031468164 0.0029193237 0.023317864
0002f0 10 b3 ac 3c 84 24 99 bc a4 99 aa 3c 1e 44 3e bc
       0.021081477 -0.01869417 0.020825215 -0.01161292
000300 51 1d fa 3c 70 af c9 bb 35 39 11 3d c0 e7 1b bd
       0.030531557 -0.006154947 0.035454948 -0.03806281
000310 c5 67 91 3c f4 75 06 bd 36 bb 19 bd 30 3a 4c 3c
       0.017749676 -0.032827333 -0.037532054 0.012465045
000320 36 b5 62 bc 13 59 74 3b f0 c4 d2 3b 7e 77 9e ba
       -0.013837149 0.0037284538 0.006432168 -0.0012090055
000330 cb cd 13 bc e0 00 ad 3b bc c7 4c 3c 26 c7 a5 3c
       -0.009021233 0.0052796453 0.012498792 0.020236563
000340 53 42 0e bd e7 6d 24 3d a7 63 dd bb 75 b7 cc 3b
       -0.03473122 0.040143874 -0.0067562643 0.0062474557
000350 db a5 04 3d d6 d3 8f bc 5f a2 a5 3b 0b 37 f7 bc
       0.032384735 -0.017557066 0.0050547565 -0.030177614
000360 81 4b 6b bc 99 f2 a8 3b cb 45 19 bd c1 80 76 bc
       -0.014361263 0.005155873 -0.037420075 -0.015045346
000370 97 d0 5d 3d 63 a5 9c bc e0 6f 28 bd da 88 9f 39
       0.054154005 -0.019121831 -0.041122317 0.00030428806
000380 44 50 8e 3c 2e 9d 04 bd dc af 37 3c 20 03 cd ba
       0.017372258 -0.03237646 0.011211362 -0.001564119
000390 96 f9 ca bc f1 97 30 3d ab e3 c9 3c b2 a6 f9 3c
       -0.024777215 0.043113653 0.024644693 0.030474994
0003a0 17 f3 0a 3d a9 21 46 bc 5c 96 18 3c 34 a8 67 bc
       0.033923235 -0.012092986 0.009313192 -0.014139224
0003b0 60 81 f5 3c bc 2c 80 bc 99 77 06 3d 4d 57 9d bc
       0.029968917 -0.015646331 0.0328289 -0.019206667
0003c0 48 ce 9f bc 40 d9 91 3c 0e d6 31 3d de 06 e0 bb
       -0.019507542 0.017803788 0.04341703 -0.006836756
0003d0 2b 98 81 bc d5 cf 19 bc 32 d9 09 bd b9 06 15 bd
       -0.01581963 -0.00938793 -0.0336544 -0.036383364
0003e0 e0 a0 08 3b e9 6c ef 3c 81 61 9d 3b 5d 60 3f bc
       0.0020847842 0.029226737 0.004802883 -0.01168069
0003f0 41 07 7e 3c fe 63 b6 bc 8a e2 1e 3d e2 4c 8b 3c
       0.015504659 -0.022264477 0.038790263 0.017004434

fc2.weight f4 [128, 256]
000000 8b f1 25 bd 14 c9 43 bd 70 3b 4a 3d b6 1f 65 bc
       -0.040513556 -0.047799185 0.04937309 -0.013984611
000010 c0 c3 ab 3a 84 8c 99 bc 84 c6 45 bc 99 78 ca bc
       0.0013104603 -0.01874376 -0.012071256 -0.024715709
000020 20 bf 13 bb 60 06 1c 3d d6 d0 47 bd f3 73 a0 3b
       -0.002254434 0.038092017 -0.048783146 0.0048966347
000030 d8 3c 63 3c 7e e5 8a bc c0 b3 64 3d 88 48 50 bd
       0.013869487 -0.016955134 0.055835485 -0.05085042
000040 42 63 d1 3a 42 0a 85 3c 82 8f f6 bc 4a 46 69 3d
       0.0015975016 0.016240243 -0.030097727 0.0569518
000050 26 f4 0a 3c 3e 06 5b bd 98 77 42 bc 08 df 1f bd
       0.008481061 -0.05347275 -0.011869334 -0.03903106
000060 d1 eb c5 bc 00 82 a9 ba 4c ed 66 3d be c5 2f bd
       -0.024160298 -0.001293242 0.056378648 -0.04291319
000070 0a 49 0e bd ee 03 f7 3c 90 71 51 3d 54 4f b5 3b
       -0.034737624 0.030153241 0.051133692 0.0055331383
000080 aa 45 f5 bc 90 0d b3 bc 1f 5c 56 bd ea d4 12 bd
       -0.029940445 -0.021857053 -0.052333947 -0.035847582
000090 e2 6c 4d 3c 30 df 87 bb 08 d4 25 3c 76 00 7b bb
       0.012538167 -0.004146479 0.010121353 -0.0038299835
0000a0 72 1a e1 3c 3f 20 1c bd 54 88 39 bd c4 3b 7d 3d
       0.02747843 -0.03811669 -0.04529603 0.061824575
0000b0 4e 7a 29 3d ea 60 21 bd 0e b7 43 bb 18 d4 95 bc
       0.041376404 -0.039399065 -0.0029863748 -0.01828961
0000c0 97 61 9e 3c 93 3b 5d bd 36 97 5c bb 23 2a 6a bd
       0.019333644 -0.054011893 -0.0033659465 -0.05716909
0000d0 de 6d 79 3d 3a eb 3c bd e2 e1 c7 ba 4a 17 5b 3d
       0.060895793 -0.046122767 -0.0015249813 0.053489007
0000e0 58 29 25 bc 42 e7 23 bd 04 33 52 3d 61 67 61 bd
       -0.010080658 -0.040015467 0.051318184 -0.05503023
0000f0 90 35 60 bc 64 be f0 bc 27 66 53 bd 07 e2 8a bc
       -0.013684645 -0.02938766 -0.051611092 -0.016953481
000100 d2 f0 58 3d 61 af 1a bc 0e 42 36 bd 00 67 44 3c
       0.05296404 -0.009441228 -0.04449659 0.011987448
000110 98 11 92 3a ac 07 41 bc 7d 62 00 bd 4c 9a c4 bc
       0.0011144159 -0.011781614 -0.031343926 -0.023999356
000120 3b a0 0b bd 18 b5 73 bc 5e b0 17 3d 50 c2 84 3b
       -0.034088355 -0.014874719 0.03703343 0.004051484
000130 96 60 20 3d 03 26 36 bd 80 db 2f 3b 14 44 8c 3c
       0.03915461 -0.044469845 0.0026833713 0.017122306
000140 e0 bd 05 bd 77 41 5f 3c 1b 20 6b bd a2 58 d2 bc
       -0.032651782 0.013626448 -0.057403665 -0.025677029
000150 90 3b 93 3b 98 e5 0c 3c b7 a9 0b bd 29 a6 6a bd
       0.0044931844 0.008599661 -0.0340974 -0.05728737
000160 e1 5f 2b bd 18 da 77 bd 1a ab 5f 3d 60 62 74 bd
       -0.041839484 -0.060510725 0.054606535 -0.05966413
000170 e4 87 be 3c aa 0b 81 3c 2e 1d 23 bd f0 80 b5 bc
       0.023258157 0.015752632 -0.03982275 -0.022156209
000180 56 35 18 3d 6b cd 2b 3d a4 3a b2 3c c4 5e 80 bc
       0.03716024 0.04194395 0.021756478 -0.015670188
000190 e1 61 93 ba 50 39 69 3d ca 22 54 bd 4c 69 b6 3c
       -0.001124438 0.056939423 -0.05179099 0.022267006
0001a0 6e 74 fe bb c8 38 94 bc fc b8 b9 bc 64 e8 31 3d
       -0.0077653443 -0.018093482 -0.022671215 0.043434516
0001b0 b1 1f b5 bc 3b 00 78 3d ad 93 2e bd ec c8 dd bc
       -0.022109838 0.060547095 -0.042621303 -0.027073346
0001c0 be 1b 5b bd 9e 72 62 bd d4 86 e6 bc 6c 0b 9a bc
       -0.053493254 -0.05528509 -0.028140463 -0.018804274
0001d0 e8 da e2 3c 4c ad 73 3c 06 13 3b bd fc f7 32 bd
       0.027692273 0.01487286 -0.04567244 -0.043693528
0001e0 39 cb f7 bc 5a 86 31 bd 8c aa 85 bc 14 1d 8b 3c
       -0.030248271 -0.04334102 -0.016316675 0.016981639
0001f0 41 4c 3d bc 69 78 50 bd 76 39 de 3b 48 49 21 3d
       -0.011553825 -0.050896082 0.006781752 0.039376527
000200 5e ec 46 bd 20 61 18 3b 05 8b 10 bd d4 9e 4c 3d
       -0.04856526 0.002325125 -0.03528883 0.049956158
000210 1a b4 af 3c 17 02 e5 3c 1f 31 06 bc 49 2b 18 3d
       0.021448184 0.027955098 -0.008190422 0.037150655
000220 ff 37 3d bd 69 a8 68 3d a4 5b 6c 3d c4 c7 45 3d
       -0.04619598 0.056801233 0.057704583 0.048286214
000230 28 aa 28 3c 38 a8 4e bd 42 ac 9a 3c 82 d9 63 bd
       0.010294475 -0.050453395 0.018880967 -0.055627353
000240 e0 8e 67 bd 9d 58 2e bc 54 81 50 bd 27 38 e2 bc
       -0.05653274 -0.010641244 -0.050904587 -0.027614666
000250 78 e7 91 bc 10 02 d7 bb 7a 9f e9 bc 8b a2 10 3d
       -0.017810568 -0.006561525 -0.028518427 0.035311263
000260 53 d4 db 3c 86 e2 7f bd 46 02 52 bd 78 7d 95 3c
       0.026834643 -0.06247189 -0.0512717 0.018248305
000270 bc de 40 3d 4a 15 5f bd fe cf 6b 3d 2e 73 51 3d
       0.047087416 -0.054463662 0.057571404 0.051135235
000280 76 31 4a bd 00 16 79 3d f0 9a 64 3c f2 4b 23 3d
       -0.049363576 0.060811996 0.013952956 0.03986735
000290 50 1f 4c bd 7a b9 71 3b 7d 29 09 3d fc b8 85 3c
       -0.04983455 0.0036884234 0.033486832 0.016323559
0002a0 84 25 fb bc 10 58 ef bc 5b b4 7a bd ff 93 80 3d
       -0.030657537 -0.029216796 -0.061207157 0.06278228
0002b0 10 6c 5a bc d0 60 23 3c 02 57 7b 3d fa 54 39 3d
       -0.013331428 0.009971812 0.061362274 0.045247056
0002c0 fe b3 68 bd 10 46 3a 3c 24 be 2a bd b7 9d 75 3c
       -0.05681228 0.011369243 -0.04168524 0.014991215
0002d0 a0 46 e7 bb 7b 15 65 bd e8 f3 23 bc b7 2f 46 3d
       -0.0070579797 -0.05592869 -0.010006882 0.04838535
0002e0 5d a2 ea bc 56 b0 9d 3c 20 e0 0a 3b 06 ca 9e 3c
       -0.028641874 0.019249123 0.0021190718 0.019383442
0002f0 7f c2 08 3d 68 53 e4 3c 92 ce 38 bc 76 d4 1f bd
       0.03338861 0.027871802 -0.011279719 -0.039020978
000300 b4 af 49 bd a8 fa 0d 3c d9 34 01 3d 1f 38 1a 3c
       -0.04923983 0.008665718 0.03154454 0.009412794
000310 fc fd a8 3c 8c 76 0f bc de 8e 21 3d 26 c6 04 bd
       0.020628922 -0.008756291 0.03944289 -0.03241553
000320 21 21 6d bc 1b 42 2f 3d a0 7f 52 bc f2 5a 88 3c
       -0.014473231 0.042787652 -0.012847811 0.016644929
000330 4c 90 13 bd e0 fe 2b bb 16 f6 6e 3d 06 7b 68 bd
       -0.036026284 -0.0026244447 0.058340155 -0.05675795
000340 5a 2d 35 bd 0b fc 23 3d 2e ef 3f 3d f8 31 0f bd
       -0.044232704 0.04003529 0.04685896 -0.034959763
000350 ef 31 8d 3d 22 39 69 bd 59 ad d0 bc f2 36 3d 3c
       0.0689429 -0.05693925 -0.025473284 0.0115487445
000360 0d 69 45 3d fa b3 fb 3c a5 52 29 bd e8 8e 6c bc
       0.048195887 0.030725468 -0.04133858 -0.014438368
000370 ac c6 c0 3b 00 55 d8 bb 30 3e 89 bb 9a df 14 3c
       0.0058830585 -0.0066019297 -0.0041883215 0.009086514
000380 86 cf 69 3d 2a 29 a2 bb a8 da 99 bc 76 6a 2f 3d
       0.057082675 -0.004948755 -0.018781021 0.04282614
000390 95 13 20 3d 81 78 7f 3d 33 a2 29 3d 7e 36 7d bc
       0.039081175 0.06237078 0.04141445 -0.0154548865
0003a0 57 b8 28 bd 1b 5d 83 3d 3a 2f 63 bd d9 a6 0a 3d
       -0.041191425 0.06414243 -0.05546496 0.033850525
0003b0 2a 3d 5f 3d ec c6 7d 3d 5c 93 56 3d a8 c8 0f bc
       0.05450169 0.061957285 0.052386627 -0.0087758675
0003c0 22 bd 10 3d 2b 6b 68 bb 80 5e 02 bd c4 5a 2b bd
       0.03533662 -0.0035464268 -0.031828403 -0.041834608
0003d0 11 c6 35 3d 8e 07 66 bd 30 7f f8 3b 3b 7d 26 3d
       0.044378344 -0.05615955 0.0075835213 0.040646773
0003e0 a4 ea f9 3c 12 1b 28 bd 25 2c b7 3c aa 5f 00 3d
       0.030507393 -0.04104144 0.022359917 0.031341232
0003f0 7e c5 14 bd 99 ba 7a 3d a6 ab 47 bd e4 bc fb 3c
       -0.036321156 0.06121311 -0.04874768 0.030729719

fc2.bias f4 [128]
000000 37 a9 5c 3d 24 67 71 bd a7 f6 02 bd 28 1c ea bc
       0.053872313 -0.058936253 -0.031973507 -0.02857788
000010 35 f5 89 3d 0a ff 80 bd 52 0b 70 3c e8 f7 43 bd
       0.06736223 -0.06298645 0.0146511365 -0.047843844
000020 11 03 7c 3c 6e 5c 6c bd b1 de 57 3c 72 d5 54 bd
       0.01538159 -0.057705335 0.013175652 -0.05196137
000030 c1 e2 dc 3b 4e c7 05 bd 9c c7 67 3c 9f 9e b4 3c
       0.0067408984 -0.032660775 0.014146712 0.022048293
000040 a0 bf db 3d 57 21 39 3d fa 5c 6e 3d 2d 6e e1 3c
       0.10729909 0.04519781 0.058194138 0.027518356
000050 cc ad 33 3d 9b 89 1b 3d 2d 67 48 3d 39 58 64 bb
       0.043866917 0.037973028 0.04892652 -0.0034842624
000060 09 40 1d bd 60 3c 83 3c 9b 6f c8 bc 1f c9 0b 3c
       -0.038391147 0.01602 -0.02446728 0.008531838
000070 db ab 54 3d 37 50 bb b8 8c 31 f3 bc 79 e9 a4 3d
       0.051921707 -8.931796e-05 -0.029686712 0.08052344
000080 e6 25 f3 3c 74 40 40 3d 11 09 dc 3a 7b bb ff bc
       0.029681157 0.046936467 0.001678737 -0.031217327
000090 57 be 64 bc 7a a9 80 3d 16 4b 2f 3d 59 fd b0 3a
       -0.013961396 0.06282325 0.042796217 0.0013503238
0000a0 96 c0 08 3d d1 fb 15 bd 6b a6 1a bd d7 33 14 bc
       0.03338679 -0.036617104 -0.037756365 -0.009045563
0000b0 5f 70 7a 3d 95 da 37 3d 6a 50 ff bc f9 b3 29 3b
       0.06114232 0.04488619 -0.031166274 0.0025894626
0000c0 1a c6 32 3d 04 70 7f 3d 29 52 52 bd 72 e6 08 bd
       0.043645956 0.062362686 -0.051347885 -0.033422895
0000d0 81 bd 48 3c 6d 6e 69 bd c8 d5 dc bc 7b 79 3e 3d
       0.0122522125 -0.056990076 -0.026957408 0.04650257
0000e0 16 53 9c 3d 50 c9 96 3d b9 69 62 3d 5e 25 30 3c
       0.07633035 0.07362616 0.055276606 0.0107510965
0000f0 11 97 3c 3d e4 9d 1c bd cb 3d 17 3d 81 64 50 bc
       0.046042506 -0.038236514 0.036924165 -0.0127192745
000100 28 f2 13 3d 3a 2e c0 bb 48 42 7e bc 7c 6f 35 3d
       0.03611961 -0.0058648856 -0.015518732 0.044295773
000110 87 a6 03 bc 1b c2 48 3d 2d d2 5b 3d 79 df 84 3d
       -0.008035309 0.04901324 0.053667236 0.064879365
000120 58 b6 02 3d 01 65 4f 3d 6e 39 4a bd 82 60 f7 bc
       0.031912178 0.050633434 -0.049371175 -0.030197386
000130 7d df d0 3c 93 7a 76 3d d9 ed 8e 3d 54 7a 28 3d
       0.025497193 0.06017549 0.069789596 0.041132286
000140 1b 97 88 3c 2f 19 93 3c 59 7b 8a bd 34 d8 ee 3c
       0.016673615 0.017956344 -0.06761808 0.029155828
000150 f9 cf 98 3c af c7 40 3c 70 4c 91 3d 5f 9d 84 3d
       0.018653857 0.011766358 0.070946574 0.06475329
000160 ef 66 4a 3d 4d 4e 90 3d b0 30 c4 bb 1b 44 8e 3a
       0.04941457 0.07046185 -0.0059872493 0.0010854037
000170 f9 86 64 bc 24 c3 3f bd ad 1a 30 bc db 4e 86 3d
       -0.013948196 -0.04681696 -0.0107485475 0.06558009
000180 16 57 97 3d 40 a2 e0 3c 9f 14 05 bd 58 5d d0 bc
       0.07389657 0.027421117 -0.03249037 -0.025435135
000190 5b 13 46 bd 20 f2 d3 bc 72 39 70 bb 60 54 0a bd
       -0.048358303 -0.02587229 -0.0036655334 -0.033771873
0001a0 48 39 15 bd f5 99 17 3c 94 ea a3 3c 1d d1 52 3d
       -0.03643158 0.009253015 0.020009317 0.051468957
0001b0 02 76 e0 3c e8 a7 64 bc 38 38 68 3c af a0 62 3d
       0.02740002 -0.013956048 0.01417356 0.05532902
0001c0 fc cf 55 bd b1 98 9b bc f3 9a 49 3d a0 8a 84 bd
       -0.052200302 -0.018993707 0.049220037 -0.06471753
0001d0 20 a5 2e 3d 24 23 7a 3d ec 82 44 bc ca 9f 79 3d
       0.042637944 0.06106867 -0.011994105 0.060943402
0001e0 f4 66 ef bc 07 1e 25 bb 88 b0 21 bd 8d 00 9b 3d
       -0.029223897 -0.00251949 -0.039474994 0.075684644
0001f0 e8 da 88 bc 1d d6 03 bb 07 48 6c 3d 8e 9e eb bc
       -0.016705945 -0.0020116635 0.057685878 -0.028762128
