checkpoint/ConvNet2_ep83.pth (torch, 986503 bytes, 10 tensors)

conv1.weight f4 [128, 3, 3, 3]
0	0xbda884fe	-0.08228491
1	0xbb84e26b	-0.0040553114
2	0x3db2e54f	0.087351434
3	0xbd2e1dd0	-0.0425089
4	0xbded7c1b	-0.11595937
5	0x3d9274a6	0.07151155
6	0xbe3f1c08	-0.18663037
7	0x3e33b401	0.17549135
8	0x3e04c5d3	0.12966089
9	0x3c07cd3b	0.008288677
10	0xbe322cd1	-0.17399909
11	0xbe0e5c80	-0.13902473
12	0x3ce44de5	0.027869174
13	0xbc932367	-0.017961217
14	0x3e31f863	0.17379908
15	0xbd2f245b	-0.04275928
16	0x3ccc293a	0.024922002
17	0xbe39b87e	-0.18136784
18	0x3dc82e6c	0.09774479
19	0x3d684812	0.056709357
20	0x3d45c438	0.048282832
21	0x3dd7e6ef	0.10542094
22	0xbd6f9158	-0.05848822
23	0xbe17c597	-0.14821468
24	0x3dc8decc	0.0980812
25	0x3e457ad9	0.19285144
26	0xbe01bd65	-0.12669905
27	0xbdd010fa	-0.10159488
28	0x3cc9dcc8	0.02464141
29	0xbd6137c4	-0.054984823
30	0x3dabc002	0.08386232
31	0xbd243304	-0.040087715
32	0x3df26f6e	0.1183766
33	0xbd4f6cd4	-0.050640896
34	0x3e3781f1	0.17920662
35	0xbbc079a0	-0.005873874
36	0xbe10fcc7	-0.14158927
37	0x3daa2542	0.083078876
38	0xbdd122fd	-0.102117516
39	0xbd3cba3c	-0.046076044
40	0xbccc8bf0	-0.024969071
41	0x3e0dd76d	0.1385171
42	0xbd31669c	-0.043310747
43	0xbd77968c	-0.060446307
44	0x3dfd72c2	0.12375404
45	0xbe164534	-0.14674836
46	0x3d2fb16c	0.042893812
47	0x3da41fea	0.080138996
48	0xbcff5328	-0.031167582
49	0x3e046389	0.12928595
50	0xbc763050	-0.015026167
51	0x3e3a14e1	0.18172027
52	0x3e42f43f	0.19038485
53	0x3dececea	0.11568625
54	0xbdc20938	-0.094744146
55	0x3e45dd49	0.19322695
56	0x3c7c7d19	0.015410685
57	0xbd0698ac	-0.032860443
58	0xbe2c936b	-0.1685311
59	0x3dbb69ec	0.09151062
60	0x3cc3c80d	0.023899103
61	0xbdd8ba45	-0.10582403
62	0xbe1bda77	-0.15220056
63	0xbde5d309	-0.112218924
64	0x3dcc1756	0.099653885
65	0x3e1dfadf	0.15427731
66	0xbdd1e77a	-0.10249229
67	0x3e3e6dff	0.18596648
68	0x3dc0f248	0.094212115
69	0xbc5c33c1	-0.0134400735
70	0xbde09a57	-0.10966938
71	0xbe382f44	-0.1798678
72	0xbbe4c503	-0.0069814934
73	0xbe36f046	-0.17865095
74	0x3e0efb33	0.13963012
75	0xbe4208b0	-0.18948627
76	0x3dd7866c	0.10523686
77	0xbe3b353c	-0.18282026
78	0xbdc27060	-0.0949409
79	0xbbd96c5b	-0.0066352314
80	0xbe11d8d2	-0.14242867
81	0xbe455f66	-0.19274673
82	0xbc7f2331	-0.015572355
83	0xbc94623f	-0.018113254
84	0xbd647ef1	-0.055785123
85	0x3e28fa7b	0.165018
86	0xbdff102f	-0.12454259
87	0xbd4988fa	-0.049202897
88	0x3e0c6811	0.13711573
89	0x3e414aa2	0.18876126
90	0xbdca3654	-0.098736435
91	0x3dfc78c6	0.12327723
92	0xbd8f6941	-0.070024975
93	0x3d19877f	0.037482735
94	0x3de16d6b	0.11007198
95	0xbda7dbed	-0.081962444
96	0x3dcde963	0.100542806
97	0x3d14cacf	0.036326226
98	0x3db6caa9	0.08925373
99	0xbd4157f4	-0.04720302
100	0x3e368baa	0.17826715
101	0xbe1089e5	-0.14115103
102	0x3d6f4213	0.058412623
103	0x3df5a003	0.119934104
104	0xbdeb172e	-0.114790305
105	0xbe2ad9ae	-0.166846
106	0xbd4289e9	-0.047494803
107	0x3e04ceb4	0.12969476
108	0xbc19e481	-0.0093928585
109	0xbda2a9f8	-0.07942575
110	0xbe13e8ef	-0.14444326
111	0xbd732901	-0.059365276
112	0x3e26f625	0.16304834
113	0x3e3b3c22	0.18284658
114	0xbda03668	-0.07822877
115	0xbdf54b33	-0.11977234
116	0x3d13b7e2	0.036064036
117	0xbd553d42	-0.052060373
118	0x3e0457b0	0.12924075
119	0xbca94ed8	-0.020667478
120	0xbd425359	-0.047442768
121	0xbde41b6f	-0.11138045
122	0xbdf2fb50	-0.1186434
123	0xbe3f0213	-0.18653135
124	0x3c522e02	0.012828352
125	0xbe229230	-0.15876079
126	0x3dfd797b	0.12376686
127	0xbe30c943	-0.17264275
128	0x3d855b1d	0.06511519
129	0xbe2aa501	-0.16664506
130	0xbe0b1f9d	-0.13586278
131	0xbcaf9534	-0.02143345
132	0x3d68db51	0.05684978
133	0xbd8add0a	-0.06780441
134	0x3cb2dfbb	0.021835199
135	0x3d184000	0.03717041
136	0x3e1ae64f	0.15126918
137	0xbd879798	-0.06620711
138	0x3d9455ae	0.072429046
139	0xbd5237a4	-0.051322594
140	0xbc8e11b0	-0.017342418
141	0x3e3e0177	0.18555246
142	0xbd00b05c	-0.03141819
143	0xbe12d3b9	-0.14338578
144	0x3e447e61	0.19188835
145	0xbe3e6a85	-0.18595321
146	0x3cc73f28	0.024322107
147	0xbdde018e	-0.1084014
148	0xbc316550	-0.010827377
149	0x3d9c6a36	0.07637446
150	0xbdfb833c	-0.1228089
151	0x3e3c2c2b	0.18376224
152	0xbe08f809	-0.13375868
153	0x3e42cdd9	0.19023837
154	0x3e31949f	0.1734185
155	0x3dab102a	0.083526924
156	0x3d1358a0	0.03597319
157	0x3a60fe00	0.0008582771
158	0xbe0c7f06	-0.1372033
159	0xbd2b9104	-0.041886345
160	0x3dda783a	0.10667463
161	0x3e169119	0.14703788
162	0x3e2270e9	0.15863384
163	0xbd9e13bd	-0.077186085
164	0xbd1178ac	-0.035515472
165	0x3d24e048	0.040252954
166	0x3d61ad62	0.05509699
167	0x3de73be7	0.11290722
168	0x3dfb6a7a	0.12276168
169	0xbdd8f082	-0.10592748
170	0xbe2c159b	-0.16805117
171	0x3d8da63f	0.069164746
172	0x3e36f508	0.1786691
173	0xbd8aec56	-0.06783359
174	0x3e301730	0.17196345
175	0xbd992a49	-0.074787684
176	0x3d85b387	0.06528383
177	0xbd063476	-0.032764874
178	0xbe234eb9	-0.15947999
179	0x3c8b85d0	0.01703158
180	0xbe19038c	-0.1494276
181	0xbdfa7c19	-0.12230701
182	0xbddb00fc	-0.10693547
183	0xbe176bb2	-0.14787176
184	0xbdb82bf3	-0.08992758
185	0xbe42cbc8	-0.19023049
186	0xbb22582a	-0.0024771788
187	0x3df77448	0.12082726
188	0xbb68aac5	-0.0035502177
189	0xbdfaa892	-0.122391835
190	0x3de082f6	0.10962479
191	0xbd9db225	-0.07699994
192	0x3d5ac2ca	0.05340842
193	0xbe0868b5	-0.13321193
194	0x3e031c54	0.12803775
195	0x3df5a2ff	0.1199398
196	0x3c85b9e7	0.016323997
197	0x3d51cb50	0.051219285
198	0xbdd5bcf6	-0.10436432
199	0x3d931156	0.07181041
200	0xbda83e53	-0.082150124
201	0xbe0e48df	-0.13894986
202	0x3c8cc150	0.017182022
203	0xbd8829d1	-0.06648601
204	0x3dbcb73b	0.09214636
205	0xbe434e62	-0.1907287
206	0x3dd4e436	0.1039509
207	0xbe31d828	-0.17367613
208	0xbaa9913c	-0.001293696
209	0x3e27f931	0.16403653
210	0xbe26a4fa	-0.16273871
211	0xbd03eccb	-0.032208245
212	0x3d5f721f	0.054552194
213	0x3e2bfffe	0.16796872
214	0x3e0635d5	0.13106473
215	0xbdb63ac6	-0.08897929
216	0x3e2bcd2d	0.16777487
217	0xbdeeb385	-0.116553344
218	0xbe034e74	-0.12822896
219	0xbdf4795d	-0.11937211
220	0xbe1bcea1	-0.15215541
221	0x3e24d9a5	0.1609865
222	0xbd7bc584	-0.061467662
223	0xbc1d6e85	-0.009608869
224	0xbe108dbb	-0.14116566
225	0xbbff3086	-0.007787767
226	0xbe2daf68	-0.16961443
227	0xbdef7951	-0.11693061
228	0x3e401809	0.18759169
229	0x3de3acde	0.11116956
230	0x3dfbb458	0.12290257
231	0xbe22427c	-0.15845674
232	0xbe0890cf	-0.1333649
233	0x3e0e434d	0.1389286
234	0x3d9cf60d	0.07664118
235	0x3cfdbc9c	0.030973725
236	0x3df7fc55	0.121086754
237	0xbc843c2b	-0.016141972
238	0xbdb1003f	-0.08642625
239	0x3d0927c4	0.03348519
240	0x3cbcc5de	0.02304357
241	0x3e22d862	0.15902856
242	0x3d7a595f	0.061120387
243	0xbd9d8d40	-0.07692957
244	0x3be0acf7	0.0068565565
245	0x3d9b2411	0.075752385
246	0xbdf088ed	-0.117448665
247	0x3d7a0efb	0.061049443
248	0x3d7cd080	0.06172228
249	0x3dc147e9	0.09437544
250	0xbe08eed1	-0.13372351
251	0xbe3119ab	-0.17294948
252	0x3c9a8505	0.018862257
253	0x3dc41a13	0.09575286
254	0x3dd299e5	0.10283259
255	0xbc8eb4c1	-0.017420175

conv1.bias f4 [128]
0	0x3d07ce50	0.03315574
1	0xbe398301	-0.1811638
2	0x3dedd806	0.11613469
3	0x3e1297bc	0.14315695
4	0x3d99f490	0.0751735
5	0xbe1d99bb	-0.15390675
6	0xbde9bf41	-0.11413432
7	0x3df240b3	0.11828747
8	0xbddf7e1c	-0.10912725
9	0xbcf7125c	-0.030160122
10	0xbcfd20b5	-0.030899385
11	0xbd2cf350	-0.04222423
12	0xbe3b9ce0	-0.18321562
13	0x3d5b4170	0.053529203
14	0x3e3f8a83	0.18705182
15	0xbe3fc74a	-0.18728366
16	0x3b8382eb	0.0040134094
17	0x3dc831cc	0.09775123
18	0xbdb8dd81	-0.090266235
19	0xbdc858a5	-0.097825326
20	0xbb11b940	-0.0022235662
21	0x3e2085c4	0.15676028
22	0xbd884a7c	-0.06654832
23	0x3d71c1b4	0.05902262
24	0x3daada0c	0.083423704
25	0xbda1c82d	-0.078995086
26	0x3e120406	0.14259347
27	0x3e43c0ab	0.19116466
28	0xbe3a6bf4	-0.18205243
29	0xbe0e2b98	-0.13883817
30	0x3dfc5a13	0.12321868
31	0xbe17528c	-0.14777583
32	0xbe36a90e	-0.17837927
33	0x3e36f959	0.17868556
34	0xbcb21b27	-0.021741463
35	0x3d78c98a	0.060739078
36	0xbd81c1b8	-0.06335777
37	0xbe192fa2	-0.14959577
38	0xbdbf2cba	-0.09334703
39	0x3d9843ba	0.07434793
40	0x3d86a4c6	0.06574397
41	0x3dce2f61	0.100676306
42	0xbe08d1eb	-0.13361327
43	0x3d91c375	0.071173586
44	0xbd7675d4	-0.060170963
45	0xbe2322e0	-0.15931273
46	0xbd366c5d	-0.044536937
47	0xbc3b5d09	-0.0114357555
48	0x3e00990e	0.12558386
49	0x3e3488fc	0.1763038
50	0x3e36450a	0.17799774
51	0xbd0c31a2	-0.03422702
52	0xbe33410c	-0.17505282
53	0xbd0d206f	-0.03445476
54	0x3de69e0e	0.11260615
55	0xbd569669	-0.052389536
56	0xbe3efac0	-0.18650341
57	0xbe186d98	-0.14885557
58	0xbd82238e	-0.06354438
59	0xbe2b3ad2	-0.16721657
60	0x3d1b8d35	0.037976462
61	0xbbfbce80	-0.007684529
62	0x3d00c80e	0.031440787
63	0x3e2348d1	0.15945746
64	0xbe071eac	-0.13195294
65	0xbbcbeb8f	-0.006223149
66	0x3d0c3224	0.034227505
67	0x3e2cfb81	0.16892816
68	0x3d9422b2	0.0723318
69	0x3dba4da6	0.090968415
70	0x3e1803a2	0.14845136
71	0x3e34fa53	0.17673616
72	0x3c21875b	0.009858931
73	0xbe365c63	-0.1780868
74	0x3d640565	0.055669207
75	0x3e2ca156	0.1685842
76	0x3e129515	0.14314683
77	0xbdad978d	-0.08476172
78	0xbe1c0ed9	-0.15240039
79	0xbc85f083	-0.016350036
80	0x3dc6f5ed	0.09714875
81	0x3c8eea5d	0.017445737
82	0xbdd1dd16	-0.10247247
83	0xbe001696	-0.12508616
84	0xbe2e1d6c	-0.17003411
85	0x3ce045e1	0.02737707
86	0xbe149fd1	-0.1451409
87	0x3e19e43b	0.1502847
88	0x3c169adb	0.009192194
89	0x3e0e8628	0.13918364
90	0x3d8955f3	0.06705847
91	0xbde1132b	-0.10989984
92	0xbcc768a7	-0.024341894
93	0xbe30029a	-0.17188492
94	0x3dbc8207	0.09204488
95	0x3e2b61d3	0.16736536
96	0x3d9aef5e	0.07565187
97	0x3b4dc781	0.0031399431
98	0x3db470c0	0.08810568
99	0xbdb5666e	-0.088574275
100	0xbde58d5c	-0.11208603
101	0x3dd4923a	0.10379453
102	0x3d4fe180	0.050752163
103	0xbd8f9e8a	-0.07012661
104	0xbe1f2da3	-0.15544753
105	0xbd824806	-0.06361394
106	0xbe1df018	-0.1542362
107	0x3d7d1774	0.061789945
108	0x3e0a8efb	0.13531105
109	0x3dc3d4f8	0.09562105
110	0x3e41ec47	0.18937789
111	0x3e250102	0.16113666
112	0xbdcdc837	-0.100479536
113	0x3c6e2320	0.014534742
114	0xbe2c0a13	-0.16800718
115	0x3d2fbde5	0.042905707
116	0x3ccb7260	0.024834812
117	0x3d434be7	0.047679808
118	0xbe1e8924	-0.15482002
119	0xbc8a9dce	-0.01692095
120	0xbde0bca5	-0.10973481
121	0x3e432ce1	0.19060089
122	0x3e24ab6d	0.16081019
123	0xbc95c5ec	-0.018282853
124	0x3cb28e5c	0.021796398
125	0xbb03aeb4	-0.0020093145
126	0xbd46b052	-0.048507996
127	0x3e40f456	0.18843207

conv2.weight f4 [56, 128, 3, 3]
0	0xbc6d8315	-0.014496584
1	0xbcce1106	-0.025154602
2	0xbc235dac	-0.009971064
3	0xbc27384e	-0.010206295
4	0x3ce8bd2b	0.028410515
5	0x3bcba934	0.006215239
6	0xbcd84238	-0.026398763
7	0xbc07b8de	-0.008283822
8	0x3bf8721c	0.0075819623
9	0xbb3320f0	-0.0027332865
10	0xbce7a920	-0.028278887
11	0xbc85463a	-0.016268838
12	0x3be56304	0.007000329
13	0x3c11d3b2	0.00890057
14	0x3c8af559	0.016962694
15	0x3cc19a17	0.023633046
16	0xbca50cf2	-0.020147774
17	0xbcd93401	-0.026514055
18	0xbbde642c	-0.0067868438
19	0x3c30f566	0.010800695
20	0x3cb4885d	0.02203768
21	0x3c694046	0.014236515
22	0xbc9b9d25	-0.01899583
23	0xbc4fa642	-0.012673916
24	0x3c968cc9	0.018377678
25	0x3cc9829d	0.024598414
26	0xbc6a2a37	-0.014292291
27	0xbb94eca8	-0.004544813
28	0xbc2ed240	-0.010670245
29	0x3c224f2a	0.0099065695
30	0x3af39cb0	0.0018586125
31	0x3cef8cb5	0.029241899
32	0x3cab74f9	0.0209298
33	0xbce0e879	-0.027454602
34	0x3c9677cb	0.018367669
35	0x3c96e14d	0.018417979
36	0x3b1f2da8	0.0024288688
37	0xbc1a4c32	-0.00941758
38	0x3b5c92b8	0.0033656787
39	0x3cc3c11f	0.023895798
40	0x3c948b49	0.018132823
41	0xbc485574	-0.012227405
42	0x3cce9023	0.025215214
43	0x3ac9e2d0	0.0015402678
44	0x3cbc7131	0.023003193
45	0xbcc5a006	-0.024124157
46	0x3c77d5aa	0.015126625
47	0xbcb99625	-0.022654602
48	0x3c84e3d1	0.016221913
49	0x3b7a23d8	0.0038168337
50	0xbc54cf4a	-0.012988875
51	0x3c513466	0.01276884
52	0x3c08933a	0.008335883
53	0xbca19356	-0.019723576
54	0xbb576d80	-0.0032871664
55	0x3c953dff	0.018218039
56	0xbba80504	-0.005127551
57	0xbb4b4858	-0.0031018462
58	0xbbb0d454	-0.0053964052
59	0xbcb01e70	-0.021498889
60	0x3cb2fa97	0.021848006
61	0x3cb40c37	0.02197848
62	0x3c01129a	0.00787797
63	0xbce3af21	-0.027793469
64	0x3cdd7b53	0.027036345
65	0x3c5afd36	0.013366034
66	0xbcb5c09b	-0.022186568
67	0xbc9c5d98	-0.019087598
68	0xbc98c918	-0.018650576
69	0x3cecb1f3	0.028893447
70	0xbc8efee4	-0.017455526
71	0xbc669f1d	-0.0140760215
72	0x3babd404	0.00524378
73	0xbc82c204	-0.015961654
74	0xbc118724	-0.008882318
75	0x3c748896	0.014925143
76	0xbb83e2e8	-0.004024852
77	0x3b2c5ad8	0.0026299264
78	0xbb84f38c	-0.0040573534
79	0x3c4a57ce	0.012350036
80	0xbc2ca8fe	-0.010538338
81	0x3b9d299c	0.00479622
82	0x3b0f1068	0.0021829847
83	0xbac82280	-0.0015269071
84	0x3cd043d3	0.025422966
85	0xbc937050	-0.01799789
86	0x3cb1d17b	0.021706333
87	0xbcc1b180	-0.023644209
88	0x3c8afe67	0.016967012
89	0x3bf30c1c	0.007417215
90	0x3c95c02f	0.018280117
91	0x3cc85f61	0.024459543
92	0xbc0c1066	-0.008548832
93	0x39fa7d40	0.00047777034
94	0xbacff890	-0.0015866924
95	0x3be56aac	0.0070012417
96	0xbb19ad50	-0.002344925
97	0xbb83e734	-0.0040253643
98	0x3c6a2b3a	0.014292533
99	0xbcef8d22	-0.029242102
100	0xbc80d5a0	-0.015726864
101	0x3cc62cd1	0.024191292
102	0xbcbd7113	-0.023125207
103	0x3c631ed2	0.013862329
104	0xbb6c4ae0	-0.0036055371
105	0x3bf9275c	0.007603569
106	0xbc2310fa	-0.009952778
107	0xbbe2fce4	-0.0069271196
108	0xbc48cb96	-0.01225557
109	0xbbf6aecc	-0.0075281616
110	0xbbc53374	-0.0060180966
111	0xbc343a06	-0.011000162
112	0x3c3a16ce	0.011357976
113	0x3b324548	0.002720194
114	0x3cb96d57	0.022635145
115	0x3ce8c697	0.028415008
116	0x3c095556	0.008382162
117	0x3c56afce	0.013103439
118	0xbc90cd3c	-0.017675988
119	0xbcaa55e8	-0.020792916
120	0xbbd459c0	-0.0064804256
121	0xbcccfdc3	-0.025023347
122	0xbcb8c52c	-0.022554956
123	0xbcde2e65	-0.027121732
124	0xbcd334b9	-0.025781976
125	0xbcd7ac83	-0.026327377
126	0xbbe6c134	-0.0070420746
127	0x3c27fe8e	0.010253562
128	0x3a305c40	0.00067276135
129	0x3b7b9ca8	0.0038392935
130	0x3cc739df	0.024319587
131	0xbc53c520	-0.012925416
132	0xbcbfcc5c	-0.023412876
133	0x3cb04caf	0.02152094
134	0xbb839720	-0.0040158182
135	0xbc6bfcb3	-0.01440351
136	0xbcb04673	-0.021517968
137	0xbccb2fec	-0.024803124
138	0x3c09879e	0.00839415
139	0xbccd3c2f	-0.025053112
140	0xbb661c98	-0.0035112258
141	0xbc96b18b	-0.018395206
142	0xbcab8f6b	-0.02094241
143	0xbc063424	-0.008191142
144	0x3c0ac0ca	0.008468816
145	0xbcdc3d90	-0.026884824
146	0x3c82f59d	0.015986258
147	0xbcbefcdb	-0.02331393
148	0x3c8afa91	0.016965182
149	0x3bd0fe54	0.0063779745
150	0x3c984f57	0.01859252
151	0xbc83c1d0	-0.016083628
152	0xbc5895ac	-0.013219278
153	0xb9d1ed00	-0.00040040165
154	0xbaca96e0	-0.0015456341
155	0x3cdaa10b	0.02668812
156	0xbc0b1bc0	-0.008490503
157	0xbb907f24	-0.0044096876
158	0xbc9bb7f2	-0.01900861
159	0xbbfa622c	-0.0076410975
160	0x3c54ee32	0.012996243
161	0xbb9a3ed8	-0.0047071986
162	0xbabeeb90	-0.0014566053
163	0xbc0960aa	-0.008384863
164	0xbc6d6d3c	-0.014491376
165	0x3c6cc082	0.014450194
166	0x3c81707f	0.015800713
167	0xba2bbb60	-0.00065510534
168	0xbc92e6ce	-0.017932322
169	0x3ce98fd9	0.028510975
170	0x3bde680c	0.0067873057
171	0x3cddd5d3	0.027079498
172	0x3bde432c	0.00678291
173	0xbcced76f	-0.025249211
174	0x3c083f52	0.008315878
175	0xbc181092	-0.009281294
176	0xbcded49c	-0.02720099
177	0x3c1b8eda	0.009494508
178	0xbc4e1102	-0.012577297
179	0x3ce25145	0.027626643
180	0xb88c5e00	-6.693229e-05
181	0x3b3b6fa8	0.0028600488
182	0xbcd5f4e0	-0.026117742
183	0x393fee80	0.00018304028
184	0x3ca902d9	0.02063124
185	0x3cd1532f	0.02555236
186	0xbc82095c	-0.015873604
187	0x39d1ee00	0.0004004091
188	0x3ca85e5d	0.020552808
189	0x3ceadbeb	0.028669318
190	0xbbae304c	-0.005315816
191	0x3c5c80ea	0.01345847
192	0xbcd901be	-0.026490089
193	0xbcd6e46e	-0.02623197
194	0x3ca4c5e7	0.020113898
195	0xbcbacf04	-0.02280379
196	0xbc1b1f78	-0.009467952
197	0xbb67d130	-0.0035372488
198	0x3c85dbf5	0.016340235
199	0xbcb0b876	-0.021572333
200	0x3c5d7766	0.013517236
201	0x3c49c126	0.012314117
202	0xbcc32c0e	-0.023824718
203	0xbc4952b4	-0.012287784
204	0xbbd889c0	-0.006608218
205	0xbc976932	-0.018482778
206	0x3cb80d75	0.022467354
207	0xbc8b314e	-0.016991284
208	0x3cccca29	0.024998741
209	0x3c7e16de	0.015508382
210	0xbc9c9088	-0.019111887
211	0xbc4af732	-0.0123880375
212	0x3c2a9cbe	0.010413347
213	0x3c9c5df3	0.019087767
214	0x3c670e86	0.014102584
215	0xbc648d3a	-0.013949687
216	0xbce9df5d	-0.02854889
217	0x3cab7f25	0.02093465
218	0x3c7f2216	0.015572092
219	0xbcc9bf9a	-0.024627496
220	0xbcdd222c	-0.026993833
221	0x3be8d664	0.0071056355
222	0x3b26e808	0.0025467891
223	0xbb491d60	-0.0030687675
224	0x3cd8eafb	0.026479235
225	0xbb886cdc	-0.0041633677
226	0xbc697a9a	-0.014250422
227	0x3c4960f6	0.012291184
228	0xbc35da0a	-0.011099348
229	0x3cb95e55	0.022627989
230	0xbc5c9d26	-0.0134652015
231	0x3baaefe4	0.0052165855
232	0xbca5b157	-0.020226164
233	0xbb7afc28	-0.003829727
234	0xbc5540f6	-0.013015976
235	0x3cadccd9	0.021215843
236	0xbc84ff82	-0.016235117
237	0xbb8020dc	-0.003910167
238	0x3cd75b4b	0.026288649
239	0xbbc2dd00	-0.0059467554
240	0xbce91fb4	-0.0284575
241	0xbc9eab22	-0.019368712
242	0x3c93f20b	0.018059751
243	0x3bc79f34	0.0060919765
244	0x3c6a4bba	0.014300281
245	0xbc40ce70	-0.011767969
246	0x3c14274e	0.009042574
247	0xbcf15099	-0.029457377
248	0x3ae33860	0.0017335527
249	0xbceed377	-0.029153569
250	0x3bfa5534	0.0076395515
251	0xbbe2e440	-0.006924182
252	0x3cda3c3f	0.026640056
253	0x3c75fe76	0.0150142815
254	0xbc9d9e06	-0.01924039
255	0xbb589550	-0.0033047982

conv2.bias f4 [56]
0	0xbc3dc6d2	-0.011583047
1	0x3cd2f496	0.025751393
2	0xbbb64ff6	-0.0055637313
3	0x3cd2c18c	0.025727056
4	0x3b30f57f	0.0027001796
5	0x3ced4157	0.02896182
6	0x3ccc7765	0.024959275
7	0x3bc21b0b	0.005923634
8	0xbcdf1ab2	-0.027234409
9	0xbc7bfdbc	-0.015380319
10	0x3c7d87ca	0.015474269
11	0x3c0bf2f4	0.008541811
12	0xbc158ddb	-0.009128059
13	0xbc818563	-0.015810674
14	0xbcce61da	-0.025193144
15	0xbba2efb6	-0.0049724234
16	0xbc5caf36	-0.013469508
17	0x3c9fae1f	0.019492207
18	0xbbe202b8	-0.0068972968
19	0x3cb70463	0.022340959
20	0x3c925827	0.0178643
21	0x3c6c3d0e	0.014418853
22	0x3c91aaf6	0.017781716
23	0xbc71ee79	-0.014766329
24	0xbc99bc89	-0.018766658
25	0xbbd7381c	-0.006567968
26	0xbbd764cb	-0.0065732948
27	0x3c82375b	0.015895536
28	0xbce13381	-0.02749038
29	0x3bf85ea4	0.0075796414
30	0xbc130425	-0.008973156
31	0xbb84f684	-0.0040577073
32	0xbcc360f1	-0.023849936
33	0xbb9b542d	-0.004740259
34	0x3cb574c5	0.022150407
35	0xbcdc36b9	-0.026881563
36	0xbb697fe8	-0.0035629217
37	0x3ca8bbcc	0.020597361
38	0xbbd93ebc	-0.006629793
39	0xbcc67724	-0.024226733
40	0xbcb409a2	-0.02197725
41	0xbc118642	-0.008882107
42	0xbc33288e	-0.010934962
43	0x3c701cf6	0.014655342
44	0x39db59d2	0.00041837856
45	0xbcad1aa6	-0.021130871
46	0xbabd1be7	-0.0014427871
47	0x3b64f438	0.0034935605
48	0xba4a5440	-0.00077182427
49	0xbb951136	-0.004549171
50	0xbc96a8ed	-0.018391097
51	0x3c8a10ad	0.016853655
52	0x3c890885	0.016727695
53	0x3af56b70	0.0018724035
54	0x3aa9aff0	0.001294611
55	0x3cd2090a	0.025639076

fc1.weight f4 [256, 560]
0	0x3cd03c80	0.025419474
1	0x3d1e5b56	0.038661323
2	0xbc770e6c	-0.015079122
3	0xbc8b7f97	-0.017028613
4	0xbd034e14	-0.032056883
5	0xbc465950	-0.012106255
6	0xbce87786	-0.028377306
7	0xbb93e608	-0.004513506
8	0xbd2a80e1	-0.041626815
9	0x3c47d5d8	0.01219698
10	0xbbd64000	-0.006538391
11	0xbc01b931	-0.007917688
12	0x3d1c6251	0.0381797
13	0x3d28b1c3	0.04118515
14	0xbbd7bb1a	-0.0065835835
15	0x3d252c0a	0.040325202
16	0xbd255553	-0.040364575
17	0xbbcd0092	-0.0062561715
18	0x3ca6321d	0.020287568
19	0xbc819d1a	-0.015821982
20	0x3c86984c	0.016430043
21	0x3c81dd62	0.015852634
22	0x3d12f7f5	0.035881
23	0xbcdae37f	-0.026719807
24	0x3d127bbb	0.03576253
25	0x3b843984	0.0040351767
26	0xbc0f7bcf	-0.008757546
27	0x3d0fa5a5	0.03507008
28	0xbca4a03d	-0.020095939
29	0x3bcdc4b1	0.006279551
30	0xbc834a59	-0.016026663
31	0x3aa03d02	0.0012225213
32	0xbd0d773a	-0.03453753
33	0x3c8a1097	0.016853614
34	0x3bda5eef	0.006664149
35	0x3c79368c	0.015210759
36	0x3cb9bfd9	0.022674488
37	0x3c07306b	0.00825129
38	0xbc5c24d7	-0.013436518
39	0xbd064a27	-0.03278556
40	0xbc20d1f7	-0.0098156845
41	0x3d15b9ea	0.036554255
42	0xbce0f094	-0.027458467
43	0x3cb873ee	0.022516217
44	0xbc9553b8	-0.018228397
45	0x3d0b85ef	0.034063276
46	0x3d0fe47a	0.03513
47	0x3d1bd0d4	0.03804095
48	0x3d1b1e21	0.03787053
49	0x3c407e16	0.011748811
50	0xbd27cdbd	-0.04096769
51	0x3cea9972	0.028637622
52	0x3c6e772a	0.014554778
53	0xbc40d133	-0.011768627
54	0x3c900479	0.017580258
55	0xbc542d0f	-0.012950196
56	0x3c65ea81	0.014032961
57	0x3c8b71f4	0.01702211
58	0x3c187fd4	0.00930782
59	0x3d05367c	0.032522663
60	0xbc73b4fe	-0.014874695
61	0xbcb8fc9f	-0.022581397
62	0x39d1d580	0.00040022656
63	0x3cd924e8	0.026506856
64	0x3be97078	0.007124003
65	0x3d27a8c2	0.040932424
66	0xbb588fc0	-0.0033044666
67	0xbc447f64	-0.011993263
68	0xbc8c3bc9	-0.017118352
69	0x3cb9e8d4	0.022694029
70	0xbd0fb8ea	-0.035088457
71	0x3d1f32de	0.03886687
72	0x3cdca33a	0.026933301
73	0x3d066696	0.032812677
74	0x3ccf288f	0.025287895
75	0xb8c440fb	-9.358112e-05
76	0xbce98be7	-0.028509093
77	0x3c58b414	0.013226528
78	0xbcec2519	-0.028826283
79	0x38bbf556	8.962552e-05
80	0x3b3c1890	0.0028701164
81	0x3a64e6ca	0.00087319
82	0x3bc7467e	0.0060814014
83	0xbd155997	-0.036462393
84	0xbd26dd45	-0.040738363
85	0xbd16d7ed	-0.036827017
86	0x3c49465d	0.012284842
87	0xbca93e10	-0.020659477
88	0x3bf71ce8	0.0075412877
89	0xbc8c21b3	-0.017105913
90	0x3bd90068	0.006622363
91	0x3bc82800	0.006108284
92	0xbcc4bf71	-0.024017068
93	0x3ce88234	0.028382398
94	0x3d0f441c	0.034977064
95	0x3cb7d08c	0.02243831
96	0x3ceced24	0.028921671
97	0xbca8d339	-0.020608531
98	0x3b90ffb8	0.0044250153
99	0x3c2ddd68	0.010611869
100	0x3b832b36	0.004002954
101	0xbd25cc9c	-0.040478334
102	0x3c7820fd	0.015144584
103	0xbb71cad8	-0.0036894586
104	0xbc23df58	-0.01000198
105	0x3c02dcba	0.007987196
106	0x3cff92e9	0.031197982
107	0x3ceaf163	0.028679555
108	0x3ca37b5f	0.019956289
109	0x3c37cf32	0.011218833
110	0x3baa74a8	0.005201895
111	0x3d10ffd4	0.035400227
112	0x3c0ce439	0.008599334
113	0xbd18fef0	-0.037352502
114	0x3d1d2c5b	0.03837238
115	0xbcb92ae0	-0.022603452
116	0x3cf3531f	0.029702721
117	0x3d1b9702	0.03798581
118	0x3b2041ef	0.0024453362
119	0x3c7bdcf7	0.015372506
120	0x3b6f80ac	0.00365452
121	0x3b7b6686	0.003836067
122	0xbbcb219a	-0.006199074
123	0x3c5d57bf	0.01350969
124	0xbb910d76	-0.0044266535
125	0x3cb933f0	0.022607774
126	0x3c616a08	0.01375819
127	0x3d2963fd	0.041355122
128	0x3d0ab66a	0.03386537
129	0x3af5ef02	0.0018763246
130	0x3c2d7660	0.010587305
131	0x3d29d008	0.04145816
132	0x3d076e18	0.033063978
133	0x3d21b2c2	0.039477117
134	0xbc432920	-0.01191166
135	0x3cd4c050	0.025970608
136	0xbd1583ed	-0.036502767
137	0x3d2346ee	0.039862566
138	0x3d0fb9f8	0.035089463
139	0x3d1c899e	0.03821718
140	0xbbc5181c	-0.006014837
141	0xbc553e54	-0.013015348
142	0xbc4961a5	-0.012291347
143	0xbc13d32a	-0.009022513
144	0xbd145b75	-0.036220033
145	0x3bca693f	0.006177097
146	0xbca69a64	-0.020337291
147	0x3cadc6da	0.021212984
148	0x3d09779b	0.03356133
149	0x3cd78cf8	0.026312336
150	0x3d0c2345	0.034213323
151	0xbd1015a3	-0.035176884
152	0xbc99ebaa	-0.018789131
153	0xbd2daf25	-0.04240336
154	0xbd1ca20c	-0.038240477
155	0xbcc81a8a	-0.024426717
156	0x3c0e5759	0.0086878175
157	0xbd1839eb	-0.03716461
158	0xbc7e2f47	-0.0155142015
159	0x3c4f1cd6	0.012641152
160	0x3c082f28	0.008312024
161	0xbc14e228	-0.009087123
162	0xbccd18ec	-0.025036298
163	0xbd1a3534	-0.037648395
164	0x3d2be15e	0.041962974
165	0x3c9be312	0.019029174
166	0x3c7dc234	0.015488196
167	0xbb9825a8	-0.004643161
168	0xbb77a140	-0.0037785321
169	0x3c925b2e	0.017865743
170	0x3bbe7c0c	0.0058131274
171	0xbd02c45a	-0.031925537
172	0x3b9a1476	0.004702146
173	0x3c9c69a5	0.019093344
174	0xbaadbca7	-0.0013255075
175	0x3c8e74d4	0.017389692
176	0x3ca55672	0.020182822
177	0xbcbebca0	-0.023283303
178	0x3c36f02d	0.011165661
179	0x3cd89aa4	0.026440926
180	0xbbe825c8	-0.007084582
181	0xbae7a9a0	-0.0017674454
182	0x3b9de8a8	0.0048189946
183	0x3d2835d4	0.04106696
184	0x3d10f1d6	0.035386883
185	0x3c2ee188	0.010673888
186	0x3c6a5218	0.014301799
187	0xbd13b543	-0.036061537
188	0xbd0f77f1	-0.035026494
189	0xbd1745f2	-0.03693194
190	0x3b9e666b	0.0048339865
191	0x3d17c69a	0.037054636
192	0xbd27ed0b	-0.040997546
193	0xbd0dd36d	-0.03462546
194	0x3d1bc995	0.03803404
195	0xbd028e2c	-0.031873867
196	0x3c73040d	0.014832509
197	0x3d034ca8	0.032055527
198	0xbc9b146a	-0.018930633
199	0x3cff16a1	0.03113872
200	0xbc998e13	-0.018744504
201	0x3c23c085	0.009994631
202	0xbc439d89	-0.011939415
203	0xbd14a717	-0.03629216
204	0x3b7f4285	0.003894956
205	0x3d2254de	0.039631717
206	0x3d066bfc	0.032817826
207	0x3c9d7696	0.019221585
208	0xbb3e14c8	-0.0029004086
209	0x3cdd2057	0.02699296
210	0x3d244f8e	0.04011493
211	0x3cb652fc	0.022256367
212	0x3d020690	0.03174454
213	0x3b29a410	0.0025885142
214	0xbd20a1e4	-0.03921689
215	0x3d222f60	0.03959596
216	0xbce4e13e	-0.027939435
217	0x3c08a624	0.008340392
218	0xbc3108f8	-0.010805361
219	0xbd1c576b	-0.038169306
220	0x3c4d58d6	0.012533387
221	0x3c31ae74	0.0108448155
222	0x3c4e116b	0.012577395
223	0xbc0ac6f0	-0.008470282
224	0x3cd41120	0.025887072
225	0x3d17b7ed	0.03704064
226	0x3d1ed4ad	0.038777042
227	0xbccaf1b2	-0.024773452
228	0xbc0017d3	-0.00781818
229	0xbcd01b8f	-0.025403766
230	0x3c5c39de	0.013441531
231	0xbd1a2502	-0.03763295
232	0xbce97540	-0.028498292
233	0x3ca44c5b	0.02005594
234	0x3ccc4a87	0.024937881
235	0x3d204627	0.039129402
236	0x3d12f44c	0.03587751
237	0x3b5dc260	0.003383778
238	0xbbe21c52	-0.0069003487
239	0x3caac948	0.020847932
240	0x3c1512a1	0.00909868
241	0xba0cee20	-0.00053760596
242	0xbc588d3a	-0.013217265
243	0x3bf2d7d2	0.0074109817
244	0x3becfb59	0.0072321114
245	0xbbe9304a	-0.007116352
246	0xbb8f1365	-0.0043663257
247	0xbcec7cb0	-0.02886805
248	0x3c21ec27	0.009882963
249	0x3cf47ac5	0.029843697
250	0xbc9eb12e	-0.019371595
251	0x3b3daad0	0.0028940924
252	0x3caabe24	0.02084262
253	0xbd25fcb8	-0.040524215
254	0xbaebfe20	-0.0018004812
255	0x3c8ac836	0.016941171

fc1.bias f4 [256]
0	0x3d201452	0.03908188
1	0xbd1e48d3	-0.03864367
2	0x3b5df520	0.003386803
3	0x3c0ac7ef	0.008470519
4	0xbbec12d0	-0.007204391
5	0xbd12c6b1	-0.03583402
6	0x3cf77cfa	0.03021096
7	0xbbab59b5	-0.0052292
8	0x3c19f4f0	0.009396777
9	0x3d2f9f2d	0.04287641
10	0x3cdfd69c	0.027324013
11	0x3c2d2237	0.0105672395
12	0x3c13fd0c	0.009032499
13	0xbb194e29	-0.0023392534
14	0xba4658c6	-0.0007566329
15	0xbb060df0	-0.0020455085
16	0xbcc95cdf	-0.024580417
17	0xbd175748	-0.036948472
18	0x3c2c1848	0.010503836
19	0x3cc4d4bc	0.02402722
20	0xbd0a6327	-0.033785965
21	0xbb852020	-0.0040626675
22	0xbcf85e7a	-0.030318487
23	0xbac32095	-0.001488703
24	0x3d1c7349	0.038195882
25	0x3c340994	0.010988612
26	0x3cc35611	0.02384475
27	0x3bbdab56	0.005788247
28	0xbc254240	-0.010086596
29	0xbc5deb2b	-0.013544838
30	0x3d24d86c	0.04024546
31	0xbc16fb4b	-0.009215186
32	0xbb667d0d	-0.003516975
33	0xbc73d93a	-0.014883334
34	0x3baced94	0.005277345
35	0xbc9c1231	-0.019051643
36	0x3c0eff29	0.008727827
37	0xbd14e4c0	-0.036350965
38	0xbc92a637	-0.017901523
39	0xbd256560	-0.04037988
40	0x3cf41164	0.029793449
41	0x3c4b4ba4	0.012408171
42	0xbd0ae00d	-0.033905078
43	0xbbbe37d8	-0.005804997
44	0x3c901356	0.017587345
45	0x3bca758d	0.006178564
46	0x3b1ee408	0.0024244804
47	0x3c9b52ca	0.018960375
48	0x3c583518	0.013196252
49	0x3ce7e099	0.028305339
50	0x3cb43090	0.021995813
51	0xbd0d1f45	-0.03445365
52	0xbbb93b66	-0.005652833
53	0xbcd46ee7	-0.025931789
54	0xbcca289d	-0.024677569
55	0xbc6bc288	-0.014389642
56	0x3c48a318	0.012245916
57	0x3c011457	0.007878385
58	0x3d0731b6	0.033006392
59	0x3c914577	0.017733319
60	0xbd238418	-0.039920896
61	0xbc41776a	-0.011808256
62	0x3d16126c	0.036638662
63	0xbcd31ead	-0.025771463
64	0xbc02df84	-0.007987861
65	0x3bd9d5a6	0.0066477833
66	0xbcde66fa	-0.027148712
67	0xbb9046b8	-0.0044029616
68	0xbc99d276	-0.018777113
69	0x3d19471c	0.03742133
70	0x3d124f58	0.0357202
71	0x3ba456e0	0.005015239
72	0xbd0a62ff	-0.033785816
73	0x3b4a6c20	0.0030887201
74	0x3bdfd9d8	0.006831389
75	0xbcebae79	-0.028769718
76	0xbb35d16e	-0.0027743238
77	0x3c9a183f	0.01881039
78	0xbd253818	-0.0403367
79	0x3b4c5af0	0.0031182133
80	0xbca950a2	-0.020668332
81	0xbcc779a1	-0.02434999
82	0x3b5bd901	0.0033546092
83	0x3ccad455	0.02475945
84	0xbb1a7e30	-0.0023573749
85	0x3d12a146	0.035798334
86	0xbd22526e	-0.039629392
87	0xbd11aee0	-0.035567164
88	0x3d1f118f	0.038835105
89	0x3bf76328	0.007549662
90	0x3ad43300	0.0016189516
91	0x3cb708f0	0.022343129
92	0xbca6f2e1	-0.020379486
93	0x3c575305	0.013142352
94	0xbd01e53c	-0.031712756
95	0xbcb99b98	-0.0226572
96	0xbcf3713a	-0.029717077
97	0xbd05c4ae	-0.03265827
98	0xbd1cab10	-0.038249075
99	0xbd29af01	-0.041426662
100	0xbbafadb1	-0.005361282
101	0x3c8583fe	0.01629829
102	0xbd262f33	-0.040572356
103	0xbc8122f0	-0.01576373
104	0x3d250956	0.040292107
105	0xbc520cc4	-0.012820426
106	0x3cef9eb4	0.02925048
107	0x3d1e12e0	0.03859222
108	0xbd018c73	-0.031628083
109	0x3caab461	0.020837964
110	0xbc9c9ce4	-0.01911778
111	0xbd07a50f	-0.033116397
112	0x3d0e2b3a	0.034709193
113	0x3c3eb218	0.011639141
114	0xbd1ecb1a	-0.03876791
115	0xbd131d72	-0.035916753
116	0xbca531ea	-0.020165402
117	0xbcfcf639	-0.030879127
118	0x3c063840	0.008192122
119	0xbc1367a0	-0.008996874
120	0x3cfeb0e1	0.031090202
121	0x3d20acc8	0.039227277
122	0xbc91252d	-0.017717922
123	0x3cbb8848	0.022892132
124	0xbbb80ede	-0.0056170067
125	0x3cabd560	0.020975769
126	0xbcb73c8f	-0.022367744
127	0x3d034436	0.032047473
128	0x3cc7d2e2	0.024392549
129	0xbca64277	-0.020295365
130	0xbd1ec0e7	-0.038758185
131	0x3cb2083c	0.021732442
132	0xbc9f07f5	-0.019412974
133	0x3ca6f594	0.020380773
134	0x3bfa0a25	0.007630604
135	0xbc690e22	-0.014224561
136	0x3ba1f680	0.004942715
137	0xbd2ba9ca	-0.04190997
138	0xbc9283c9	-0.017885106
139	0x3d2a4348	0.04156807
140	0x3d2815c4	0.041036382
141	0xba3d1a6e	-0.0007213716
142	0x3d2d22b0	0.04226941
143	0x3d1440bf	0.03619456
144	0x3d230518	0.03979978
145	0xbcd790a4	-0.026314087
146	0xbd2767ef	-0.040870603
147	0xbd0b532c	-0.034014866
148	0x3d1d7dbc	0.038449988
149	0xbc213298	-0.009838723
150	0x3d0d0571	0.034429017
151	0xbd0d9423	-0.034565102
152	0xbd1da43c	-0.038486704
153	0xbc7f8fbc	-0.015598234
154	0x3a93b2a0	0.0011268444
155	0xbcdf79da	-0.027279783
156	0xbd16b2aa	-0.03679148
157	0xbd22e295	-0.039766867
158	0xbcde014c	-0.027100228
159	0x3c49a4aa	0.012307325
160	0x3cab6392	0.020921502
161	0x3d2fae0b	0.04289059
162	0x3a85e920	0.0010216571
163	0x3bb2f55c	0.005461378
164	0x3cef3a98	0.029202744
165	0xbb1d5d32	-0.0024011848
166	0xbd042ac5	-0.03226735
167	0xbb1938aa	-0.0023379722
168	0x3c2f6690	0.010705605
169	0xbcc4265d	-0.023944074
170	0xba9cffd1	-0.0011978095
171	0x3c8db1e4	0.017296739
172	0x3cfa7fa4	0.030578442
173	0xbd124b57	-0.03571638
174	0x3cc377a4	0.02386076
175	0xbd0581da	-0.03259454
176	0x3c199513	0.009373921
177	0xbcb8f268	-0.022576526
178	0x3bf62aa0	0.0075124055
179	0xbcaa47bc	-0.020786159
180	0x3cefa098	0.029251382
181	0xbd23e4f4	-0.04001327
182	0x3cb3523e	0.021889802
183	0xbcd90d4f	-0.026495604
184	0xbcb7ad18	-0.022421405
185	0x3cdaa7ad	0.026691282
186	0x3b3f5220	0.0029193237
187	0x3cb3aeac	0.021933876
188	0x3cbccb47	0.023046149
189	0xbc99fc33	-0.018797016
190	0x3c9284af	0.017885534
191	0xbc3e441e	-0.01161292
192	0x3cfb57c0	0.03068149
193	0xbbc9af70	-0.006154947
194	0x3d010f1d	0.031508554
195	0xbd10658a	-0.035253085
196	0x3c9049df	0.01761335
197	0xbd144c56	-0.036205612
198	0xbd14e36c	-0.0363497
199	0x3c4c3a30	0.012465045
200	0xbc45877f	-0.012056231
201	0xb9f52ca0	-0.0004676329
202	0x3bd2c4f0	0.006432168
203	0xbb5e90ca	-0.0033960813
204	0xbc18eb8d	-0.009333503
205	0x3bad00e0	0.0052796453
206	0x3c4cc7bc	0.012498792
207	0x3ca5a81d	0.020221764
208	0xbd0e4253	-0.03473122
209	0x3d152fb0	0.03642243
210	0xbbdd5310	-0.0067542866
211	0x3bb7423c	0.0055926125
212	0x3cf31bd5	0.029676357
213	0xbc8e327d	-0.017358059
214	0x3b103e04	0.002200962
215	0xbcefb844	-0.02926267
216	0xbc8fee1a	-0.01756959
217	0x3ba9237a	0.0051617
218	0xbd2528a1	-0.04032195
219	0xbca2ea17	-0.019887013
220	0x3d328724	0.04358591
221	0xbc9ca563	-0.019121831
222	0xbd286fe0	-0.041122317
223	0xb9b49f02	-0.00034450745
224	0x3c7bdd28	0.015372552
225	0xbd167fe1	-0.03674305
226	0x3c37afdc	0.011211362
227	0xbacd0320	-0.001564119
228	0xbcc99cc3	-0.024610883
229	0x3d2ab6d2	0.041678257
230	0x3cda5f69	0.026656823
231	0x3cf958c0	0.030437827
232	0x3ceae18b	0.028672
233	0xbc45fceb	-0.012084226
234	0x3c18965c	0.009313192
235	0xbc625f98	-0.013816737
236	0x3cab4c68	0.020910457
237	0xbc8a7f52	-0.016906414
238	0x3cc87c13	0.024473226
239	0xbc9d574d	-0.019206667
240	0xbc9fce48	-0.019507542
241	0x3c9163ea	0.017747838
242	0x3d28d7d3	0.04122145
243	0xbbe03700	-0.006842494
244	0xbc8805ed	-0.016604388
245	0xbc27c852	-0.010240631
246	0xbd231cbe	-0.039822333
247	0xbd15d2c3	-0.03657795
248	0x3b08a0e0	0.0020847842
249	0x3ceff959	0.029293703
250	0x3b9da943	0.0048114373
251	0xbbf8aca2	-0.007588939
252	0x3c7e73d9	0.01553055
253	0xbcd26b78	-0.02568601
254	0x3d1ee28a	0.038790263
255	0x3c5a28d1	0.013315395

fc2.weight f4 [128, 256]
0	0xbd2d0f3c	-0.042250857
1	0xbd43c914	-0.047799185
2	0x3d4a3b70	0.04937309
3	0xbc683cd1	-0.014174656
4	0x3aabc3c0	0.0013104603
5	0xbc998c84	-0.01874376
6	0xbc45d06c	-0.012073617
7	0xbccfedde	-0.025381979
8	0xbb13bf20	-0.002254434
9	0x3d12720b	0.03575329
10	0xbd3d128a	-0.04616026
11	0xba9295ce	-0.0011183561
12	0x3c130f5c	0.00897583
13	0xbc92dc0b	-0.01792719
14	0x3d62cb10	0.055369437
15	0xbd504888	-0.05085042
16	0xbb1e746c	-0.002417828
17	0x3c3c3e92	0.011489527
18	0xbce2deba	-0.027694095
19	0x3d69464a	0.0569518
20	0x3bd8a92f	0.006611965
21	0xbd5b063e	-0.05347275
22	0xbc427798	-0.011869334
23	0xbd1fdf04	-0.039031044
24	0xbcd91b40	-0.026502252
25	0xbaa98200	-0.001293242
26	0x3d62c34f	0.055362042
27	0xbd2fc2bb	-0.04291032
28	0xbd0e490a	-0.034737624
29	0x3cf703ee	0.030153241
30	0x3d517190	0.051133692
31	0x3a346c8d	0.00068826304
32	0xbcf54485	-0.0299399
33	0xbcb30d90	-0.021857053
34	0xbd63b255	-0.055589993
35	0xbd1af565	-0.037831683
36	0x3c4d66f4	0.012536753
37	0xbb87df30	-0.004146479
38	0x3c25d408	0.010121353
39	0xbb904702	-0.004402996
40	0x3ccca7a9	0.02498229
41	0xbd2c0172	-0.041993566
42	0xbd389d45	-0.04507186
43	0x3d7d3bc4	0.061824575
44	0x3d1e69a4	0.038674966
45	0xbd283100	-0.041062355
46	0xbba932f3	-0.0051635443
47	0xbc9dd3c1	-0.019266011
48	0x3c9e673c	0.019336335
49	0xbd5d1325	-0.053973336
50	0xbaac78b3	-0.001315853
51	0xbd6b1520	-0.057393193
52	0x3d6ac678	0.05731818
53	0xbd41e151	-0.04733402
54	0xbc0cbcde	-0.008589951
55	0x3d5b174a	0.053489007
56	0xbc252958	-0.010080658
57	0xbd257d65	-0.04040279
58	0x3d5421e0	0.05179012
59	0xbd5f0ed0	-0.054457486
60	0xbc603590	-0.013684645
61	0xbcf0be64	-0.02938766
62	0xbd528218	-0.0513936
63	0xbca9d497	-0.020731254
64	0x3d58f0d2	0.05296404
65	0xbc1d0ee3	-0.009586069
66	0xbd36420e	-0.04449659
67	0x3c446700	0.011987448
68	0x3b71a44a	0.0036871606
69	0xbc7b0b65	-0.015322541
70	0xbd00c499	-0.03143749
71	0xbcc49a4c	-0.023999356
72	0xbd1536e0	-0.036429286
73	0xbc73b518	-0.014874719
74	0x3d17b5ea	0.03703872
75	0x3b84c250	0.004051484
76	0x3cfe8610	0.031069785
77	0xbd4cb793	-0.049979758
78	0x3b708a3f	0.0036703495
79	0x3c8c4414	0.017122306
80	0xbd180031	-0.037109558
81	0x3c693def	0.0142359575
82	0xbd70ae5d	-0.058760036
83	0xbcdd57b8	-0.027019367
84	0x3b933b90	0.0044931844
85	0x3beb4aff	0.007180571
86	0xbd199860	-0.03749883
87	0xbd72913c	-0.059220538
88	0xbd1a61ea	-0.037691034
89	0xbd77d45c	-0.060505256
90	0x3d5fab1a	0.054606535
91	0xbd746260	-0.05966413
92	0x3cbe87e4	0.023258157
93	0x3c81066e	0.015750136
94	0xbd227870	-0.03966564
95	0xbcb580f0	-0.022156209
96	0x3d183556	0.03716024
97	0x3d37f6c5	0.044913072
98	0x3cb23aa4	0.021756478
99	0xbc5dff1b	-0.013549591
100	0xbb0dabd6	-0.0021617315
101	0x3d693950	0.056939423
102	0xbd5b08d4	-0.053475216
103	0x3cb6694c	0.022267006
104	0xbbe5bbfc	-0.007010935
105	0xbc9438c8	-0.018093482
106	0xbcb9b8fc	-0.022671215
107	0x3d37d952	0.044884987
108	0xbceab6ec	-0.028651677
109	0x3d5b4c85	0.05353977
110	0xbd30370e	-0.043021254
111	0xbcec1da3	-0.028822726
112	0xbd5b1bbe	-0.053493254
113	0xbd62729e	-0.05528509
114	0xbce686d4	-0.028140463
115	0xbc9a0b6c	-0.018804274
116	0x3cd51b87	0.026014103
117	0x3c6081fa	0.013702864
118	0xbd3b4c30	-0.045726955
119	0xbd30b81c	-0.04314433
120	0xbcf79c15	-0.030225793
121	0xbd31865a	-0.04334102
122	0xbc85aa8c	-0.016316675
123	0x3c9f0cef	0.019415347
124	0xbc4243c8	-0.011856981
125	0xbd50794b	-0.050896924
126	0x3bde3144	0.0067807753
127	0x3d214948	0.039376527
128	0xbd59341b	-0.053028207
129	0x3b186120	0.002325125
130	0xbd178ab2	-0.036997505
131	0x3d4c9ed4	0.049956158
132	0x3c8931ff	0.016747473
133	0x3ce102a5	0.027467081
134	0xbc0640fe	-0.008194206
135	0x3d182c97	0.0371519
136	0xbd4a0310	-0.049319327
137	0x3d68a2f8	0.056796044
138	0x3d5d0b42	0.053965814
139	0x3d442b5e	0.04789292
140	0x3c27eba0	0.0102490485
141	0xbd4ea838	-0.050453395
142	0x3c8f822e	0.01751813
143	0xbd595c46	-0.053066514
144	0xbd72e441	-0.05929971
145	0xbc2e5830	-0.010641143
146	0xbd508154	-0.050904587
147	0xbce237a8	-0.02761443
148	0xbc91e778	-0.017810568
149	0xbbd70210	-0.006561525
150	0xbcff11cc	-0.031136416
151	0x3d0bd48a	0.03413824
152	0x3cc7209c	0.024307542
153	0xbd7fdfc9	-0.062469278
154	0xbd520246	-0.0512717
155	0x3c957d78	0.018248305
156	0x3d40debc	0.047087416
157	0xbd5f154a	-0.054463662
158	0x3d602ade	0.05472838
159	0x3d3ff6de	0.04686629
160	0xbd4a313f	-0.04936337
161	0x3d68d987	0.056848075
162	0x3c649af0	0.013952956
163	0x3d242dc4	0.040082708
164	0xbd4c1f50	-0.04983455
165	0xbab8a3f4	-0.0014086948
166	0x3d0b32e3	0.033984076
167	0x3c3c794d	0.01150353
168	0xbcf472bb	-0.029839864
169	0xbcef5810	-0.029216796
170	0xbd7988e4	-0.060921565
171	0x3d7d0519	0.06177244
172	0xbc5a6c10	-0.013331428
173	0x3c222938	0.009897523
174	0x3d7b5705	0.061362285
175	0x3d3954fa	0.045247056
176	0xbd61034d	-0.05493479
177	0x3c3a4610	0.011369243
178	0xbd2abe24	-0.04168524
179	0x3c71c111	0.014755503
180	0xbbe746a0	-0.0070579797
181	0xbd5d0f70	-0.0539698
182	0xbc2cc108	-0.010544069
183	0x3d360fa2	0.044448502
184	0xbce8d8e8	-0.028423741
185	0x3c901a73	0.017590737
186	0x3b0ae020	0.0021190718
187	0x3caeb4e4	0.02132649
188	0x3d0f28fc	0.034951195
189	0x3ce8900b	0.028388998
190	0xbc3f3224	-0.011669669
191	0xbd1fd476	-0.039020978
192	0xbd49b1ab	-0.049241703
193	0x3c0dfaa8	0.008665718
194	0x3cf7c19b	0.030243685
195	0x3c16e3b6	0.009209564
196	0x3c972634	0.018450834
197	0xbc17373a	-0.009229476
198	0x3d21888a	0.039436854
199	0xbd04c626	-0.03241553
200	0xbc9541bb	-0.01821982
201	0x3d322f33	0.043502044
202	0xbc527fa0	-0.012847811
203	0x3c9238e2	0.01784939
204	0xbd08827b	-0.03332756
205	0xbb2bfee0	-0.0026244447
206	0x3d6ef616	0.058340155
207	0xbd687a85	-0.05675747
208	0xbd352d5a	-0.044232704
209	0x3d19edc9	0.037580285
210	0x3d3fef3c	0.04685901
211	0xbd10576d	-0.035239626
212	0x3d8287c3	0.06373551
213	0xbd6935e8	-0.056936175
214	0xbcc8bdeb	-0.024504622
215	0x3c3dda76	0.01158773
216	0x3d4ce322	0.0500213
217	0x3cfbb3ef	0.030725447
218	0xbd2cec8c	-0.042217776
219	0xbc8bac7b	-0.017050019
220	0x3b559f72	0.0032596258
221	0xbbd85500	-0.0066019297
222	0xbb893e30	-0.0041883215
223	0x3bee0090	0.0072632506
224	0x3d6d35b5	0.057912547
225	0xbbf0971f	-0.007342234
226	0xbc99daa8	-0.018781021
227	0x3d2f6a76	0.04282614
228	0x3d2012fd	0.03908061
229	0x3d63e629	0.05563942
230	0x3d299b6e	0.041407995
231	0xbc7d3868	-0.015455343
232	0xbd262aaf	-0.04056805
233	0x3d7d5914	0.06185253
234	0xbd632f3a	-0.05546496
235	0x3d0aa4ae	0.033848457
236	0x3d49c9fa	0.049264885
237	0x3d7c97d2	0.061668225
238	0x3d447b3d	0.04796909
239	0xbc0fc8a8	-0.0087758675
240	0x3d10bd22	0.03533662
241	0xbb68f375	-0.0035545502
242	0xbd0e2b3c	-0.0347092
243	0xbd2b5ac4	-0.041834608
244	0x3d2c1bee	0.042018823
245	0xbd623384	-0.05522491
246	0x3be0b021	0.0068569337
247	0x3d267be6	0.040645503
248	0x3cf9eaa4	0.030507393
249	0xbd236852	-0.03989441
250	0x3cb72c16	0.022359889
251	0x3d013917	0.031548586
252	0xbd14c61c	-0.036321744
253	0x3d6c68ce	0.057717137
254	0xbd47aba6	-0.04874768
255	0x3d01ff6d	0.031737734

fc2.bias f4 [128]
0	0x3d4cdc14	0.05001457
1	0xbd716724	-0.058936253
2	0xbd37cf94	-0.044875696
3	0xbcea1c28	-0.02857788
4	0x3d75e661	0.06003416
5	0xbd46fc63	-0.04858054
6	0x3c192690	0.009347573
7	0xbd43f7e8	-0.047843844
8	0xbb487a4e	-0.0030590477
9	0xbd6c5c6e	-0.057705335
10	0x3c052213	0.0081258
11	0xbd54d572	-0.05196137
12	0x3ba9cdfb	0.0051820255
13	0xbd063a23	-0.032770287
14	0x3c846a96	0.016164105
15	0x3c599a5b	0.01328143
16	0x3d534b3e	0.05158543
17	0x3d0a2e65	0.03373565
18	0x3d52c671	0.05145878
19	0x3c022a33	0.007944631
20	0x3c9b5fdf	0.018966613
21	0x3c910b8c	0.017705701
22	0x3d434ad0	0.04767877
23	0xbc349b42	-0.0110233445
24	0xbd1bbab2	-0.038019843
25	0x3c9f92e1	0.019479217
26	0xbcf80c50	-0.030279309
27	0x3ba2c7e9	0.004967679
28	0x3cdb8be2	0.0268001
29	0xbb601400	-0.0034191608
30	0xbcf3318c	-0.029686712
31	0x3d806b23	0.06270435
32	0x3d031535	0.032002646
33	0x3d44820b	0.04797558
34	0xbc0287f6	-0.007966986
35	0xbcfe3d2c	-0.031035028
36	0xbc15ae2e	-0.009135766
37	0x3d0b2298	0.033968538
38	0x3d0da19a	0.034577943
39	0xbbe1e2d8	-0.006893497
40	0x3d073b3e	0.033015482
41	0xbd4be8c8	-0.049782544
42	0xbd55cce0	-0.052197337
43	0xbc72fbc8	-0.014830537
44	0x3d600c62	0.05469931
45	0x3c40476e	0.01173578
46	0xbd226fa4	-0.03965725
47	0xbaaada52	-0.0013035035
48	0x3d2ff3f8	0.042957276
49	0x3d1273ef	0.035755094
50	0xbd695686	-0.05696728
51	0xbd090dfc	-0.033460602
52	0xbb07ea60	-0.0020739064
53	0xbd546e56	-0.051863037
54	0xbcdcd5c8	-0.026957408
55	0x3d0aef6b	0.033919733
56	0x3d5a25c0	0.053258657
57	0x3d88cfd4	0.06680265
58	0x3d7da376	0.061923467
59	0xbc3373d0	-0.010952905
60	0x3d010f87	0.03150895
61	0xbd1c9de4	-0.038236514
62	0x3d20dba4	0.039271966
63	0xbcfebbd1	-0.031095417
64	0x3cb16ac3	0.021657353
65	0xbc69d290	-0.014271393
66	0xbc7e4248	-0.015518732
67	0x3d0b1da6	0.03396382
68	0xbbf6da50	-0.007533349
69	0x3cb21f67	0.02174349
70	0x3d5bd22d	0.053667236
71	0x3d7cd2f3	0.061724614
72	0x3b996122	0.0046807686
73	0x3d14ae87	0.036299255
74	0xbd3e12fa	-0.046404816
75	0xbd0fcdcf	-0.035108384
76	0x3cb63f5a	0.022247005
77	0x3d6adf39	0.057341788
78	0x3d324490	0.043522418
79	0x3cab64b2	0.020922039
80	0x3c703c70	0.014662847
81	0x3c36b599	0.011151695
82	0xbd7f1f18	-0.062285513
83	0x3cc4a83a	0.024005998
84	0x3c6b204a	0.01435096
85	0x3c133f65	0.008987282
86	0x3d7c71c2	0.061631925
87	0x3d53619c	0.05160676
88	0x3d26e7d9	0.04074845
89	0x3d51f5eb	0.051259916
90	0xbbc430b0	-0.0059872493
91	0xbbdf1b85	-0.0068087005
92	0xbc9af908	-0.018917575
93	0xbd3fc324	-0.04681696
94	0xbceb0b66	-0.028691959
95	0x3d8259c6	0.06364779
96	0x3d519d36	0.05117532
97	0x3cc1ea95	0.023671428
98	0xbd11d9b8	-0.035608023
99	0xbce6e75b	-0.02818649
100	0xbd263967	-0.040582087
101	0xbcd3f220	-0.02587229
102	0xbbdaedd1	-0.006681182
103	0xbd0a5460	-0.033771873
104	0xbd19c2d5	-0.037539322
105	0xbb5674d6	-0.0032723448
106	0x3ca3ea94	0.020009317
107	0x3d35998a	0.04433588
108	0x3c6c31e8	0.014416195
109	0xbc5ed568	-0.013600685
110	0x3c683838	0.01417356
111	0x3cedc6ed	0.02902552
112	0xbd55cffc	-0.052200302
113	0xbc9be466	-0.019029807
114	0x3d11b79f	0.035575505
115	0xbd7b09a0	-0.061288476
116	0x3d1fc967	0.03901043
117	0x3d22dff1	0.03976435
118	0xbc3dcf23	-0.01158503
119	0x3d6d43c2	0.057925947
120	0xbcef66f4	-0.029223897
121	0x3b8c0306	0.0042728214
122	0xbd21b088	-0.039474994
123	0x3cf170a5	0.029472658
124	0xbc88dae8	-0.016705945
125	0xbba72b87	-0.0051016244
126	0x3d3c4e2b	0.045972984
127	0xbcca0a90	-0.02466324

fc3.weight f4 [10, 128]
0	0xbc5413fa	-0.012944216
1	0x3d7465c6	0.05966737
2	0xbd850233	-0.0649456
3	0xbd9b3bb6	-0.07579748
4	0xbd57aeea	-0.052657045
5	0xbd63acba	-0.055584647
6	0xbd27f481	-0.04100466
7	0x3c941f50	0.018081337
8	0xbd9e47d5	-0.077285446
9	0x3bedc3f0	0.0072560236
10	0xbbe118b2	-0.006869399
11	0x3c7cff30	0.015441701
12	0x3d87d673	0.066327
13	0x3d969a05	0.07353596
14	0xbc235b7c	-0.009970542
15	0xbcc8e4b1	-0.024523111
16	0xbd688767	-0.056769755
17	0xbd457ec5	-0.0482166
18	0x3cd2dcee	0.025740113
19	0x3d7a9012	0.061172552
20	0x3db26921	0.08711458
21	0xbd676eb0	-0.056502044
22	0x3d13fa68	0.036127478
23	0x3c07a354	0.008278687
24	0xbd7e8cdc	-0.062146053
25	0x3cea32fa	0.02858876
26	0x3d9a8045	0.07543997
27	0x3c4d046f	0.012513264
28	0x3c5fc78e	0.013658417
29	0xbcdc2118	-0.02687125
30	0x3d223aea	0.039606966
31	0xbd1831e1	-0.037156943
32	0x3d37b608	0.044851333
33	0xbcde309c	-0.027122788
34	0xbcd66b3e	-0.026174184
35	0x3d12fd04	0.035885826
36	0xbcb77b58	-0.022397682
37	0x3db40d0b	0.0879155
38	0x3d8baee4	0.06820467
39	0xbd58e6bb	-0.052954417
40	0xbdaf6f2a	-0.08566125
41	0xbd328bf8	-0.043590516
42	0xbda263bf	-0.07929181
43	0x3c4ce970	0.012506828
44	0xbd8da63d	-0.06916473
45	0xbd84affe	-0.0647888
46	0x3cad3184	0.021141775
47	0xbd89928c	-0.06717405
48	0xbd322919	-0.043496225
49	0x3db86cec	0.0900515
50	0xbb1d83e0	-0.0024034902
51	0x3c6210a8	0.0137979165
52	0x3d13de69	0.03610078
53	0xbc032a58	-0.008005701
54	0x3d652162	0.05594004
55	0xbd971950	-0.07377875
56	0x3d8d0425	0.06885556
57	0x3cdffeb1	0.027343126
58	0xbd2c6248	-0.042085916
59	0xbda58df2	-0.080837145
60	0xbd130f33	-0.035903167
61	0x3d5ede9e	0.054411523
62	0xbd2befb5	-0.04197665
63	0xbd63b487	-0.055592086
64	0xbcad7ef3	-0.021178698
65	0xbd40229d	-0.04690801
66	0x3cdb7e9c	0.02679377
67	0xbd30bd4f	-0.04314929
68	0xbd3d3657	-0.0461944
69	0x3dacf5f9	0.08445353
70	0x3cc20f87	0.023689045
71	0x3d39e9fb	0.045389157
72	0x3d8ee01a	0.06976338
73	0x3d8e7988	0.06956774
74	0x3d9fe5bf	0.078074925
75	0x3dacc5f1	0.08436192
76	0x3d088fa0	0.033340096
77	0x3c595c89	0.013266691
78	0x3d7249b6	0.059152327
79	0xbd9faec5	-0.077970065
80	0x3a0a0fbc	0.0005266627
81	0x3d3b99fc	0.045801148
82	0x3c8c7f78	0.017150626
83	0xbd97d75d	-0.07414124
84	0xbd206d3a	-0.039166667
85	0xbda36936	-0.07979052
86	0x3d3ce5d5	0.046117622
87	0x3d3f946d	0.04677241
88	0x3bac686d	0.005261472
89	0x3cd2eb79	0.025747048
90	0xbd190675	-0.037359674
91	0xbca8149b	-0.020517638
92	0xbd972d9b	-0.073817454
93	0xbc16f750	-0.009214237
94	0x3dad669d	0.084668376
95	0xbd676df0	-0.05650133
96	0x3b9cf686	0.00479013
97	0xb8375ab6	-4.371508e-05
98	0xbd7602c4	-0.06006123
99	0x3b30a77f	0.0026955304
100	0xbd32c587	-0.043645408
101	0x3da12157	0.07867687
102	0x3bb10c75	0.0054030963
103	0x3d019ee2	0.031645663
104	0x3d999ee4	0.07501009
105	0xbd0e18b4	-0.034691527
106	0x3c1779c0	0.009245336
107	0x3ce7197f	0.0282104
108	0xbb0bec40	-0.0021350533
109	0x3cf32a48	0.029683247
110	0x3d54984a	0.051903047
111	0x3d363926	0.044488095
112	0x3d978fd3	0.07400479
113	0x3d60b1ed	0.054857183
114	0x3d910a22	0.07082011
115	0x3c8c8ff0	0.017158478
116	0x3d9b0eda	0.07571192
117	0xbd4a6134	-0.049409106
118	0x3bf44fb6	0.0074557913
119	0xbbe39782	-0.0069455514
120	0x3d666eda	0.05625806
121	0xbdaa0da2	-0.083033815
122	0xbd620571	-0.05518097
123	0x3d4a5006	0.049392723
124	0x3d2c880e	0.04212194
125	0x39eeb6a8	0.00045530987
126	0x3d6d9568	0.058003813
127	0x3c7e7828	0.015531577
128	0x3d8848d8	0.06654519
129	0x3d9da2ab	0.07697042
130	0x3d198f29	0.037490044
131	0xbdb26e39	-0.087124296
132	0xbbc9d646	-0.0061595766
133	0xbd84bb94	-0.0648109
134	0x3d3f92ce	0.046770863
135	0xbd8f4544	-0.06995633
136	0xbd55deb2	-0.052214332
137	0xbd287277	-0.041124787
138	0x3d9baa2c	0.07600817
139	0xbb873260	-0.004125878
140	0xbc4bbd01	-0.012435199
141	0x3d3f9d5f	0.04678094
142	0xbd994a2f	-0.074848525
143	0xbc86667d	-0.016406292
144	0x3b98d339	0.0046638516
145	0xbac5a55f	-0.0015079192
146	0xbc329cad	-0.010901612
147	0xbd9be54b	-0.076120935
148	0xbd28fb6a	-0.041255392
149	0x3dabf55e	0.083964095
150	0xbcd9cd66	-0.0265872
151	0x3d897416	0.06711595
152	0x3d8418ad	0.06450019
153	0xbc61011e	-0.0137331765
154	0xbd397f80	-0.04528761
155	0x3d439736	0.047751628
156	0x3da63876	0.08116238
157	0xbc816a44	-0.015797742
158	0xbd46112e	-0.048356228
159	0xbda85106	-0.08218579
160	0xbd9894e4	-0.07450274
161	0x3c54d046	0.012989109
162	0x3d2459e3	0.040124785
163	0xbd921e4a	-0.071346834
164	0x3bb7e274	0.005611712
165	0x3d8fd14b	0.07022341
166	0x3b8feff4	0.0043926183
167	0xbc7f439f	-0.015580087
168	0x3d425308	0.047442466
169	0x3c7f5478	0.015584104
170	0x3c7105f3	0.014710891
171	0x3d7a23da	0.061069347
172	0xbd8a7b7d	-0.06761835
173	0x3d6d83db	0.057987075
174	0xbdb2cdfa	-0.08730693
175	0xb9f2ff97	-0.00046348266
176	0x3d8d889e	0.06910823
177	0x3da838a5	0.08213929
178	0xbd87d970	-0.0663327
179	0xbccf5108	-0.025307193
180	0xbd2388d5	-0.039925415
181	0xbd3fe4d7	-0.046849098
182	0xbce41602	-0.027842525
183	0x3d012166	0.03152599
184	0xbcdb26b1	-0.026751848
185	0xbd87e28b	-0.066350065
186	0xbd93b294	-0.072117954
187	0x3c44b800	0.01200676
188	0xbca80cd0	-0.020513922
189	0xbdb0330f	-0.08603489
190	0x3d9d804d	0.07690487
191	0xbd89e9cf	-0.067340486
192	0x3d3817b6	0.044944488
193	0xbbdc59d0	-0.0067245737
194	0x3d21d716	0.039511763
195	0x3ce9f936	0.028561216
196	0x3d76ada6	0.060224198
197	0xbda5673c	-0.08076331
198	0xbd897b57	-0.06712978
199	0x3d4a03be	0.049319975
200	0xbd8fd5bf	-0.07023191
201	0x3caedb36	0.021344762
202	0x3d87a59c	0.06623384
203	0x3d272d32	0.040814586
204	0xbc052fbb	-0.008129056
205	0x3b815ba8	0.003947694
206	0x3d878a4f	0.06618177
207	0xbdb047ff	-0.08607482
208	0xbd2da592	-0.04239423
209	0x3da7faac	0.08202109
210	0x3cdcefe8	0.026969865
211	0x3d19db74	0.037562802
212	0xbda11a48	-0.07866341
213	0xbc8bf05a	-0.017082382
214	0xbdac13fb	-0.084022485
215	0xbc1f3ab1	-0.009718583
216	0x3cd43354	0.025903381
217	0x3caf1172	0.021370623
218	0xbd235b2e	-0.039881878
219	0xbc9be10c	-0.01902821
220	0xbcd4ce82	-0.025977377
221	0xbdb4ad5a	-0.08822127
222	0xbd8245e1	-0.063609846
223	0xbd1c4436	-0.03815099
224	0x3c8da6d0	0.017291456
225	0x3da51e79	0.08062453
226	0xbceb728e	-0.028741147
227	0xbd516e06	-0.051130317
228	0xbd97a276	-0.07404034
229	0xbdac0d78	-0.084010065
230	0xbd20f604	-0.03929712
231	0x3c658740	0.014009297
232	0x3d2665ce	0.040624432
233	0xbda36fc2	-0.079803005
234	0x3d586e32	0.052839465
235	0x3cebc6fb	0.028781405
236	0x3d185796	0.037192903
237	0x3c8b5d7c	0.01701235
238	0xbda3bd00	-0.07995033
239	0xbd3f2a31	-0.046671096
240	0x3c517348	0.012783833
241	0x3ca428b7	0.020038946
242	0xbd186030	-0.037201107
243	0x3da0b9fb	0.07847973
244	0xbc5dfb4b	-0.013548682
245	0xbd536615	-0.051611025
246	0xbc61f4b8	-0.013791256
247	0x3caa4591	0.020785125
248	0xbd943e25	-0.07238416
249	0x3d2dc0d1	0.042420212
250	0x3d029788	0.031882793
251	0xbd753675	-0.059866387
252	0xbda69aeb	-0.08135017
253	0x3d41a2f9	0.047274563
254	0xbd6d2c90	-0.057903826
255	0xbc8cf0bc	-0.017204635

fc3.bias f4 [10]
0	0x3ca7480e	0.0204201
1	0xbbaf298e	-0.00534553
2	0xbaab0a48	-0.0013049329
3	0xbc842480	-0.016130686
4	0xbd620723	-0.055182587
5	0xbc7d51ea	-0.015461424
6	0xbd142a86	-0.036173366
7	0xbd148029	-0.036255036
8	0xbd82c213	-0.06384673
9	0xbcbe7c36	-0.023252588
