checkpoint/ConvNetFlex_ep83.pth (torch, 642439 bytes, 10 tensors)

conv1.weight f4 [128, 3, 3, 3]
00000000: cd05 323e b8cc d83c 0873 193d 5fd2 f8bd
00000010: 783f 3b3d 3f7d 383e 7b13 0a3e b410 093d
00000020: a621 0bbe ca7d dabd 76f8 84bd 2165 433e
00000030: c629 1ebe f04a 21be 62d4 cd3d 55f1 113e
00000040: 0abf 9f3d a999 143e 36fc 8c3d 01d8 3ebe
00000050: 203c 42be caeb 41be 7888 f6bd e8e5 3e3d
00000060: 7961 2b3e 1b48 163e 3ed1 19be 635e b6bd
00000070: 5e09 debd af08 003e 6bce 1e3e 1e7e 37bd
00000080: cf7e 403e f323 dcbb f257 d9bd 00d8 b43c
00000090: e512 a83d 4796 4fbd 2a9d bf3d ff37 0b3e
000000a0: d73b b73c cbb6 0e3e db04 1d3e 8c0f b7bd
000000b0: 00a6 2d3b a957 5fbc 4c5e b8bd d5a6 babd
000000c0: 3693 e2bd c05a 223e 7f0a 0c3e 16dc 8dbd
000000d0: 364e ddbc 7c73 c5bd 84ed 5c3d 7680 02be
000000e0: ba19 26be 5fed 123d 0fbb 433e c319 18be
000000f0: 18e5 a4bc fd6d b13d a5d7 57bd 55b5 c1bd
00000100: 9445 c0bd bbeb 6b3d 194f 103e 179e 503d
00000110: 6940 22bd fd8a 053e 8523 33be 921c fa3d
00000120: 9d87 98bd 233b 8c3a ac0a dbbd 5158 313e
00000130: 0cd0 a83d 7963 7abd a174 393d 6935 07be
00000140: 21d6 783a fa35 89bd 7085 333d 9265 833d
00000150: 7079 f1bc bc6a 6f3d 40a2 d9bb 4cae 09bd
00000160: 5bcb 33be 4635 fa3d 1c21 22bd 1047 9dbd
00000170: abc8 1b3e 5830 2e3d 68f8 f33c f004 433c
00000180: c93c c4bd 0034 cfbb 1735 393e 3373 c0bd
00000190: 4051 063d 2a52 08be 925a cd3d 0d2e 1a3e
000001a0: c278 f4bd 7ee4 883d debb b43d 031e 293e
000001b0: 72e7 8d3d c29d fd3d e25d aa3d 6026 bebb
000001c0: d65b a8bd 3eea b33d ab1d 163e e8aa cfbc
000001d0: 1f3b 3d3e bde4 063e fbd8 9ebd 7f6b 20be
000001e0: abc2 8ebd 3000 d43c e946 27be 9d0e 043e
000001f0: 540e 26bd b952 0bbe 9cab 0d3d e842 b6bc
00000200: 03c7 023e 081e 083d 98c2 53bd 265e eb3d
00000210: 3ee7 fb3d 0f99 213e ced9 863d 0c4f 1ebe
00000220: 9320 93bd 385f 0abe ae93 123e 5673 dabd
00000230: 7f5b afbc e8e3 173e 46ba 33bd 6ad6 2c3e
00000240: 1fb1 393d adcd c6bc 4240 513d 5cd4 dc3d
00000250: 9f50 16be a49a 223d 8e99 3abe 59b1 fbbd
00000260: cb68 0dbe b80c 363e 9a68 99bd 3242 a4bc
00000270: c845 903d 4371 9d3d 8ccf 95bd bcfe 25be
00000280: c931 22be af74 4bbb 2aa6 ea3d c077 2fbd
00000290: a0aa 893c ca2a e93d 0369 39be b867 213e
000002a0: be9b 91bd ebf3 9cbd 1af2 e63d 3164 e6bd
000002b0: 6dfe 1d3e 56dd b53d 1f21 3f3e c549 293e
000002c0: b6b5 b03d fd82 213e 6cd7 b5bd 9af5 1c3e
000002d0: e8ff cfbc f656 b6bd 80a5 6b3c 70d3 283d
000002e0: 047a bdbd c99f eabd c541 373e 0f5a edbd
000002f0: 122a 933d 2f2c 1bbe 8dcb 013e 80be 163b
00000300: 749d 61bd 0dff 92bd c22b 8d3d 5bc7 043e
00000310: 04ca 18be 707e 3a3c 4551 00be 5cf8 26be
00000320: fc28 00be 8775 e63d 5fc7 b23d 401b a6bc
00000330: 5505 e1bd 6cd8 023c ca64 fe3d 19f2 29be
00000340: ec4a 8a3d 76fd 9d3d b11e 2c3e 893c 81bd
00000350: cbd9 0a3e 2d26 b63c 5ab3 8a3d 4868 fb3c
00000360: a60e d93d 60b7 17be 81a6 3dbd 588f 1cbd
00000370: 94e3 073b dc8c 43be 3150 20be 11bb 233e
00000380: 32ad 07be 4064 c5bc 87c3 1fbe 917f 54bd
00000390: 9b8e 193e 7621 353d 87a4 a03d 8510 113e
000003a0: a944 363e 826f 29be 2639 bcbd 090f b53d
000003b0: e1e6 acbb c2d1 d43d 52ad 233e 1e16 233e
000003c0: 665f e83d 53da bbbd b2b0 08be 6f74 273e
000003d0: e70d bdbd 01e6 16bc 6020 4d3d 00c1 37be
000003e0: 78af a5bd 5a10 073c 48a4 0bbe b985 f83c
000003f0: 1b9a a2bd 5e86 a5bc e6a4 c53d 7bd8 87bd
0.17385025 0.026464805 0.037463218 -0.121495 0.045714825 0.18016528 0.13483994 0.033463195
-0.13587055 -0.106685236 -0.06492703 0.19081546 -0.15445623 -0.15751243 0.100502744 0.14252217
0.0780011 0.14511742 0.06884043 -0.18637086 -0.18968248 -0.18937603 -0.12037748 0.046605974
0.16736402 0.14675944 -0.15021226 -0.089047216 -0.108416304 0.12503313 0.1550843 -0.04479801
0.18798374 -0.0067181527 -0.10612477 0.022075653 0.08206729 -0.050680425 0.093561485 0.1359558
0.022367401 0.13936917 0.15333883 -0.08938512 0.0026496649 -0.01363174 -0.09002361 -0.09113852
-0.110632345 0.15854931 0.13675879 -0.06926744 -0.027014833 -0.096411675 0.05393745 -0.12744316
-0.16220751 0.035870906 0.19114326 -0.14853577 -0.020128772 0.08663557 -0.05269589 -0.094584145
-0.09388271 0.057597857 0.14092673 0.050932016 -0.039612208 0.13041301 -0.17494018 0.122124806
-0.07447741 0.0010698776 -0.10695395 0.17318846 0.08242807 -0.06113002 0.04527724 -0.13203968
0.0009492357 -0.06699748 0.043828428 0.064158574 -0.029476851 0.0584514 -0.006641656 -0.033613488
-0.17558043 0.12217192 -0.039582357 -0.0767957 0.15213268 0.042526573 0.029781535 0.011903033
-0.09581906 -0.0063233376 0.18086658 -0.093969725 0.03279233 -0.13312593 0.100270405 0.1505663
-0.11937095 0.066842064 0.08824895 0.16515355 0.0692891 0.123836055 0.08318688 -0.0058029145
-0.08220641 0.087849125 0.14659755 -0.02535005 0.18479584 0.13173194 -0.077562295 -0.15666007
-0.06970724 0.025878996 -0.16335644 0.128962 -0.040541008 -0.13605775 0.034587488 -0.0222487
0.1277123 0.033231765 -0.05169925 0.11492567 0.12299965 0.15781043 0.06584512 -0.15459841
-0.071839474 -0.13512886 0.14314148 -0.1066653 -0.021405933 0.14833033 -0.043878816 0.16878667
0.04533493 -0.024267996 0.05108667 0.10782692 -0.14679192 0.039698258 -0.18222639 -0.12289686
-0.13809507 0.1777829 -0.07490654 -0.020051096 0.0704456 0.076876186 -0.07314977 -0.16210455
-0.15839304 -0.003104489 0.114574745 -0.042838812 0.016804993 0.113851145 -0.18106465 0.15762222
-0.071097836 -0.07663711 0.11276646 -0.11249579 0.15429087 0.08880107 0.18664978 0.16532047
0.086284086 0.15772624 -0.08878979 0.15328065 -0.02539058 -0.08903305 0.01438272 0.041217268
-0.09251788 -0.11456258 0.17896183 -0.11589443 0.07185759 -0.15153573 0.12675305 0.002300173
-0.0550818 -0.07177553 0.06893112 0.12966673 -0.14920813 0.011382684 -0.12531002 -0.16305679
-0.12515634 0.11252885 0.08729433 -0.020276666 -0.10987345 0.007986169 0.12421568 -0.16596259
0.067525715 0.077143595 0.16808583 -0.06310374 0.13559644 0.022235 0.0677249 0.030689374
0.10598497 -0.14816046 -0.04630137 -0.03822264 0.0020735012 -0.19096702 -0.1565559 0.15989329
-0.13249663 -0.024095654 -0.15601932 -0.05187947 0.14995806 0.044221364 0.07843881 0.14166458
0.1779963 -0.16546443 -0.09190588 0.08840758 -0.0052765463 0.10391571 0.15984085 0.15926406
0.11346321 -0.091725014 -0.13348654 0.1635301 -0.09231167 -0.009210111 0.050079703 -0.17944717
-0.08090109 0.008243645 -0.13636887 0.030337201 -0.079395495 -0.020205673 0.096505925 -0.06633087

conv1.bias f4 [128]
00000000: 1ed0 28be 7690 ddbd ee8f 1f3e 77e7 09be
00000010: c0fd e5bb 11e4 feba fa09 8abb a420 28be
00000020: f4c8 15be 1b58 babc 55f0 ebbd 2e23 e6bc
00000030: acd9 3cbe f03c c13d 2080 4f3d 908d 183e
00000040: 8436 34be cd05 123e 1734 e73d 5064 1ebe
00000050: e01e 693c 60ba 0bbd 7e94 c83d ae0a d03c
00000060: db40 c1bd e9de babd 755b 9e3d b19e 16be
00000070: a79d 02be bd8c adbd d938 82bd 85c1 d8bd
00000080: 200e 3a3e fd4a e83d 44cd 8bbc b661 103e
00000090: b8d8 71bd 1947 f83d b6fc 643c e990 febd
000000a0: 72f5 f63d b6bb e83d 6e87 22be 7e49 c63d
000000b0: d925 b53d 11ae 2c3e 9040 38bd 1dc9 0e3e
000000c0: e9a3 fc3d 8c4b f2bc e3fa 16bb 7f12 043e
000000d0: 76e9 1ebe ec20 0cbd 0ba3 32be 6003 dbbc
000000e0: 166b c8bc 55e3 90bb 8f38 f13c f386 20be
000000f0: 3140 963b 934d c5bd e5d3 20be a87b 31be
00000100: 598f a53d b831 433e 78ca fbbd ae1a 6c3d
00000110: 107f fc3d caac 2c3e 769f 03bc c75c 8bbc
00000120: 2eb8 f33d b4fe dd3c c624 03bd ee59 3abe
00000130: 205f 253e 7263 d2bd 93d7 363e e614 f3bd
00000140: 8462 ad3d a7fe 7f3d 20eb d13c 67b8 98bd
00000150: 8914 31be 40bb 21be 31b6 163e 5a27 c23d
00000160: 9cab ea3d cdab 90bd efd4 1b3e dd7b ebbd
00000170: 5b08 42be c589 083e 0dbb 50bd d3a8 2ebe
00000180: 4abc f43d 708a 653c c03e 3abb c600 ab3d
00000190: 3b04 2f3e 0111 3ebe 6c6b f2bc 8237 d0bd
000001a0: 7062 3a3d af7a 43be 4ea6 9ebd cc87 aabd
000001b0: 04ee 593c f93c 75bd 7152 d83d c0e3 97bb
000001c0: ca66 52bd a1de fabd 2812 59bd c6ab 2d3e
000001d0: 646f 273e e9b0 233e c410 47bd c130 573c
000001e0: 4dfc 07be 78ea ea3d 00b8 32bb 36e9 cabc
000001f0: faef a93d 0e28 b33d f816 303e f101 2c3e
-0.1648564 -0.10818569 0.15582249 -0.13467203 -0.0070187747 -0.0019446631 -0.004212615 -0.16418701
-0.14627439 -0.02274709 -0.11520449 -0.028092947 -0.1844241 0.09435451 0.0506593 0.14897752
-0.17598921 0.14260025 0.11289232 -0.15467954 0.014228553 -0.034113288 0.09793948 0.025395717
-0.09436198 -0.09124548 0.07732288 -0.14708973 -0.12755452 -0.08474109 -0.06358499 -0.10583786
0.18169451 0.11342428 -0.017065652 0.14099774 -0.05904457 0.12122936 0.013976267 -0.12429983
0.12058534 0.11363928 -0.15871975 0.09681986 0.088451095 0.16863276 -0.044983447 0.13943906
0.12335951 -0.02957704 -0.0023037724 0.1289768 -0.15518746 -0.034211084 -0.17445008 -0.026735008
-0.024465125 -0.0044216313 0.029445915 -0.15676479 0.004585289 -0.09633937 -0.15705831 -0.17332327
0.08083982 0.19061935 -0.12294477 0.05764263 0.12328923 0.16862789 -0.008033624 -0.017012013
0.11900364 0.027098991 -0.03201749 -0.18198368 0.16149569 -0.10272874 0.17855673 -0.118692204
0.08466056 0.062498715 0.025624812 -0.07457047 -0.1729299 -0.15794086 0.14717938 0.09480162
0.11458513 -0.070640184 0.15217946 -0.114982344 -0.189485 0.13333805 -0.050959636 -0.17056589
0.11949976 0.014010057 -0.002841875 0.08349757 0.17091458 -0.18561174 -0.029592238 -0.10166837
0.045504034 -0.19089769 -0.07746564 -0.083266824 0.013301376 -0.0598726 0.105625995 -0.004635304
-0.05136756 -0.12249494 -0.05299583 0.16960058 0.16351086 0.15985455 -0.048599973 0.013134182
-0.13279839 0.114705026 -0.0027270317 -0.024769407 0.08297725 0.08747874 0.17196262 0.16797616

conv2.weight f4 [56, 128, 3, 3]
00000000: a539 c7bc a0f3 d3ba 2885 dabc 3274 233c
00000010: 4fb6 a13c 4b95 b23c 160f 393c 9355 a13c
00000020: c253 9abc 236c bc3c 36c9 303c 958c 483c
00000030: 7f9f c83c 7db3 bc3c 6d9e ec3c 33c6 89bc
00000040: 8983 e33c ce13 8cbc 94ff babc d216 393c
00000050: bb25 313b a8a0 c5bc 6fbb 913b ffbe 5cbc
00000060: a2b8 afbb 000f 49bc c283 eebc a687 6e3c
00000070: 4a98 0a3c b478 e7bc 5aa1 523c eb51 a53c
00000080: a7b0 a23c 0db8 bd3c 958c 923c 6dd1 d03c
00000090: 010f b83c db47 b83c 009d faba c142 9a3c
000000a0: 4c88 abbb f954 963c 63cc ea3c 6fef 953c
000000b0: 2098 fbba d68d 943c bdc5 463c df7a f53a
000000c0: 7142 773c 2a3b e03c a27e bbbc 0553 943c
000000d0: 7900 17bb 1b83 863c 574c a8bb ffd2 dabc
000000e0: 7e73 b0bc 6a01 debc c035 10bc dda8 b23c
000000f0: 3eff 4ebc c190 953c 26e1 33bc e5ea 74bc
00000100: 96d3 673c 0b6c c53c 4485 983b e05c 2e3a
00000110: dd3a af3c d180 a2bc 9c6d 99bc 051e 48bc
00000120: d15c e5bc c0ff e439 6d51 c03c 5ed9 b3bc
00000130: dacc 133c 58ad 83bb 957a dcbb 3088 eabc
00000140: b828 6c3b c042 84bc 637c 9abc 16a4 f03b
00000150: 33d5 a63a 74f3 8f3c d870 92bb fb44 c1bc
00000160: f0aa 87ba 5ace acbc d652 f7bb 006d 963c
00000170: 427b e23c fa2f ddbc 0ae1 e53c 19bf f9bb
00000180: b0fc 51bc 058b 023c bd99 a2bc f4d5 86bc
00000190: ef38 ba3b 6253 b63c 5dc5 033b bf65 da3c
000001a0: eca0 993c cf27 db3c 38b2 dc3c d539 4f3c
000001b0: 3ccc b5bb efe0 953c 81ee de3c 04d8 debb
000001c0: a050 bbbb 54c8 de3b 286d 0d3b 4ab4 e8bc
000001d0: 434f b73c bba4 d73c 656b 9c3b 3b01 9fbc
000001e0: c1d9 eebc 333f 9f3c e252 e8bc c82a 303c
000001f0: e0ba 8c3a 67f8 353c 741a 96bb 0e68 563c
00000200: b6bf 3bbc b0c8 823a ea25 0f3c c553 823c
00000210: 2e9f 7a3c 5fb2 e03c d444 fbbb d866 bb3c
00000220: e19b d5bc fa85 40bb f8b7 15bc 48de e93c
00000230: 5c62 f33b d5be 44bc 54bd b93c d03f bf39
00000240: 0b61 c23c 8ca2 cc3b e859 26bb 5f96 b8bc
00000250: d45b ad3b 4032 a6b9 e113 d93c c14f ee3c
00000260: ef80 9c3c ee09 cc3c 88e1 efbc 7ef9 023b
00000270: d6b2 243c 7498 c4bc 7388 c2bc b09e d4bb
00000280: 99b3 2dbc 56bc 503c 77ef babc 2a8b d73c
00000290: 6e34 f4b9 b78c 6d3c 14a3 513c c8dd 9f3c
000002a0: fd22 bc3c 5e9b d23c 5c63 dcbb 0262 c33b
000002b0: e431 3abc e603 58bc 247f 16bc 8074 4cbc
000002c0: 842c a3bb 12b1 743c f826 bebc 0a07 323c
000002d0: cfee ba3c 8086 a339 08f4 a6bb 2ccc 9d3b
000002e0: dfe4 c73c b47b ea3b 4cd4 a53b e513 833c
000002f0: 855b a23c 1cd5 5bbc 264f 7f3c 01e8 863c
00000300: 7d9f 94bc be5a 143c 839c 5abc a9e0 e8bb
00000310: 389d 943c 0c91 cc3c c6f0 293c 90e2 a5bb
00000320: b8a6 60bb 6439 b5bb 514d e53c 000e e3b9
00000330: 60f0 94bb e046 bbba 961c 4cbc 2b4b e9bc
00000340: 5040 86bb 2350 663c ed1f c43c e063 1ebb
00000350: faa4 463c 9479 42bc 6eb0 98bc dcb9 f43b
00000360: 73e8 f03c 6b9c 99bc 2835 1abc 8612 38bc
00000370: 362c 59bc e963 a4bc 690e af3c e8ab 29bb
00000380: d13f 8b3c 14ab d2bc bc12 e03b 4372 b93a
00000390: 2d1b 25bc 28f9 193b 964d 83bc c691 73bb
000003a0: d8ec 22bc 8cac 8bbb 5b42 d2bc d078 473c
000003b0: ed3c 8f3c 5f6b 793c c27e d2bc 3f46 b9ba
000003c0: 46b2 58bc e62a 94bc fb87 d13c b287 ca3c
000003d0: 870e cabb cf19 21bc 8bcf a5ba 7050 9a3c
000003e0: 1420 d4bb 2b7f 88bb 32e7 ce3c a850 8fbc
000003f0: 7313 5e3c f5b6 863c 5ef6 a9bc bb9f bb3c
-0.02431948 -0.0016170628 -0.026674822 0.009976434 0.019740252 0.021799704 0.011295101 0.019694125
-0.018838767 0.023000782 0.01079016 0.012240549 0.024490116 0.023034805 0.028884137 -0.016818142
0.027772682 -0.017099287 -0.022826947 0.011296945 0.0027030546 -0.024124458 0.0044473927 -0.013473271
-0.005362586 -0.012271643 -0.029115561 0.014558708 0.00845916 -0.028255798 0.012855852 0.020180663
0.019859625 0.023159051 0.0178893 0.025490487 0.022468092 0.0224952 -0.0019120276 0.018830659
-0.0052347537 0.018351065 0.028661912 0.018302647 -0.0019195117 0.018134039 0.012132105 0.0018728635
0.015091524 0.027371962 -0.022887532 0.018105993 -0.0023041053 0.016419938 -0.0051360535 -0.026711939
-0.021539446 -0.027100284 -0.0088018775 0.021809036 -0.012634097 0.0182575 -0.010978973 -0.014948581
0.014149567 0.02409937 0.0046545584 0.00066514127 0.021390373 -0.019836815 -0.018729024 -0.012214188
-0.02799836 0.00043678097 0.023476327 -0.021954235 0.009021008 -0.004018467 -0.00672848 -0.028629392
0.0036035012 -0.01614511 -0.01885814 0.0073437793 0.0012728333 0.017572142 -0.0044690184 -0.023592463
-0.0010350626 -0.02109449 -0.0075477166 0.018362522 0.027646665 -0.027000416 0.028061409 -0.0076216576
-0.012816593 0.007967715 -0.019848699 -0.016459443 0.0056830565 0.022256557 0.0020106651 0.026659844
0.018753491 0.02675238 0.02694045 0.012648066 -0.0055480283 0.018295733 0.027213337 -0.0068006534
-0.0057163984 0.0067987833 0.0021579955 -0.028406281 0.022376662 0.026323667 0.0047735446 -0.019409766
-0.029156568 0.019439315 -0.028359834 0.010752387 0.0010736845 0.011106587 -0.00458079 0.013086332
-0.011459282 0.0009978022 0.008737067 0.015909085 0.01529674 0.027428804 -0.007668117 0.022876188
-0.026075305 -0.0029376731 -0.0091381 0.028548375 0.007427497 -0.0120083885 0.022673286 0.00036477903
0.023727914 0.006244963 -0.0025383178 -0.02253264 0.005290488 -0.00031699426 0.026498737 0.029090764
0.01910445 0.024907079 -0.029282346 0.0019985135 0.010052403 -0.023998477 -0.023746705 -0.0064886436
-0.010601901 0.012740215 -0.022819264 0.026311476 -0.0004657837 0.014498881 0.0127952285 0.019514933
0.022965902 0.02570885 -0.0067257117 0.005962611 -0.011364434 -0.013184523 -0.009185586 -0.012478948
-0.004979672 0.014934795 -0.023211941 0.010865936 0.022818951 0.00031189993 -0.0050950088 0.004815599
0.024401126 0.00715586 0.005060708 0.016000697 0.01981903 -0.013417508 0.015582835 0.01646805
-0.018142456 0.009054838 -0.013342979 -0.0071068597 0.018141374 0.024971507 0.010372346 -0.0050624087
-0.003427906 -0.005530523 0.027990969 -0.00043307245 -0.0045452565 -0.001428809 -0.012457987 -0.028478226
-0.004097022 0.014057192 0.023941005 -0.0024168417 0.012124294 -0.011869807 -0.018638816 0.007468445
0.029407715 -0.018751344 -0.0094120875 -0.011234885 -0.01325517 -0.020067172 0.021369176 -0.0025889818
0.016998203 -0.025716342 0.006838171 0.0014148433 -0.01007728 0.0023494456 -0.016028207 -0.0037165745
-0.009944163 -0.0042625125 -0.025666406 0.0121748 0.017485106 0.015223353 -0.025695208 -0.0014135315
-0.013226097 -0.018086862 0.025577536 0.024722908 -0.0061662826 -0.009832813 -0.0012650354 0.018837184
-0.0064735506 -0.00416555 0.025256727 -0.017494515 0.013554442 0.016444663 -0.02074736 0.022903314

conv2.bias f4 [56]
00000000: 2d10 8a3a 0940 91bc 7b23 70bc e68f 503c
00000010: 907a a93a 8c40 c4bc e2b4 21bc c041 d33b
00000020: 7a53 4cbc 6096 71bb beb5 6abc cc80 c03b
00000030: 08f1 363b 5029 ae3c a1ec 79bc 8c2b 203c
00000040: f138 e93c ac64 7abc 7337 973c 267d 863c
00000050: 53ef d3bc 5c4a 83b9 a92f d73c a69a 2f3c
00000060: 011d 833c 717e b33a 6622 e43c 4d9d 54ba
00000070: c3d4 793c 8e0b 07bc 0f13 d13c 7251 41bc
00000080: 1556 40bc 6a2d 973b 2cb8 df3b 5ded 403c
00000090: f2e8 da3c 58a0 e53c 80e8 053a 725b 653b
000000a0: 1958 7dbc f2af 89ba 5049 07bb 3e4d 88bb
000000b0: b734 e93c f712 83bb fa9e 8cbc c891 d43c
000000c0: 6814 c0bb c395 8e3c 6f82 303c 1be0 8f3c
000000d0: 594a db3c e923 d83c f445 4dbc b2ba f83b
0.0010533385 -0.01773073 -0.014656897 0.012729621 0.0012930203 -0.02395656 -0.009869786 0.006447047
-0.012471074 -0.0036863312 -0.014325557 0.005874729 0.0027914662 0.021259934 -0.015254171 0.009776007
0.028469535 -0.015282791 0.018459057 0.016417097 -0.025870955 -0.0002504167 0.026267843 0.010718023
0.016005041 0.0013694299 0.027848434 -0.0008110598 0.01524848 -0.008242501 0.025521783 -0.011799203
-0.011739274 0.004613568 0.006827375 0.011775342 0.026722405 0.02803056 0.00051081926 0.0034997133
-0.015462899 -0.0010504706 -0.0020643063 -0.0041595986 0.02846752 -0.0040000635 -0.01716565 0.02594842
-0.0058618076 0.017405396 0.010773285 0.017562917 0.02676885 0.02638431 -0.012528885 0.007590615

fc1.weight f4 [256, 224]
00000000: d862 b0bb fecb 143d 9ea8 1f3d 4667 2d3d
00000010: 0e1a 3cbd 92d3 66bd b8f4 553d 2cb4 ba3c
00000020: 0c1a 2cbd 109e cb3c 6842 d63c 28c2 673c
00000030: 9732 81bd 80b8 0c3c bded 873d 6add 26bd
00000040: 88e8 9d3c c88c 723c 38bb 9d3c a7f1 6cbd
00000050: 5ef3 1cbd 7c61 3bbc ccc7 44bd 6427 3abd
00000060: 8ff8 813d 76ca 50bd e3ae 08bd bc12 4dbd
00000070: 283e 19bd 4cba 503d f5f4 28bd 8881 ce3c
00000080: e0f6 593d 90eb c13b b870 393c 1129 863d
00000090: e4a6 9f3c a014 a03b a696 35bd e025 c1bb
000000a0: c61b 783d f52b 84bd 3951 27bd 640c 4e3d
000000b0: b87e 18bc 1471 163d 742e 6ebc 8099 79ba
000000c0: 0c25 2b3d b4fd 40bd 40c4 c23c 8033 47bd
000000d0: 509b 86bb f6b4 89bc 6816 643c b468 063d
000000e0: d0cf 543c 3e82 093d 5882 7f3c e444 63bd
000000f0: c873 37bc 8a51 84bc 7673 cebc b8e1 fcbc
00000100: 5461 b53c 36fd 91bc 0893 193d e108 47bd
00000110: 9831 ba3c 00f6 6aba dfcc 86bd c25f eebc
00000120: 9c67 c33c 5c9c 2d3d 26d2 31bd 4e7a 683d
00000130: da68 3d3d ddc3 59bd 3a59 16bd 60ff 723b
00000140: ac50 c3bc a338 843d fe42 2c3d 2e5a 5abd
00000150: 2221 e1bc f615 673d 22ed 353d 5ccc 523d
00000160: 8619 753d 4565 48bd dc9c 6bbd b0d3 f43b
00000170: 88c8 0abd c814 013c 841e 33bc 0040 273b
00000180: e393 88bd d801 83bd becd 56bd b010 c53c
00000190: d8a4 7a3c 60ad 0b3b f604 5a3d 92d9 cebc
000001a0: 8007 013a ab4c 72bd c01d dd3c 025b 143d
000001b0: 26d0 123d 905a 0b3c d4d4 643d 3e4e 003d
000001c0: 69e2 81bd 3416 77bd e223 3dbd ab8e 81bd
000001d0: 36a5 343d 74e9 393d 9ead 713d d81e 6bbc
000001e0: 0447 09bc 20ee 35bb ce4a 4cbd 2000 183c
000001f0: 5e0e 363d 2641 293d 0c67 2b3d 3de3 12bd
00000200: 901d cd3c 07a9 7cbd 89bd 863d 3e22 023d
00000210: b8fa 343d 4cea ad3c 803a ceba 405d 58bc
00000220: eee3 1f3d 46d9 5bbd 7697 3abd 10f2 ee3b
00000230: 6e41 4c3d 0eef a5bc 409c 88ba c0ad 44bc
00000240: db0f 5abd c67d 343d 600a 5b3b 36db ffbc
00000250: 1fd4 6abd 788e 96bb 8066 03bc 4e2f 583d
00000260: 3405 4ebc ea1e cbbc 60b9 223b d4c1 f43c
00000270: ceeb 423d 1664 80bc f064 273c 4b62 2cbd
00000280: 322a eabc 60e8 2a3b bd23 58bd ccf0 91bc
00000290: c820 143d 7849 debb 20b4 403b f4bd 54bc
000002a0: 1cb5 c33c d315 67bd 08cf 0dbc c4f7 18bd
000002b0: 21e1 42bd bc9c bbbc 60e4 a5bc 16b0 71bd
000002c0: 0026 a6ba a4f4 ca3c f4c4 29bd 6082 22bd
000002d0: a864 aebc 569b 51bd ac7c 84bd 3c99 89bc
000002e0: 9c81 563d e861 063d 2034 3dbc 60f3 0bbc
000002f0: 20e1 e9bb 696f 7dbd 508b 293c 9cd1 db3c
00000300: acaa 39bc bab2 763d 4818 7fbd b841 4d3c
00000310: e05a 343d 50b8 08bd cd98 86bd 8a6e 2bbd
00000320: 0807 17bd 1062 e83b d30c 02bd cef6 83bc
00000330: 52a5 15bd 8039 4b3c 2064 51bb a0ef 1b3d
00000340: 70f6 80bd b00b 43bc ca88 f7bc a0c0 8abb
00000350: 9028 09bd a415 71bc 16be 143d 4d96 61bd
00000360: 2657 633d fa8e 453d f312 873d 08ad abbb
00000370: 1d40 05bd 2575 50bd 2c9d e7bc 4d8d 0bbd
00000380: 8469 923c 5860 dd3c 80bf 8b3b 5fd4 49bd
00000390: 3f60 32bd 60ec 2dbb 5cbd ac3c 00e3 1bbb
000003a0: 4095 38bb e43c a63c 14d0 2d3d 4e3c 6f3d
000003b0: d49f 51bd c03f 003d 6076 7e3b 7868 033d
000003c0: 2bd6 79bd 7e91 45bd 16e5 d7bc 2478 813c
000003d0: 9cf3 47bc c628 763d 9467 46bd ecf9 283d
000003e0: a67f 373d bc41 07bc 8415 d93c ba2e e0bc
000003f0: f115 873d 0638 81bc 22bd 363d 40d2 ccbb
-0.005382877 0.036327355 0.038979165 0.042334817 -0.045923285 -0.056354113 0.052235335 0.02279099
-0.042017028 0.024855644 0.026154712 0.014145412 -0.06308477 0.00858891 0.06637142 -0.0407385
0.019275919 0.014804073 0.019254312 -0.057847645 -0.03831803 -0.011436816 -0.048042104 -0.045447722
0.06346237 -0.05097433 -0.03336991 -0.050066695 -0.037412792 0.050958917 -0.041249234 0.02520825
0.053213954 0.005917974 0.011318378 0.065508015 0.01948876 0.004885271 -0.044333123 -0.0058944076
0.06057336 -0.06453697 -0.040848944 0.050304785 -0.009307556 0.036728933 -0.0145374425 -0.00095214695
0.041783378 -0.04711695 0.02377522 -0.0486331 -0.00410787 -0.016809922 0.013921358 0.032814696
0.0129889995 0.033571474 0.015595041 -0.05548562 -0.011197038 -0.016152162 -0.02520154 -0.03086935
0.022141136 -0.017820936 0.037493736 -0.048592452 0.022728726 -0.00089630485 -0.06582045 -0.029098395
0.023853116 0.042385444 -0.043413304 0.056757264 0.046242572 -0.053165305 -0.036706187 0.0037078485
-0.023842178 0.06456115 0.042056076 -0.05330866 -0.02748162 0.056417428 0.0444156 0.051464424
0.059838794 -0.048924703 -0.05752264 0.007471524 -0.033882648 0.00787849 -0.010932568 0.0025520325
-0.06668832 -0.06396836 -0.052442305 0.024055809 0.015298091 0.0021313056 0.053227387 -0.02525023
0.0004922077 -0.059155148 0.026991725 0.036219604 0.035843037 0.0085054785 0.05586703 0.031324618
-0.063420124 -0.06032391 -0.0461768 -0.0632604 0.04410287 0.045388654 0.059003465 -0.014350615
-0.008378748 -0.0027760342 -0.049876027 0.009277374 0.044447295 0.041321896 0.04184632 -0.035861243
0.02503851 -0.061684635 0.0657912 0.031770937 0.044184417 0.021229886 -0.0015733987 -0.013205826
0.03903573 -0.053674005 -0.0455546 0.0072920397 0.049867086 -0.020255592 -0.0010422543 -0.012004316
-0.053237777 0.04406526 0.0033422932 -0.031232458 -0.0573312 -0.0045946203 -0.008020043 0.05277949
-0.012574483 -0.024795014 0.002482973 0.02987758 0.047588162 -0.015672725 0.0102169365 -0.042085927
-0.028584573 0.0026078448 -0.052768458 -0.017815016 0.036164075 -0.0067836605 0.0029404238 -0.0129847415
0.02389007 -0.056417298 -0.008655317 -0.037345663 -0.04757798 -0.022901885 -0.0202505 -0.05900582
-0.001267612 0.024774857 -0.041447595 -0.039675117 -0.021288231 -0.05117353 -0.06469092 -0.0167967
0.0523697 0.032808214 -0.011548072 -0.008541912 -0.0071374327 -0.061873827 0.010348156 0.026833348
-0.011332195 0.06022904 -0.062279016 0.012527876 0.044031978 -0.0333789 -0.06572113 -0.041853465
-0.03687194 0.007091768 -0.03175051 -0.016108897 -0.036534615 0.012403846 -0.0031950548 0.03807032
-0.06297004 -0.011904642 -0.030216593 -0.0042343885 -0.03348595 -0.014714632 0.036314093 -0.05507498
0.055503033 0.048232056 0.06595411 -0.005239133 -0.032531846 -0.050892968 -0.028273188 -0.0340703
0.01787258 0.02702348 0.004264772 -0.0492748 -0.04354882 -0.0026538596 0.021086387 -0.0023786426
-0.0028165132 0.020292707 0.042434767 0.05840712 -0.051177815 0.031310797 0.0038827881 0.03208205
-0.060995262 -0.048234455 -0.026354354 0.015804358 -0.012204077 0.06009748 -0.048438624 0.04125397
0.04479947 -0.008255418 0.026499517 -0.027366031 0.06595982 -0.015773784 0.044613965 -0.0062506497

fc1.bias f4 [256]
00000000: 4801 c03c a4f8 3fbd 81b3 4ebd 4052 fb3a
00000010: eb1a 88bd 69ca 813d 7894 d03c 307d 583d
00000020: a868 8c3c d605 703d e03e 9a3c ecbe 6ebd
00000030: beb8 1e3d ec80 c43c c0ec 303c e890 07bc
00000040: ece4 13bd c6c9 3ebd b2cb 643d 203b 4f3c
00000050: 1832 21bd 58fe 423d c806 29bd fb1d 873d
00000060: 78a0 b2bb f0f5 4dbd 3eeb 013d dc29 a4bc
00000070: 2445 3c3d 2467 d93c 7215 e3bc 80e0 cd3a
00000080: 4a20 67bd 4744 44bd c06a 05bd 86f4 86bd
00000090: d08e 353c 3eac 0fbd c043 9f3c b431 083d
000000a0: c04a 70bd a061 543b 6c80 c2bc 9a73 643d
000000b0: e811 603c e851 0cbd 2c74 05bd 4c19 323d
000000c0: de3f bdbc cb77 36bd bb2b 85bd 42b1 a2bc
000000d0: ced2 593d e011 9e3b e20a 2f3d 8e28 613d
000000e0: fe60 acbc 60bf 213b 801c cdbc 7071 773c
000000f0: 6e39 283d 9c6b aa3c 2e4c 083d d4c9 1f3d
00000100: 348a 2a3d f842 753c 4022 f03c 140e dd3c
00000110: ee14 5f3d 798e 5abd 4eeb 243d 92a7 723d
00000120: 9cd0 da3c 941a 86bd a021 99bc e4b4 57bd
00000130: 7b3b 43bd 28ec fbbc 7a68 5fbd 604d 483d
00000140: 9678 68bd 39d4 82bd 40f9 c73c c00f 16bb
00000150: e89b 8fbb c8a2 093d 2fd8 73bd 9c3f 4a3d
00000160: 1aab 593d 3650 293d 7a4e 84bd 18d3 653d
00000170: 7137 33bd 9954 24bd 9a48 1e3d e015 b53b
00000180: 7b95 86bd 7907 72bd db82 83bd 1ad2 19bd
00000190: 38c2 293d 043c 623d 7047 33bd 46dd 63bd
000001a0: c57e 82bd c067 f23b 80c4 92bc 9cee fb3c
000001b0: bf38 84bd 6707 873d d026 84bc 9c91 9c3c
000001c0: 1839 21bd 72e0 68bd e492 03bd 6da6 873d
000001d0: 8821 a23c 9818 db3c c80e 563d f02e d93b
000001e0: b61c fabc 4e3e 2fbd 6a3a 433d 8c43 84bc
000001f0: 2caa cabc 30c0 52bc 00cc 0a3a d8a9 2cbd
00000200: 0080 13b7 9278 473d cdd8 33bd 28a4 84bc
00000210: ac9b 46bd 4062 0abb 482b 683c db6c 823d
00000220: 3c6d 81bd 0269 edbc e5e5 7ebd 90f1 533d
00000230: 4b1b 7bbd 1c5b b03c 08f8 0f3d 2009 a53c
00000240: 7e3e 2b3d 6fa3 22bd 7c31 f63c 96e1 043d
00000250: 24b9 a83c 80f6 87bb c071 6fbd 1adf 733d
00000260: 849a 75bc faf4 40bd deaa 83bd 60c4 78bc
00000270: 8001 343d ad7b 56bd 8804 813c 689d 3b3c
00000280: 8cbc 59bd b20d 0f3d 7a49 3dbd 7d32 59bd
00000290: 7f11 23bd ac4f 1a3d 7af8 643d 220e 2cbd
000002a0: 566f 17bd 28b3 743c 1882 723c d2ee 323d
000002b0: 5cb8 75bd 7053 93bc eca6 19bd 4ab2 a7bc
000002c0: e804 6abc a4e2 43bd 98fe 603c 50f3 193c
000002d0: 28f4 3cbd a8b8 22bd a289 163d 18d0 f4bb
000002e0: 669d b4bc 403b fa3a 00d7 6b3d d2c0 1e3d
000002f0: 0482 423d 649e c9bc 98b9 e73c 52f0 21bd
00000300: a6c7 7f3d 1078 933c 209c 873c 1872 523d
00000310: 9aa2 38bd b418 573d 9a18 43bd 78a7 553c
00000320: 7068 af3b e61a 2e3d 4048 f1bc 6093 523d
00000330: c487 17bd 2cdb 7bbd 01d0 0cbd 1082 6d3d
00000340: b09c b03b 9269 3bbd 8084 b23b 442e b23c
00000350: 80ea 31bc e04e f43b 6c6e 79bc 3856 113d
00000360: 9017 0b3d 102b ec3c 1c27 dbbc 3873 46bd
00000370: e088 083b 625c 56bd f200 ffbc c700 09bd
00000380: 2e56 49bd f841 3c3c 24a0 5a3d c051 2ebc
00000390: d26c 2e3d fa51 313d 404d 823a dca5 55bd
000003a0: 404e 5fbc bf7b 803d 1aba 11bd 446d 13bc
000003b0: 9f81 58bd a884 c6bc 5ff7 22bd 2eb1 763d
000003c0: 4886 8c3c a24e f8bc f6cd 7e3d cca1 bb3c
000003d0: 90ac 3a3d 36c5 7e3d d039 463d dc46 1b3d
000003e0: f86a 5f3c 64db 76bc 02b3 663d 4ecf 5e3d
000003f0: b311 24bd a6fa 26bd c439 66bd fd65 0ebd
0.023438111 -0.04686798 -0.050464157 0.0019174293 -0.06645759 0.06337435 0.02546142 0.052853763
0.017139748 0.058599316 0.01882881 -0.058287546 0.038750403 0.023987256 0.010798633 -0.008274294
-0.03610699 -0.046579145 0.05585832 0.012648374 -0.039354414 0.047605842 -0.041266233 0.06597515
-0.0054512583 -0.050283372 0.031718485 -0.020039491 0.045964375 0.02653844 -0.027720187 0.0015707165
-0.056427278 -0.047916677 -0.032572508 -0.06589608 0.011081412 -0.035076372 0.019441485 0.033250526
-0.058665037 0.0032406822 -0.023742877 0.05577431 0.013676144 -0.0342578 -0.032581493 0.043481156
-0.023101743 -0.044547837 -0.065024815 -0.019859914 0.053179555 0.004823908 0.042734988 0.054970317
-0.021042343 0.0024680719 -0.025038004 0.015102729 0.041070394 0.020803265 0.033275776 0.039010838
0.041635707 0.01496958 0.029313207 0.026984252 0.05446332 -0.05335853 0.040263467 0.05924184
0.0267108 -0.06548038 -0.018692791 -0.052662745 -0.047664147 -0.030752257 -0.054542996 0.048901916
-0.056755625 -0.063881345 0.024410844 -0.0022897571 -0.004382599 0.033602506 -0.05953234 0.04937707
0.05314169 0.04133626 -0.06460281 0.056109518 -0.043754045 -0.04011974 0.038643457 0.0055262893
-0.0657148 -0.059089158 -0.06421443 -0.037553884 0.041444987 0.055233017 -0.0437693 -0.055630945
-0.063718356 0.007397622 -0.017915964 0.030753426 -0.06456136 0.06593209 -0.016131788 0.0191124
-0.03936109 -0.056854673 -0.032122508 0.0662354 0.01979138 0.026745126 0.05226019 0.00662791
-0.030531269 -0.042784028 0.04766313 -0.01614549 -0.024739347 -0.012863204 0.00052946806 -0.042154163
-8.791685e-06 0.04869897 -0.04390793 -0.016191557 -0.048488304 -0.002111569 0.014170475 0.06368419
-0.06319663 -0.028980736 -0.062230963 0.051744044 -0.061305325 0.02152782 0.03514865 0.020145953
0.041807644 -0.039706644 0.030052893 0.032441698 0.020596094 -0.004149258 -0.05845809 0.059538938
-0.014990453 -0.047108628 -0.06429075 -0.015183538 0.043946743 -0.05236404 0.015749231 0.011451103
-0.053158328 0.03492517 -0.04621265 -0.053026665 -0.039811607 0.037673637 0.05590103 -0.042005666
-0.036971413 0.014935292 0.014801525 0.043684788 -0.059990272 -0.017984122 -0.037512705 -0.020470757
-0.014283396 -0.047823563 0.013732575 0.009396389 -0.046131283 -0.039726883 0.03675235 -0.007471096
-0.02204771 0.0019091144 0.057578087 0.038758107 0.047487274 -0.02461166 0.02828674 -0.039535828
0.06244626 0.018001586 0.016553938 0.05137834 -0.045076944 0.052513793 -0.047630884 0.013040416
0.005353026 0.04250612 -0.029453397 0.05141008 -0.03699471 -0.061488315 -0.034378055 0.057985365
0.0053897724 -0.045754977 0.005447924 0.021750577 -0.010859132 0.0074556917 -0.0152240805 0.035482615
0.033958018 0.028829128 -0.026752047 -0.048449725 0.0020833537 -0.052334197 -0.03112838 -0.033448007
-0.049154453 0.011490338 0.05337538 -0.010639608 0.042584248 0.04329107 0.0009941235 -0.05216013
-0.013629496 0.06273603 -0.03557787 -0.008998219 -0.05285799 -0.024233177 -0.039786693 0.060227565
0.017153874 -0.030310933 0.06220814 0.0229043 0.045574725 0.062199794 0.048394978 0.037909374
0.013636343 -0.015066955 0.05632306 0.05439692 -0.04005594 -0.04076638 -0.056207433 -0.034765232

fc2.weight f4 [128, 256]
00000000: a68b 21bd 7efd 68bd f81d 403d a8d7 8f3c
00000010: bc2b 0e3d 0cd1 10bd 806e 04bb be31 4dbd
00000020: 4a25 3c3d 1842 69bd 3042 7f3d 3600 2c3d
00000030: 0466 0fbd b85c 3abc 063e 3cbd 3e68 2a3d
00000040: 9820 16bd 704f 183d f22d 77bd 905c 60bc
00000050: b41c 3f3d f855 e43c e693 49bd 78f1 1e3d
00000060: 8078 ddba 0efb 053d 2cd3 c13c 40bc 6e3d
00000070: d4ae c2bc fa45 073d 8051 fd3a e44d abbc
00000080: 3467 253d fa07 5fbd 9c93 cc3c 60e5 363c
00000090: 1a25 39bd 7027 bfbc 3094 e03c 30e8 633c
000000a0: 3866 c03c 8cbf 493d c0a0 17bd d0de 72bd
000000b0: b8e1 083c 9060 a03c 3618 1c3d a2a4 5a3d
000000c0: 64aa 463d 3c58 efbc 62ad 4ebd d067 86bc
000000d0: 387c f23c 50b5 8e3c a851 773d 58f5 3fbd
000000e0: c89e 6ebd e053 ed3c 207e fe3c dcf6 2b3d
000000f0: 6cda c23c 94dd af3c 009b 1bbc 849c 02bd
00000100: 84a9 4d3d 9619 193d a089 1c3b d09b 783d
00000110: 9a2e 103d beae 3ebd f420 56bd 24b4 97bc
00000120: 20b4 7abd 04cb 803c 5a1b 1e3d 98e9 edbc
00000130: 40be 5c3c 7e79 033d c6cb 5cbd 6426 d9bc
00000140: 207c 1ebb ac8e 3dbd 2e15 13bd a8ea 1c3d
00000150: 600d 693c 9854 e1bc d814 70bd c07b 8e3c
00000160: 0031 323c e8c1 6e3c 0026 79bd ccbb 83bc
00000170: c08c 35bb d81f 54bd 8081 50bc 2ecf 03bd
00000180: 820f 683d 8082 933a 68f1 163d 98fa 373c
00000190: 5ade 393d 2434 9b3c 4264 23bd f0b9 403c
000001a0: 54bc a7bc e0b2 6dbc 2040 9fbb 3a79 423d
000001b0: 9c74 a2bc 6af4 783d 54eb d7bc 98c2 26bd
000001c0: 24ce 3f3d fc84 58bd 8828 7abc d246 243d
000001d0: e030 4a3d 00c4 723a f6b5 613d 64d2 24bd
000001e0: 1c93 7ebd c068 79bb fc8a fc3c cca0 90bc
000001f0: 3217 7bbd 8066 9a3c cef1 5d3d 0807 2d3c
00000200: 9e10 4cbd 88b1 3a3d a0ad 04bc 9056 25bd
00000210: b084 02bd 3402 eb3c 5059 4f3c b044 2b3d
00000220: 808f afbb bc15 9dbc 2c24 133d b026 c9bc
00000230: b03b 613d 9816 99bc 143a cc3c 7cf9 7a3d
00000240: 78d0 5a3c 4882 4cbd 38c4 fabc c203 553d
00000250: 8cea 633d b0a4 f13c 8423 2b3d 36d5 3e3d
00000260: b021 7e3d eced e93c eada 443d f24c 4b3d
00000270: 2cd1 86bc f269 5cbd f250 153d b07a 973b
00000280: d885 47bc e41d 063d 78e2 12bd 8028 3c3b
00000290: 7cbf b93c a494 64bd 3027 92bc 52ba 493d
000002a0: 30df e4bb 7eac 42bd aa78 003d 4004 3ebd
000002b0: 968d 7c3d 2cc3 4a3d f6e6 58bd 58a2 2e3d
000002c0: 2c8e 1a3d c470 76bd fc88 71bd 4608 223d
000002d0: 0c16 ab3c 5802 723d ac33 d4bc 925a 193d
000002e0: e409 18bd 00fb f9ba 80e5 9c3c 10d2 c0bb
000002f0: 8091 5abd a0f2 113d 507c e93b 8c10 5f3d
00000300: 564c 4abd 5ed0 19bd 0812 2bbd ec5d 6c3d
00000310: 144d 983c b059 583c 58a5 91bc 7cd0 583d
00000320: 4e15 06bd 1ee9 13bd d499 613d 80c4 0a3d
00000330: 2608 56bd 523e 0f3d 5e44 313d cc1a ecbc
00000340: c82a 9b3c 9c0a 85bc 407e 8fbb 0a42 22bd
00000350: dcd6 e5bc 8877 ef3c 48a1 f33c 6269 093d
00000360: 2801 3fbd c840 4fbd dc2b 60bd 0cef e7bc
00000370: 0823 63bd f4db 2abd 5098 dd3c 3899 9dbc
00000380: 1238 3d3d 1878 263c b0a8 543d 8086 753c
00000390: 6842 4c3d 8881 993c 305f 733d a062 54bd
000003a0: 060e 1cbd 1cec 83bc 6ccb 0cbd 501a e1bb
000003b0: 0662 0bbd 301d 9abc c445 b53c d457 ebbc
000003c0: 423c 7c3d c823 66bc 7635 083d 0055 4e3a
000003d0: 84b4 2dbd a828 63bc 0035 c939 8246 55bd
000003e0: 04e1 4abd d89a 7bbd 304c 233c 4061 e3bb
000003f0: 58ae 63bc 7c7e ca3c 6c95 af3c 34b8 02bd
-0.03943982 -0.056882374 0.04690358 0.017558888 0.034709677 -0.035355613 -0.0020207465 -0.050096266
0.045934 -0.056947798 0.06231898 0.04199239 -0.0350094 -0.011374645 -0.045957588 0.04160332
-0.036652178 0.037185133 -0.06034655 -0.013693944 0.046658233 0.027873024 -0.049213313 0.0388045
-0.0016896874 0.032710128 0.023660265 0.058284998 -0.023765005 0.03302572 0.0019326657 -0.020911165
0.040381625 -0.054450966 0.02497273 0.011163086 -0.0452014 -0.023334235 0.027414411 0.013910338
0.023486242 0.04925494 -0.037018538 -0.05929452 0.008354597 0.019577295 0.038109027 0.053379662
0.04850234 -0.029216878 -0.05045832 -0.016406924 0.029600248 0.01742044 0.060380608 -0.046864837
-0.058256894 0.028970659 0.031066 0.04198347 0.023785792 0.021467961 -0.009497404 -0.031887546
0.05021049 0.037377916 0.0023885742 0.06069547 0.035200693 -0.046553366 -0.05227752 -0.018518515
-0.061206937 0.015721805 0.038600303 -0.02904205 0.0134730935 0.032098286 -0.05390527 -0.026507564
-0.002418287 -0.04627864 -0.03590887 0.038309723 0.01422438 -0.027506158 -0.05861363 0.017392993
0.01087594 0.014572598 -0.060827255 -0.01608076 -0.0027702302 -0.05178818 -0.012726188 -0.032180004
0.056655414 0.0011254102 0.036851317 0.01122918 0.045378067 0.018945761 -0.039890535 0.011763081
-0.020475544 -0.014507979 -0.004859939 0.047478892 -0.019830994 0.060779966 -0.02635733 -0.040712923
0.04682745 -0.0528612 -0.015268452 0.040106602 0.049363017 0.00092607737 0.055105172 -0.040239707
-0.062152013 -0.003805682 0.030827992 -0.017654799 -0.061301418 0.018847704 0.05418568 0.010560758
-0.049820535 0.045579463 -0.008098036 -0.040365756 -0.031864822 0.028687574 0.012655571 0.041813552
-0.0053576827 -0.019175403 0.035923168 -0.02455458 0.054988563 -0.018687531 0.024930038 0.061273083
0.013355367 -0.049928933 -0.030611143 0.052005537 0.055643603 0.029497474 0.041781917 0.046590053
0.062043846 0.028555833 0.048060335 0.049633928 -0.016457163 -0.053811975 0.03645415 0.00462278
-0.012177907 0.03274335 -0.03586051 0.0028710663 0.022674315 -0.055805817 -0.017840952 0.049249955
-0.006984614 -0.047527783 0.031365074 -0.046390772 0.061658464 0.049502537 -0.052954637 0.04263529
0.037733242 -0.060166135 -0.05896853 0.03955867 0.020884536 0.059084266 -0.025903545 0.03743989
-0.037118807 -0.0019071996 0.019152403 -0.0058844164 -0.053361416 0.035631776 0.007125415 0.05445914
-0.049389206 -0.03755223 -0.041765243 0.05770676 0.018591441 0.013204977 -0.017779037 0.0529332
-0.03273516 -0.03611099 0.055078343 0.033878803 -0.052253865 0.034971543 0.04327809 -0.028821371
0.018941298 -0.01624041 -0.004379064 -0.03961376 -0.028056554 0.029231802 0.02973999 0.033547767
-0.046631962 -0.05059889 -0.054729328 -0.028312229 -0.05545333 -0.04171367 0.027050167 -0.0192381
0.04619605 0.0101604685 0.051918685 0.014985681 0.049868017 0.018738523 0.05941695 -0.05185187
-0.03809931 -0.016103797 -0.034373686 -0.006869592 -0.03402903 -0.018812746 0.022127993 -0.028728403
0.061580904 -0.014046617 0.03325411 0.00078709424 -0.04240848 -0.013864674 0.00038377196 -0.052069195
-0.049530998 -0.061426967 0.009966895 -0.0069390833 -0.013896547 0.024718516 0.021433555 -0.03191395

fc2.bias f4 [128]
00000000: 2438 37bd cc0a 98bc 6648 30bd 8077 d73a
00000010: d461 50bd 90f8 54bd 987a 0abc 00c2 9539
00000020: 28f3 973c 000e 72bd 38c9 f63c 9a40 5fbd
00000030: 1612 7dbd 547e a2bc f6ee 39bd a093 dc3c
00000040: e456 d73c 087e 90bc 5e08 4bbd 00b8 9cb9
00000050: 404e d03b a819 0f3d 10bb 063d e8d3 0e3d
00000060: 2ab1 153d 38a8 25bc bec4 1c3d 1ad0 6f3d
00000070: 900e 4abc 8ad1 183d 5af1 0f3d 302b ec3b
00000080: 245e d6bc 425e 3fbd 76ae 563d 40d9 64bd
00000090: 40fc c33a 2899 b6bc cca1 673d 8069 1e3c
000000a0: 0e66 15bd 6052 26bc 806e b13b 10f3 4a3d
000000b0: c2b7 19bd cafd 253d 8069 fabc 402f 5ebd
000000c0: 087e 6dbc 8413 763d 10f2 813c a0be acbc
000000d0: a0a5 613c b812 643c 3e63 33bd d26e 23bd
000000e0: 78df 343d 7237 38bd b83d 1bbc 0878 5c3d
000000f0: 0890 a03c 48f9 a3bc a065 433d 187d 04bd
00000100: b21a 213d b0ec e7bc 4a14 71bd 967e 3e3d
00000110: dceb f13c c060 93ba 8076 043b 82b3 583d
00000120: 908a b7bc a050 963b 0820 5a3c 5a7c 43bd
00000130: b832 bebc 5011 55bc 64ef 52bd 4024 a63c
00000140: 004d 1c3d 208f 613b c20f 273d bc44 89bc
00000150: a4ce 403d 5a6a 093d 90ec c23b eed0 033d
00000160: f491 553d 241c 883c 2847 61bd d04d 573d
00000170: ead7 143d 2c43 64bd b42b 6a3d 30c5 d73c
00000180: 801b 913b 5afe 703d 1019 babc b0dd 7d3d
00000190: b49e 67bd 6083 1e3c 3463 c73c fe72 213d
000001a0: d042 8bbc f8b4 96bc 26f4 32bd 1427 f83c
000001b0: 502b 7f3c 4ce1 53bd d84d 643c 00d2 edba
000001c0: ca32 173d 280a 703c 00e6 afbc e036 a2bc
000001d0: 92da 5e3d 3e79 313d 8063 563c 321f 5e3d
000001e0: 4c5d 43bd 8a61 7cbd de95 073d f49f 363d
000001f0: 00b3 24bc 5ca6 173d 9ef8 40bd 1ef4 31bd
-0.044731274 -0.018559836 -0.043037795 0.0016438812 -0.050874546 -0.05199486 -0.00845208 0.00028564036
0.018548563 -0.059095383 0.030125245 -0.05450497 -0.061784826 -0.019835629 -0.045393907 0.026925862
0.02628655 -0.017638221 -0.049568526 -0.0002989173 0.0063569844 0.034936577 0.03289324 0.03487006
0.03654591 -0.010110907 0.038273565 0.05854807 -0.0123325735 0.037309207 0.03514228 0.007207297
-0.026167937 -0.04672075 0.052412473 -0.05587125 0.0014952496 -0.022289827 0.056550786 0.009668708
-0.03647428 -0.010151476 0.005414784 0.04954821 -0.03752876 0.040525235 -0.030567884 -0.05424428
-0.01449538 0.060077205 0.015862495 -0.02108699 0.013772398 0.0139204785 -0.043795817 -0.03990061
0.04415843 -0.04497475 -0.009475164 0.05382541 0.01959993 -0.020016328 0.04770434 -0.03234586
0.0393321 -0.028311104 -0.05885724 0.04650744 0.029531412 -0.0011244044 0.0020212233 0.052905567
-0.022404939 0.004587248 0.013313301 -0.047726013 -0.023217544 -0.013004616 -0.051497832 0.020280957
0.03815937 0.0034417585 0.040786512 -0.016756408 0.047072068 0.03354869 0.0059486106 0.032181673
0.052141145 0.016614981 -0.0549995 0.052564442 0.036338724 -0.055728123 0.057170585 0.026339144
0.004428327 0.05883632 -0.022717029 0.061978996 -0.056547835 0.009674877 0.024339296 0.039416306
-0.016999632 -0.01839684 -0.04368987 0.030292071 0.015574291 -0.05172853 0.013934575 -0.001814425
0.03691367 0.014650859 -0.021471977 -0.019801557 0.054407664 0.043328516 0.013085246 0.05422897
-0.047696397 -0.061616458 0.03310191 0.044586137 -0.010052443 0.037023887 -0.0471121 -0.0434457

fc3.weight f4 [10, 128]
00000000: 55d7 57bd de62 6bbd 44e0 8b3c 8231 0b3d
00000010: 8a4e 6e3d d80e 173c 1052 033d eee6 553d
00000020: 1072 c13b e405 bfbc 2037 c23b 3381 8c3d
00000030: 6806 f53c d4e0 0d3d 1649 9dbd f4d0 e83c
00000040: 40ab 5f3c 3366 b4bd e25f dfbc 00bb 52bc
00000050: d7ac a33d 796d 943d 7b02 36bd 4c56 8e3c
00000060: a13b 943d 081c 953c f052 aa3b fca2 e8bc
00000070: 977c 9d3d 109f 063c 84b4 36bd 903c 163c
00000080: bed6 113d b059 c0bb 478f ac3d ae16 103d
00000090: 0273 353d be90 6a3d d9cd a43d ed0f 89bd
000000a0: 00a9 22bb 401a 5f3b 3aa9 603d 9043 733c
000000b0: 60ad 163b 0f0c 49bd 8084 c9bc bec5 5b3d
000000c0: a87c 32bc 3d3b 833d 5e08 723d 68e1 94bd
000000d0: cef5 d7bc d854 0bbc 7875 9ebd f798 983d
000000e0: 07a0 4abd 87e1 30bd b885 a2bc aa34 753d
000000f0: 66fe 6abd 1f65 ab3d 8055 f4ba 7050 b4bb
00000100: 8859 6bbc 1bf2 a1bd b89d ad3c ce8d 6abd
00000110: 69cc b43d 7591 aa3d 7ab8 1a3d 3d39 9c3d
00000120: a9a4 ae3d a89d 653c 3068 58bc 78af bebc
00000130: 888a 84bd e021 a3bc 3c2d 78bd 7421 8cbd
00000140: 0463 aa3c 62a1 303d 8c25 833c 5c2e 9bbd
00000150: a0b0 9ebd 12ed 453d 0e10 2f3d 661b 593d
00000160: 5020 6c3c 60a6 8abb c52e 54bd 9873 003d
00000170: 87e6 3bbd 9b2d 963d bec0 1e3d 6861 11bc
00000180: f0e1 aa3c e54a 8a3d 007c 853a 167a 343d
00000190: eea0 7c3d 44ec 0f3d bff0 833d f7fe 893d
000001a0: 994e a1bd 53f6 aa3d 5249 183d 703f e03b
000001b0: 5037 67bd b822 51bc 36cc 48bd 7ae6 703d
000001c0: ab05 863d 8103 9b3d 0a79 4d3d 3859 bebc
000001d0: afcb 36bd bae5 6f3d e0ab 073b 1e01 5e3d
000001e0: 9460 c3bc 53d6 71bd 077a 8e3d 0afe 92bd
000001f0: 0e58 253d e7fe 35bd 8822 1f3c e0c6 6f3c
00000200: 47d4 a4bd 88c8 7ebc dca0 fabc 65cb 2abd
00000210: 80e4 ca3b cd92 b2bd 00ec e038 094b 823d
00000220: c858 7fbc a6fe dabc f5dc 94bd dba2 ae3d
00000230: 70a4 afbd 3e2f 4d3d dc48 4fbd 08e9 d2bc
00000240: 80ec 8dba 466a 583d e7e8 aa3d a078 993c
00000250: 308e 8b3b 92ea 1ebd a6b9 603d 380a 28bc
00000260: 815b a43d d8c5 083c 2d21 6cbd 09b2 923d
00000270: f028 95bc 2fe9 a23d c14f a33d 70a6 023d
00000280: 0489 103d 44a1 a8bc 4862 59bc d626 423d
00000290: c633 7ebd e0e0 193b ff18 803d e038 1e3c
000002a0: a0a4 e73b 8037 a03c 6ed9 f1bc ea64 2c3d
000002b0: 8f5a a5bd a6f3 2bbd 10f3 8cbd db3f 803d
000002c0: e0b0 1cbc 7051 3abc 28dc 84bd 7bcd aa3d
000002d0: 5f04 af3d 3c90 ea3c 4676 503d 49ef a83d
000002e0: 86df 213d e8fc 54bc 5131 10bd b2d7 1f3d
000002f0: 0877 d23c ac87 f5bc 9285 9fbd c069 fa3c
00000300: 8b4d 5cbd 307b 93bc ed3c 1bbd 74b6 f43c
00000310: acdc 8cbd 308b a4bc 9811 84bd 9acd 2e3d
00000320: b072 afbb 0842 08bc 26e1 8bbd 8aa3 493d
00000330: 1f43 abbd a0eb 90bd 3bb9 983d c5e1 9dbd
00000340: 806b 4ebc a21f 533d 9796 2fbd 0876 13bd
00000350: b9bf 31bd 8f96 93bd 654b 833d bb3f 43bd
00000360: c80c b03c f43f 9abd 2898 32bc 3880 7abc
00000370: b5e7 a53d 21d1 a23d d188 4ebd 28a3 b6bc
00000380: 60c6 f23b f07e b3bc f84c afbc 1ea9 1b3d
00000390: e9e0 60bd e0ce ad3b 7835 f1bc 762b 4a3d
000003a0: ba12 2e3d 7a97 1d3d d0bd 71bc a599 95bd
000003b0: 8fed 943d 500a 84bc c86f d03c c401 cfbc
000003c0: f8bd 8cbc c84c 8abd aa56 26bd 29a4 81bd
000003d0: 708e ac3b a5aa b13d 408c 0f3d 04c4 833c
000003e0: 4060 bf3a ac43 8c3c 5522 8bbd c859 3b3c
000003f0: e01d 6d3b 0292 383d 2c61 a1bc 4415 9b3c
-0.05269559 -0.057467334 0.017074712 0.03398276 0.05818037 0.009219848 0.032060683 0.052222185
0.00590349 -0.023318239 0.0059269816 0.0686058 0.029910281 0.03463824 -0.07679956 0.02841995
0.013651669 -0.088085555 -0.0272674 -0.012861967 0.07991951 0.07247443 -0.04443596 0.017375134
0.07237936 0.018201843 0.005197875 -0.02839803 0.07689779 0.008216634 -0.044605747 0.009169713
0.035605185 -0.0058700666 0.084257655 0.03517788 0.044299133 0.057266943 0.08047075 -0.06692491
-0.002481997 0.0034042746 0.054848887 0.014847651 0.0022991523 -0.049083766 -0.024599314 0.05365538
-0.010893978 0.06407783 0.05909001 -0.07269555 -0.026362326 -0.008504115 -0.07737249 0.07451051
-0.04946902 -0.04318383 -0.019839153 0.059864677 -0.05737152 0.08368897 -0.0018641204 -0.005502753
-0.014364608 -0.07907506 0.02119337 -0.05726414 0.08828051 0.08328525 0.037773587 0.07628105
0.085275 0.014014639 -0.013208434 -0.02327703 -0.06471735 -0.019913614 -0.060590014 -0.06842318
0.020799167 0.043122657 0.016009115 -0.07577202 -0.07748532 0.04832179 0.04273992 0.053004645
0.014412001 -0.004231259 -0.051802415 0.03136024 -0.045874145 0.07332917 0.038758032 -0.008873321
0.020859689 0.06752566 0.001018405 0.044061743 0.061676912 0.03513743 0.06442403 0.06738084
-0.078763194 0.08347764 0.0371793 0.0068435 -0.056449234 -0.012764625 -0.049022876 0.05881355
0.0654405 0.07569028 0.05016426 -0.023235902 -0.04462784 0.058568694 0.002070181 0.054200284
-0.023849763 -0.059042286 0.069568686 -0.0717736 0.04036718 -0.044432547 0.009712823 0.014634818
-0.08048301 -0.01555074 -0.030594282 -0.04169788 0.00619179 -0.08719406 0.00010725111 0.06361968
-0.015585132 -0.026732754 -0.07268707 0.08527156 -0.08576286 0.05009388 -0.050606593 -0.025745884
-0.0010827929 0.052835725 0.08345204 0.018734276 0.0042588934 -0.038797922 0.05486455 -0.010256343
0.080252655 0.008347951 -0.057648826 0.07162864 -0.018207997 0.079546325 0.07974196 0.03189701
0.03528692 -0.02058471 -0.013268061 0.047400318 -0.062061094 0.0023479983 0.062547676 0.009657115
0.0070691854 0.019557714 -0.029522624 0.042088427 -0.08073913 -0.041980408 -0.06882298 0.062621795
-0.009563655 -0.011371955 -0.06487304 0.083399735 0.085457556 0.02863323 0.050894044 0.08248765
0.03951981 -0.012999751 -0.03520328 0.039024062 0.025691524 -0.02997192 -0.077891484 0.030568004
-0.05378489 -0.018003076 -0.0378999 0.029872157 -0.06878027 -0.020085901 -0.06448668 0.042676546
-0.005354248 -0.008316524 -0.06830053 0.04922823 -0.08362412 -0.07076192 0.07457205 -0.07709078
-0.012598872 0.05154384 -0.042868223 -0.036001235 -0.04339573 -0.07206451 0.06410865 -0.0476682
0.02149047 -0.07531729 -0.010900535 -0.015289359 0.08100835 0.079500444 -0.050423447 -0.022294596
0.007408902 -0.021911114 -0.021399006 0.03800308 -0.05490199 0.0053042024 -0.029444441 0.049357854
0.042498328 0.038474537 -0.0147547275 -0.07304696 0.07271873 -0.016118199 0.025443926 -0.025269397
-0.017180428 -0.06752926 -0.040609993 -0.06330139 0.0052660033 0.08675126 0.035045862 0.016084678
0.0014600828 0.017122112 -0.06793658 0.01143498 0.0036181137 0.04506112 -0.019699655 0.018931039

fc3.bias f4 [10]
00000000: 5e2c 183d 50b5 6c3c 6e31 7dbd 2ae9 a3bd
00000010: d6d3 6bbd e55f 6fbd e29e 793d 1b0b 41bd
00000020: cc47 a2bc 36d0 7b3d
0.037151687 0.014447525 -0.061814718 -0.08003457 -0.05757507 -0.05844106 0.060942538 -0.04712973
-0.019809626 0.061477862
