checkpoint/ConvNetFlex_ep0.pth (torch, 642439 bytes, 10 tensors)

conv1.weight f4 [128, 3, 3, 3]
00000000: f1cc 373e cc81 403d c023 1b3d 561d a6bd
00000010: e8f1 383e 661a a2bd 72bc 88bc 715f c63d
00000020: 0ed4 bb3d d6b6 f83d d615 38be 54ff 84bd
00000030: f0ef 273e 3803 09be 7afe a63d f6c2 64bd
00000040: f03c 40be a2e1 923d a8f4 3abd edee 333e
00000050: ac72 4f3d 2fed 2c3d 0c35 5dbd 1323 213e
00000060: 4f2d f6bb 90cc 6bbd 68fe ea3c 6032 9dbd
00000070: 64d6 2ebe 3526 323e 1c57 7f3d 9f51 343e
00000080: a376 2f3e c4b6 b43d 6ca6 d6bc c062 033d
00000090: 551a 073e aa5a b2bd 4e55 c43d 5016 53bd
000000a0: 9b9b 793b 42ae ae3d 56a0 34be 543a c53d
000000b0: d39d 263e 03cd 283e 04d9 28be fae2 08be
000000c0: 86ff edbd d6fe 1cbe ce8d f13d d530 603c
000000d0: 9fed 053e 007f 3b3d 6d02 1bbe 44b0 f7bd
000000e0: 7dba 3abe 3a77 253e 6bce a03d 70a5 9c3d
000000f0: fb93 08be b875 b9bd 4d30 50bd 6eb9 e53d
00000100: 8028 00be 4555 0b3e 2bff 80bc 6213 8fbd
00000110: d4bb d63d ec5f d237 bc3d aa3d 0cd6 ad3d
00000120: 0bb1 013e c392 fbbd a631 2ebe 569f 943d
00000130: e210 c0bb 1f5c 113e 850a 803d 9fa7 483c
00000140: 8036 b23d cd62 0b3e ac61 61bd a648 963d
00000150: 4e0a a43d 3af5 853d 3a05 cc3d 798e a6bd
00000160: f67a 13be 7290 d33d 306d a8bc 0121 163e
00000170: 9ef0 e83d 8013 deba ea6c ae3d 2aea cabd
00000180: 8295 963d 8a90 9a3d a01c 52bd 5402 673d
00000190: 4887 f1bd 45eb 1b3e b431 2d3d 4a53 e2bd
000001a0: 9cc2 233d bac4 c2bd d78f 443e dad7 833d
000001b0: ebf2 1f3e f366 b1bd b823 a93c d78e 38be
000001c0: 9fc7 3e3e 4dcc 303e aa20 963d 3a20 eb3d
000001d0: 9f4d d5bd 67da c9bd cc5b 3d3d aef5 fa3d
000001e0: 180a dcbc 02a8 f23d 2381 153e 2cdb 3cbd
000001f0: e267 07be 3138 203e 35ec 3b3e 0cf1 30bd
00000200: 00b0 6339 1e5b b73d f223 823d 3f3c cdbd
00000210: 48d1 fabc a001 b1bc 8141 243e d9be 263e
00000220: d0c2 0fbe 9688 683d 59dd f93d 3a96 07be
00000230: 5594 a1bb 9701 0b3e 18b3 aebd 9981 3f3d
00000240: 1fe5 0f3e bf89 8d3d b4a0 10be 92ca 9a3c
00000250: c081 8d3c 4cdc 693d b009 0b3c 00fb b83d
00000260: 4f30 ec3d b610 ed3d 8e79 93bc 7e50 723d
00000270: 790b 373e 3ff3 0cbe b00e 2bbd 5219 f8bd
00000280: 0a77 fbbd 1d1b 49bc f799 d9bd f0e6 86bc
00000290: aec3 923d da06 d53d 0024 49ba 93dd aabd
000002a0: ecf5 613d d8f8 573d d99d 0d3e a041 c03c
000002b0: a600 ac3d f890 ed3c 80b5 ccbb 1beb ccbd
000002c0: 9f8c 06be a009 28bc 31a3 343e 4b14 133e
000002d0: a515 3e3e ab5e ebbd a8c4 d0bc cb5a 0bbe
000002e0: c108 09be 01b8 e6bd 2470 75bd 9d9a 013e
000002f0: 08f4 b4bc 5951 31be 7dcc ea3c 5bdf 1ebe
00000300: 9032 003e 8006 1ebd f74b 9ebd 3550 2abe
00000310: b8da 403e 2654 88bd a00f ad3d 9fd6 0d3e
00000320: c703 2d3e ac41 42bd c61e a4bb b07b a43d
00000330: 67a1 bb3c 4298 3b3e 92cb a33c 2850 873d
00000340: 4f07 09be 3b0a 263e cc2d 033d de92 2fbe
00000350: 11fe 053e 9fee 9abd d522 e7bd 46d3 ba3d
00000360: 674e 063e 3b66 233e 51c1 433e 8a19 ad3d
00000370: aa1d 8cbd a0ad 8cbb f678 19be a2b9 953d
00000380: 2847 e8bd c668 f73d 7998 24be 4a18 d83d
00000390: 4e81 8b3d a246 21be 2163 0d3e 225f 893d
000003a0: 0ff7 3e3e 1487 febd 3030 d13c 507b 953c
000003b0: fc63 25be 77e0 093e ab9e b5bd 6e3f 933d
000003c0: d8f1 83bd 3d64 393e 6815 1cbe 448b f2bd
000003d0: 51bb 3d3e 1d4e 223e 70f8 0a3c 4de3 303e
000003e0: c0a8 22bb 5dd5 0abe ca5f e83d 3048 443d
000003f0: 903e 1cbe e8dd 96bc 9e92 953d 9e13 a4bd
0.17949273 0.046998784 0.03787589 -0.08111064 0.1806103 -0.07915191 -0.01669142 0.09686173
0.091713056 0.12144248 -0.1797708 -0.064940125 0.16400123 -0.13380134 0.08154006 -0.05584999
-0.18773246 0.07171942 -0.04564348 0.17571612 0.05064647 0.042218383 -0.054005668 0.15736036
-0.0075127254 -0.057568133 0.028685763 -0.07675624 -0.17073971 0.17397387 0.062338933 0.17609261
0.171351 0.08823922 -0.026202403 0.032076597 0.13193639 -0.08708699 0.09586583 -0.05153495
0.0038087133 0.08529331 -0.17639288 0.09630266 0.16271143 0.16484456 -0.16489035 -0.13367835
-0.11621003 -0.15331587 0.11794625 0.013683517 0.13078927 0.045775414 -0.15137644 -0.12094167
-0.18235202 0.16158763 0.07851871 0.07648742 -0.133377 -0.09055656 -0.050827313 0.112170085
-0.1251545 0.13606746 -0.015746674 -0.06986119 0.10485044 2.5078618e-05 0.08312556 0.08488092
0.12665193 -0.12283852 -0.17011127 0.072569534 -0.0058613876 0.14195298 0.062520064 0.012246995
0.08701801 0.13611908 -0.055024788 0.07338075 0.08009778 0.06540914 0.099619344 -0.08132643
-0.14402375 0.10330285 -0.020559877 0.14661027 0.11374019 -0.0016943067 0.085168675 -0.099079445
0.07352735 0.075471 -0.05129683 0.056398705 -0.11793381 0.15226467 0.04228373 -0.110510424
0.039980516 -0.09510179 0.19195496 0.06437655 0.1562001 -0.08662214 0.020646915 -0.18023239
0.18630837 0.17265435 0.07330449 0.11480756 -0.10415196 -0.0985611 0.046230122 0.12253891
-0.026860282 0.11848451 0.14600043 -0.046107456 -0.13223222 0.15646435 0.18351825 -0.04319863
0.00021713972 0.08952926 0.06354512 -0.10021257 -0.030617371 -0.02160722 0.16040613 0.1628374
-0.14039159 0.056770884 0.12200422 -0.132409 -0.0049310126 0.13574825 -0.08530253 0.046754453
0.14052247 0.069110386 -0.14123803 0.018895421 0.017273784 0.057094857 0.008486196 0.090322495
0.11532652 0.11575453 -0.018002298 0.059158795 0.1787547 -0.13764666 -0.041762054 -0.121142045
-0.12278564 -0.012274531 -0.106250696 -0.016467541 0.07166229 0.104016975 -0.0007672906 -0.08343043
0.05516617 0.05272755 0.13829745 0.023468792 0.08398561 0.02899979 -0.0062472224 -0.1000578
-0.1313958 -0.010256201 0.17640378 0.1436321 0.18562944 -0.11492666 -0.025484398 -0.13608854
-0.13382246 -0.11265565 -0.0599214 0.12656637 -0.02208902 -0.17316188 0.02866196 -0.15514891
0.12519288 -0.038580418 -0.07729333 -0.16632159 0.18833435 -0.06656675 0.08450246 0.13851403
0.16895972 -0.04742591 -0.0050085513 0.08031404 0.022904111 0.183198 0.01999453 0.066070855
-0.13381694 0.1621484 0.032026097 -0.17145869 0.130852 -0.075650446 -0.112859406 0.091223285
0.13115846 0.15956967 0.19116713 0.08452137 -0.068415955 -0.0042931587 -0.14987549 0.07310797
-0.11341697 0.12080531 -0.16073789 0.10551508 0.06811772 -0.157496 0.13807346 0.06707598
0.18648933 -0.12428108 0.025535673 0.018247277 -0.16151422 0.13464533 -0.08868154 0.07189833
-0.064426124 0.18104644 -0.15242541 -0.11842969 0.18528487 0.1585011 0.008482084 0.17274208
-0.002481982 -0.13557954 0.11346395 0.047920406 -0.1525824 -0.01841636 0.07303356 -0.08011554

conv1.bias f4 [128]
00000000: b5ff ecbc 844e e9bb 539a 08be 4419 2cbd
00000010: 083b edbc cad8 373d 6a91 19be b96a c93d
00000020: a924 25be 801a f83c 04ce 013e 3a25 cdbd
00000030: 1476 e9bd 2212 f6bc d11f 18be 0e8c 80bd
00000040: 0349 a03d 137c 013e a03b 03be 3cdf 36bc
00000050: 72b1 0dbd 7adc 343e 7ee9 babd edb9 973d
00000060: c89d ec3d 2c62 443e c460 1fbd bbc6 82bd
00000070: 0445 313e 4ddf 3c3d bfcc 19be a843 173e
00000080: 667e 40bd d226 423c 1b91 af3b b0b1 0fbe
00000090: 1a03 88bd ca8c 813d 0a7d 303d b6c1 46bd
000000a0: cc6d c63d d977 1bbe 9987 92bd 6082 b5bd
000000b0: 72dd 863d 500c 183d 3f69 eebd 44ac efbd
000000c0: 61b4 39be 531d 293e beca 2cbe 5c9c 203d
000000d0: cdfa b13d 250c 7dbd 6df4 f3bd d9e0 bebd
000000e0: a726 25be be8e f23d d33b edbd f4bf a23d
000000f0: cb34 e9bc 086c be3d 43b2 1cbe 9abd a7bd
00000100: a4a9 9b3d b714 083e f913 f23d 0c1b dd3d
00000110: 9b50 dcbd 377f 2dbe a0ea f13c 6416 debd
00000120: 309e cebd 3728 373e 3171 2dbc 6a1d 80bd
00000130: 567e dcbd d465 f43d 74f4 46bc 9827 a3bc
00000140: 0127 10be 9105 573d 0181 75bd e622 1abe
00000150: 683b 343d 2c1f 0bbd 6e9c 743d 46c4 273d
00000160: 2f7b 9dbd 2ec8 413e aceb ea3d 2944 503d
00000170: 3a6e 27be 983d c2bc 5b46 283e 27c6 26be
00000180: a241 d43d 7c6c cbbd ebb5 0fbe e01d 59bd
00000190: 21e7 1c3e 394b ee3c 8168 f7bd 117c 173e
000001a0: 6542 123e 9eb9 70bb 7d46 04be 1462 36bc
000001b0: 9d74 d23d 1841 9dbc 1cd3 1ebe 5eed 3dbe
000001c0: 63db c7bd 5bd4 003e dd21 243e 87a3 743d
000001d0: 9d94 e9bd aa09 933d a22e 803d 251b 133e
000001e0: da19 543d 7be1 2cbe 1b47 00be 538e 4fbd
000001f0: 6ac0 c7bd 2bc0 923d 7a1e b93d 00bc cfbd
-0.028930524 -0.0071199555 -0.1334012 -0.042016283 -0.028958812 0.04488448 -0.14996877 0.09834809
-0.16127266 0.030286074 0.12676245 -0.10016866 -0.11399475 -0.030037943 -0.14855887 -0.06276713
0.07826426 0.12644987 -0.12815714 -0.011161622 -0.034593053 0.1766223 -0.09126566 0.074085094
0.11553532 0.19178075 -0.038910642 -0.06385561 0.17311484 0.046111394 -0.1501951 0.14771903
-0.046995543 0.011850076 0.005357874 -0.14032626 -0.066412166 0.063256815 0.043087997 -0.04852458
0.09688911 -0.15182437 -0.071547695 -0.08862758 0.06585206 0.037121117 -0.11641168 -0.11702779
-0.18135215 0.16515093 -0.16874215 0.039211616 0.086904146 -0.06177916 -0.11911855 -0.0932023
-0.16128026 0.11843632 -0.11583676 0.079467684 -0.028467556 0.09297949 -0.15302376 -0.081904605
0.07600716 0.13289152 0.11820216 0.107961744 -0.10757562 -0.1694306 0.029530823 -0.108441144
-0.100887656 0.17886434 -0.010586069 -0.0625561 -0.10766284 0.11933485 -0.012143243 -0.01991634
-0.14077379 0.052495543 -0.05993748 -0.15052375 0.044001967 -0.033965275 0.059719495 0.040958665
-0.07689511 0.18924019 0.11470732 0.050846253 -0.16350642 -0.02371101 0.16433088 -0.16286527
0.10364081 -0.09932801 -0.1403424 -0.053007007 0.15322544 0.029088603 -0.120804794 0.14793421
0.1428314 -0.003673173 -0.12917514 -0.011131782 0.102761485 -0.019196078 -0.1551022 -0.1854758
-0.097586416 0.12581007 0.16028543 0.059726264 -0.11405299 0.07179578 0.062588945 0.14365824
0.051782466 -0.16882889 -0.12527125 -0.05067284 -0.09753497 0.071655594 0.09039016 -0.1014328

conv2.weight f4 [56, 128, 3, 3]
00000000: 99a7 f0bc 3e65 693c 1a95 c6bc 6c73 26bc
00000010: 0b55 853c b54a cfbc 68fc 10bc 9477 ef3b
00000020: 6b95 a83c bc73 983b c8ab febb 5165 b13c
00000030: 6e9b e2bc 3143 da3c c5a8 9a3c a2eb 413c
00000040: 8aed 1ebc 417c 803c 7436 9f3b d412 84bc
00000050: 25a7 e93c b930 9b3c 52a4 333c e6c3 113c
00000060: 4cf1 01bc e285 0cbc 9687 703c 2c7b aa3b
00000070: a483 36bc e02a d0ba 6059 f0ba 7524 ac3c
00000080: ac9d acbb c211 4cbc e44a cf3b ce65 9bbc
00000090: 1fef d33c a4d0 0cbc 93ca 9f3c cab2 0a3c
000000a0: c265 273c 0ef3 96bc b154 66bc 909c 50bc
000000b0: 58e4 93bc ba4d 7dbc d4b4 d43b dcf7 b0bc
000000c0: b7d0 c6bc 8ca8 3ebc b869 613b f45e 4fbc
000000d0: 1967 eb3c b45c efbc fe4d 273c 0810 17bb
000000e0: 2558 d73c 68d1 283b 20e6 b2bb 139b b53c
000000f0: a940 6fbc bf90 e53c d38b 9f3c 59e9 c43c
00000100: 3c21 cfbb 0c46 cd3b 537f c33c a146 863c
00000110: 1148 aa3c d22a 6d3c a90f 74bc 0c08 c4bc
00000120: c062 b7b9 96f3 1d3c ba42 e5bc 7706 c03c
00000130: c469 a8bc d952 cdbc c98d a33c ecd3 f43b
00000140: 646c 813b 405b 6cbb 0202 433c cdda a63c
00000150: 4c04 d2bc c8a2 c6bc 898e cebc 8a65 afbc
00000160: 6f87 77bc 87df e73c 93e9 983c 0f23 dabc
00000170: 4e32 213c 9548 c33c 8a6d 143c 027f a0bc
00000180: a2f4 5abc fce7 e8bb aa44 3d3c 58ab a3bb
00000190: f5ff ae3c 3d51 9dbc fc56 d6bc 7762 65bc
000001a0: 56ae c4bc d2d4 56bc 90c6 72bc 85ce dd3c
000001b0: b27c 3f3c 77d0 803c 9053 80bc a2e1 14bc
000001c0: 94dc 943b c209 353c b672 413c 8906 c13c
000001d0: 80f3 a1b9 5eb4 0f3c 3e73 c6bc ba63 6c3c
000001e0: f1aa d7bc 00f0 f336 c1e0 dd3c ea14 6a3c
000001f0: 9a4f 1b3c b9a6 bf3c a6a6 573c 7407 87bc
00000200: aa5b 453c 1236 c2bc 2ccb ec3b 3feb e53c
00000210: 72fc 54bc 994b dc3c 8411 b43b a6db 7b3c
00000220: 5c6a cdbb c4e4 1fbc 34e0 dabc 43c4 a23c
00000230: 2822 27bb 005d 39bb efca e43c ec49 8c3b
00000240: 94fc 80bc 6661 a2bc 2074 733a 0c9c e03b
00000250: 11b3 a6bc 7d19 a53c 83ff ed3c 08af 02bc
00000260: c163 d8bc 581e 97bc bc95 f93b 3266 b9bc
00000270: b872 9bbc 3226 423c 40ea bf3a c86d 01bb
00000280: a37b 72bc 82fb 5fbc 40a7 cebb 9a89 003c
00000290: 6fd0 843c 035e b63c a481 4bbc 7aa3 2ebc
000002a0: bc2b 9fbb 1cae e83b 4c36 93bc 9b51 bcbc
000002b0: 4832 123b 7c56 b9bc 7648 d9bc f898 40bc
000002c0: 226b 7d3c 3ff0 a03c 1444 36bc 5f7d e1bc
000002d0: 8753 e83c d11e e93c dd20 d33c 7d95 bb3c
000002e0: 2858 523b 5410 2bbc 3e9a 93bc f869 13bc
000002f0: faab a4bc 1a47 5cbc 365f 5fbc 5c7f b7bc
00000300: d8b2 82bc 5c9d 9ebc d8f7 6a3b b52c 9e3c
00000310: 4c81 abbc 443b 843b befe 343c bd80 c03c
00000320: 0029 223a e029 c3bc 2361 a23c fc52 3cbc
00000330: 7d87 cfbc 9893 173b 50da f9bb d973 cdbc
00000340: c421 fe3b 8244 91bc 0f2c df3c 9d36 67bc
00000350: a810 2d3b 7ee3 e4bc 6053 56bb 7cab 9f3b
00000360: 1c5d 69bc 1a40 1b3c 4646 393c 8775 8c3c
00000370: a3b0 cf3c b552 e93c d872 20bc 80b0 dd39
00000380: 86df 4e3c cefa 603c 1d9f a33c c7f5 953c
00000390: 002b eeb9 711b d53c a6bc d7bc f83d c0bc
000003a0: 1582 b43c 595c 71bc c2d1 d9bc aff4 dc3c
000003b0: 0499 e93b 00db 00bb 9aff 4a3c 5a98 1a3c
000003c0: 9455 9f3b ff2c cdbc 18da 4e3b 46b5 053c
000003d0: 1c3f debb f1e1 ba3c 58b5 413b 3442 b2bc
000003e0: 0626 303c 651f c63c 66dd 50bc b19a 9c3c
000003f0: 2058 d8ba ba1e 1e3c e73d 8c3c e4f7 cebb
-0.029376792 0.014245329 -0.024241019 -0.010159355 0.016275903 -0.025304178 -0.008849241 0.007307956
0.02057906 0.0046524685 -0.0077719428 0.021654757 -0.027662005 0.026643367 0.018879304 0.011835964
-0.009700188 0.015684249 0.0048587862 -0.01612226 0.028522084 0.018944131 0.01096447 0.0088968035
-0.007931065 -0.008576842 0.014680764 0.0052026715 -0.011139784 -0.0015881918 -0.0018337183 0.021013478
-0.0052678194 -0.012455406 0.0063260663 -0.018969443 0.025870858 -0.008594666 0.019505775 0.008465478
0.010217132 -0.018426444 -0.014058278 -0.01273264 -0.018053219 -0.015460426 0.006491283 -0.021602564
-0.024269445 -0.011636864 0.0034395289 -0.012656916 0.028735684 -0.029219009 0.010211466 -0.0023050327
0.026287148 0.0025759581 -0.005459562 0.022168672 -0.0146028185 0.028023122 0.019475853 0.02403705
-0.0063211005 0.0062644538 0.023864424 0.0163911 0.020786317 0.014475541 -0.014896312 -0.023929618
-0.00034978054 0.009640595 -0.02798592 0.023440583 -0.020558245 -0.025063919 0.01996507 0.007471552
0.0039496887 -0.0036065131 0.011902334 0.020368004 -0.025636815 -0.024247542 -0.02521445 -0.021410722
-0.0151079735 0.028304828 0.018666064 -0.026628045 0.009838654 0.02383832 0.009059319 -0.019591812
-0.013363989 -0.007107733 0.011552015 -0.004994791 0.021362284 -0.019203776 -0.026164524 -0.014000527
-0.024008911 -0.013112264 -0.014817849 0.027076015 0.0116874445 0.015724404 -0.015664846 -0.009086998
0.0045428965 0.01104969 0.011807134 0.023562687 -0.00030889735 0.00877103 -0.024224874 0.014428074
-0.026326628 7.269904e-06 0.02708471 0.014287213 0.009479428 0.02339493 0.013162291 -0.016483046
0.01204578 -0.023707423 0.0072263684 0.028066276 -0.012999641 0.026891517 0.005495252 0.0153721925
-0.0062687825 -0.009759132 -0.026718237 0.019868976 -0.0025502536 -0.0028284192 0.027928798 0.004281273
-0.015745439 -0.019821834 0.00092870183 0.0068545397 -0.020349057 0.020153755 0.029052502 -0.007976301
-0.026414754 -0.018447086 0.0076167267 -0.022631738 -0.0189756 0.011849927 0.0014641955 -0.0019749273
-0.014799985 -0.013670804 -0.006306559 0.007845307 0.01621267 0.022261625 -0.012421045 -0.010659093
-0.0048575085 0.0071008336 -0.017970227 -0.022988131 0.0022307802 -0.022624247 -0.02652381 -0.011755221
0.015467437 0.019645808 -0.0111246295 -0.027525602 0.028360141 0.028457077 0.025772506 0.02289843
0.0032096002 -0.010440905 -0.018017884 -0.008997433 -0.020101536 -0.013444686 -0.01363354 -0.022399597
-0.01595442 -0.019362144 0.0035853293 0.019308427 -0.020935677 0.0040353853 0.011047063 0.023498887
0.0006185919 -0.023823678 0.019821709 -0.011494394 -0.02533316 0.0023128744 -0.007624902 -0.025079655
0.00775549 -0.017732862 0.027242688 -0.014112142 0.0026407633 -0.027940508 -0.0032703504 0.0048727375
-0.01424339 0.009475732 0.011308258 0.017145885 0.025352782 0.02848182 -0.009793006 0.00042283908
0.012626534 0.0137316715 0.019973332 0.018305672 -0.00045426935 0.026014062 -0.026335072 -0.023467049
0.022034684 -0.01473149 -0.026589278 0.026972143 0.0071288366 -0.0019661784 0.012390042 0.0094357375
0.0048624966 -0.02504587 0.00315631 0.008160895 -0.0067824256 0.022812815 0.0029557552 -0.021760084
0.010751253 0.024184892 -0.012748098 0.019116731 -0.0016505755 0.0096508805 0.017119361 -0.006316172

conv2.bias f4 [56]
00000000: bcd5 fb3b 216a f03c 184d 0f3b af0b 67bc
00000010: c003 123a b4c0 dc3b b686 e53c ea98 23bc
00000020: 7b1b ea3c 727e a0bc 5338 cc3c 55fd a43c
00000030: b403 55bc 4603 44bc 140e a53b 73d5 d33c
00000040: 21c7 c73b f901 bb3b 61dc 853b b3b6 da3c
00000050: 1dfe d83c ac51 c0bb 7f3c 53bc 2dbc e5bc
00000060: b6ed 83bc 250d 373c e01d 44bc ba14 11bc
00000070: 2406 29bc b86c b5bc eda7 bdbc 75ea 813c
00000080: 9341 d2bc 238a 7e3c fedf 2f3c 9c43 14bc
00000090: b705 b33c 75cc d83c 6438 e13b c806 74bc
000000a0: 4357 923c eae9 e2bc a940 593c 73cd b43c
000000b0: e5c4 e73c eb25 eaba a8e4 05bb 4ca3 ab3b
000000c0: 6735 95bb 4d6d bd3c 3542 eebc 3695 ad3c
000000d0: 8c7b 7c3c b4f3 b9bc ad5d e03c 3149 643c
0.007685391 0.029347481 0.002186602 -0.014101907 0.0005570017 0.006736839 0.028018337 -0.009985188
0.028577557 -0.019591544 0.024929201 0.02014033 -0.013001371 -0.011963671 0.0050370786 0.025858616
0.006096736 0.0057070223 0.004085109 0.026698446 0.026488358 -0.005869111 -0.012892841 -0.02804383
-0.01610456 0.0111725675 -0.011970013 -0.008855039 -0.010316405 -0.022146568 -0.023151362 0.015858868
-0.025666034 0.015535864 0.010734556 -0.009049322 0.021853311 0.02646468 0.0068731774 -0.014894195
0.017863875 -0.02769943 0.013260045 0.022070622 0.028292129 -0.0017864084 -0.002043048 0.0052379724
-0.004553485 0.023123408 -0.029084304 0.021189313 0.015410315 -0.022699215 0.027388418 0.013933466

fc1.weight f4 [256, 224]
00000000: faa7 563d 81a5 6ebd 54f4 4a3d 94cd 343d
00000010: 2bda 823d 05ac 1fbd 802e 6cbd ebc8 4bbd
00000020: 7c6e 02bc d496 e93c 1017 943b a0f7 b2bc
00000030: a0f4 6ebd 0453 22bc 3181 813d b64b 8abc
00000040: 0861 b13c 7452 213d 2e98 9abc 7a14 2c3d
00000050: 28c3 1e3c 8269 243d b8ae 8ebb 5037 7c3c
00000060: 40ce 7a3c 94f1 603d 2468 9f3c 40f2 883c
00000070: 78e8 1ebc 10bc 10bd 2049 853b 5c72 2fbc
00000080: bc83 0b3d 11ad 833d 4cdb 3d3d 3095 b63c
00000090: fe36 043d a74d 88bd f803 803c a0b6 933c
000000a0: d072 743c 267d 613d caf8 0e3d ac1f 373d
000000b0: 70cc 41bd 5a0d bdbc 8049 25ba 2eb9 9dbc
000000c0: 686f 383d 5401 b43c 0e7f 1dbd e8c6 b53c
000000d0: 189b 303d 878b 1ebd 6542 0bbd 0e1d bdbc
000000e0: 1c9d a33c ab44 32bd c07c ef3b a0be 113b
000000f0: cee0 593d 48a2 1c3d a80b fe3c 00cf a539
00000100: 700c 263c 9887 c9bc 7c70 143d d21e 783d
00000110: 814c 84bd 20d3 50bc 32a8 643d 008f 2cbd
00000120: ae9a 133d d66b 08bd 0ea6 3ebd d671 43bd
00000130: 8655 59bd f020 80bc 1aea 0d3d 3416 f7bc
00000140: 3d09 6dbd 0686 cbbc d60c 7a3d b763 88bd
00000150: 043b a9bc 40fe 3b3c f67e 683d 124c 4fbd
00000160: d072 b1bc 78bc 4ebc 10d4 9b3c 482b ccbc
00000170: a650 82bc e61d 703d f1d8 27bd 83d6 07bd
00000180: 7844 cb3c 8a15 463d d0b0 f43c 44ea d7bc
00000190: 88a4 a1bb b06a 79bd 06ec 4b3d 80ea 23bb
000001a0: b6b0 16bd 3a7e 163d 26c5 143d 14ef b63c
000001b0: 7441 6ebc c23b 4a3d 7c0c 843c 786f ffbb
000001c0: 10d0 d83c 7ecd 7b3d 4028 2bbd 9cb8 f63c
000001d0: 2ef0 f4bc 2711 4fbd 5cf8 41bd 505a 603c
000001e0: 1674 2d3d d090 e13b b221 b7bc 62be f3bc
000001f0: 0142 823d 6c08 453d 0cb3 2c3d fc75 123d
00000200: 79b0 873d fb7b 0bbd c007 47bd 0727 843d
00000210: 3843 2a3c fe99 d8bc d003 5d3c 56e5 35bd
00000220: 5cab 02bd c09d 353d 2427 eb3c 726a b7bc
00000230: 18e0 e93c f019 86bb 108e a2bc 5eba 273d
00000240: 8497 a43c d86c 1c3d 5e89 a8bc c0c7 cfba
00000250: 341a 4cbc c2f2 743d 00b2 9c3a 6821 09bd
00000260: 66f1 90bc 43e8 0ebd 72bb 073d e0db c43b
00000270: 3674 79bd 4058 bdba 803c 9fba c270 1b3d
00000280: 4805 8dbc 3ecf 34bd b2b4 cabc dc9d 9bbc
00000290: 9407 b3bc a623 67bd f8d2 1c3c 80d1 a33b
000002a0: 5c6d 363d 6e8d 2a3d 625a 4e3d 9b32 33bd
000002b0: 60c5 643d 5e67 b2bc 1982 7ebd 5a10 7bbd
000002c0: 1280 503d 0c86 87bc 2048 2c3b 566f d5bc
000002d0: b8da e13c 00c9 c83a 0c01 30bd b006 56bc
000002e0: 3040 043c 26f1 0c3d 58b2 35bc ecd6 95bc
000002f0: 3077 d9bb 3b2c 813d 6458 22bd 843b 28bc
00000300: 5433 f73c 145d 4fbd d7dc 55bd 1a75 213d
00000310: 5067 383d 0c1b c73c 94b7 873c 5603 a7bc
00000320: 84d4 573d d03d b73c 9ab0 53bd 3457 3e3d
00000330: 384f 233d 0e44 44bd 0c2f 203d 2a71 5d3d
00000340: e939 49bd 20da 8d3c 34b7 173d 188f 1bbc
00000350: e069 32bd c8a5 a6bb 58f7 473d 6e24 d9bc
00000360: c2ae 6e3d 9064 213d 441d 92bc e066 343d
00000370: b8f2 4dbd f4cb 563d 6bd4 883d f9f9 6dbd
00000380: 46f0 7a3d 4402 f9bc 0059 ddba 80c5 2abd
00000390: 9867 e2bc fc74 f73c 44f5 eabc 9e20 5cbd
000003a0: be58 023d f880 cb3c 24a5 29bd a8bd 293d
000003b0: 4668 a6bc 38ba 823c 9abb 443d 46d7 433d
000003c0: 0a32 593d 9990 5ebd bf9a 16bd 547d 41bd
000003d0: 00cb de3c af60 0dbd be5b 503d 4023 9f3b
000003e0: f034 84bd 68f2 3bbd d4f9 04bc 8474 523d
000003f0: 8438 b73c 0c46 4dbd 386e 053c 2443 9bbc
0.05240629 -0.058263306 0.049549416 0.044141367 0.063892685 -0.03898241 -0.057661533 -0.049752157
-0.007960912 0.028514303 0.004519351 -0.021846592 -0.05833876 -0.009907488 0.063234694 -0.016881805
0.021652713 0.039385274 -0.018871393 0.042011715 0.009690084 0.040139683 -0.004354324 0.015394047
0.015307963 0.054917887 0.019458838 0.016717076 -0.00969898 -0.0353356 0.004067555 -0.010708418
0.03406118 0.06429494 0.046351716 0.022287935 0.032279007 -0.06655436 0.015626892 0.018031418
0.014919952 0.05505099 0.034905232 0.04470794 -0.047314107 -0.023077656 -0.0006305203 -0.01925334
0.04502812 0.02197329 -0.038451247 0.022189572 0.04311666 -0.038707282 -0.033998866 -0.023085143
0.019972377 -0.043522518 0.0073085725 0.0022238865 0.053192906 0.0382407 0.031011418 0.0003162548
0.010134801 -0.024600789 0.036240086 0.060576268 -0.064599045 -0.012745649 0.055824466 -0.042128563
0.036036186 -0.033305965 -0.04654508 -0.047715984 -0.053060077 -0.015640706 0.034647085 -0.030161954
-0.05787014 -0.02484418 0.061047398 -0.06659644 -0.020658024 0.011474192 0.056761704 -0.050609656
-0.021661192 -0.012618177 0.019022018 -0.024922982 -0.015907597 0.058622263 -0.040978376 -0.03316356
0.024812922 0.048360385 0.029869467 -0.026356824 -0.0049329437 -0.06089276 0.049785636 -0.00250116
-0.03678962 0.036741473 0.036320828 0.022330798 -0.014541972 0.049373396 0.016119234 -0.0077952705
0.0264664 0.06147527 -0.041786432 0.030117325 -0.029899683 -0.050553467 -0.047355995 0.013693407
0.042347036 0.006883718 -0.022354934 -0.029753868 0.063602455 0.048103735 0.04216294 0.03575705
0.06625456 -0.034053784 -0.048591375 0.064527564 0.010392003 -0.026440617 0.0134896785 -0.044408165
-0.031901702 0.044339895 0.028705187 -0.022389624 0.028549239 -0.0040924475 -0.019843131 0.040949218
0.02009178 0.03818974 -0.020573314 -0.0015852377 -0.012457419 0.059801824 0.0011954904 -0.033479124
-0.017693233 -0.03488947 0.033137746 0.0060076565 -0.060901843 -0.0014445856 -0.0012148768 0.03794933
-0.017214432 -0.044142954 -0.024744365 -0.018996172 -0.0218542 -0.05643048 0.009571783 0.0049993396
0.044537887 0.041638784 0.050379165 -0.043749433 0.055852294 -0.021777805 -0.06213579 -0.06129489
0.050903387 -0.01654341 0.0026288107 -0.026054066 0.027570114 0.0015318692 -0.04296975 -0.013063118
0.008071944 0.034409665 -0.011089884 -0.01829096 -0.0066365227 0.063072644 -0.039635077 -0.010268096
0.030175842 -0.050625876 -0.052212562 0.039418317 0.0450204 0.02430489 0.016567029 -0.020387333
0.052692905 0.022368342 -0.051682092 0.046469882 0.03987047 -0.047916465 0.039107367 0.054063
-0.049127493 0.017315924 0.03703995 -0.009494565 -0.043558 -0.0050856806 0.04881987 -0.026506629
0.05827213 0.039402544 -0.01783622 0.04404342 -0.050280303 0.0524406 0.066811405 -0.05809972
0.0612643 -0.030396588 -0.0016887486 -0.041692257 -0.027637288 0.03020715 -0.028681405 -0.053742044
0.031822912 0.02484177 -0.041417256 0.041440636 -0.020313393 0.015957937 0.048030473 0.047812723
0.053026237 -0.054337118 -0.03676867 -0.047238663 0.027196407 -0.034516033 0.050868742 0.004856497
-0.064554095 -0.045885473 -0.008116204 0.05138065 0.022365816 -0.05011563 0.008143954 -0.018952914

fc1.bias f4 [256]
00000000: b9e7 4fbd 488a 55bd 1ac4 03bd 905f 393d
00000010: d2c6 173d 4286 523d 02e5 2e3d 5088 1a3c
00000020: e41e 333d 544b 183d 1c16 2ebd 2cb2 25bc
00000030: 1a24 6c3d 14d9 1a3d 3c88 ba3c 8075 113c
00000040: 80b5 be3c 10af a43c 0019 02ba 2c6a a0bc
00000050: 3bd4 3ebd 6e60 3d3d 1693 7f3d 783b ce3c
00000060: 9851 c93c 62c6 2a3d 5e1e 2fbd 00d2 eabc
00000070: 908f 5e3c 208a 80bd b851 573d e036 a73c
00000080: 222d aebc 2793 21bd 704e 6bbc 88e3 b8bc
00000090: b4a2 4cbd d9d2 833d 1a9f 033d e416 9a3c
000000a0: 581f 55bc dce0 563d 701e 79bc 2c89 afbc
000000b0: 4202 4a3d 00a6 a23c f63c a0bc fe43 24bd
000000c0: 805a f23b 4817 c6bb 6049 5abd a830 ffbb
000000d0: 66cb 503d e711 2bbd 0012 1a3c ea7f 80bc
000000e0: d6e2 77bd 2126 81bd 282a 263c 7f89 26bd
000000f0: 08af bfbc 6e59 013d d41c 153d b036 21bd
00000100: d424 22bd 033f 05bd 80da 5aba e273 3dbd
00000110: 80e2 41bb 2886 473c a08c 71bb 6682 bfbc
00000120: 80c6 663b 9a6d 733d 0419 d6bc 5eeb 22bd
00000130: 3ef2 37bd 303e 3c3d dc1a 193d 7654 dabc
00000140: 60e0 f9bb 3e96 01bd f79f 4abd 2c02 833c
00000150: 1aa0 653d ac32 0bbc 443d 173d 0019 143b
00000160: 8318 4fbd 6a27 223d c078 a6ba 9afa 2c3d
00000170: 500f ca3c 20dd 21bd 34b5 20bd f09e 263c
00000180: aeee 223d e045 023b d402 bc3c 3e60 133d
00000190: 8c7c 433d 5960 06bd 204d 31bb 2ce6 21bc
000001a0: 0353 843d 6cea 983c 0ab9 7f3d 5c4b f83c
000001b0: 2cda aa3c 9ab3 74bd 080f 1c3c e86d 823c
000001c0: a8f4 583c 7cfb 573d 9afd 7c3d 504c 623c
000001d0: 56a9 2cbd d07b 9dbb d44c 18bd c0fe 24bb
000001e0: 00b2 023c e0be a5bb e027 42bb da74 78bd
000001f0: 7036 0a3c a094 21bd b064 2ebc d0e4 5e3c
00000200: 8621 f0bc ac1b eebc 4c6f c7bc e08f c3bc
00000210: 9062 70bd 8042 f43c 5c98 68bd cc1e 953c
00000220: 9270 47bd 80f4 dc3c 3891 82bd 02ee 4c3d
00000230: c08b 34bc 4608 83bc bc2d fcbc 541c 91bc
00000240: 00b6 7639 0ea1 403d 1e3c 4c3d 5a85 b6bc
00000250: a0b0 0d3d 63c9 813d d0d4 6d3c d0cc 3b3d
00000260: 149e 44bd 6650 7f3d f464 e43c 5882 4bbd
00000270: 19e9 803d a644 8cbc b7fe 823d a0d6 29bd
00000280: 141a 9fbc 606b a8bb 98ca 443d a0a8 493b
00000290: aa4c 53bd 0ae6 6abd 7e7f 26bd b014 b03c
000002a0: 8010 293d 703e 81bc 2c7f a53c 466a c2bc
000002b0: 7067 823c 3759 64bd b6e1 413d 5029 f23b
000002c0: 0e20 ebbc 2892 113d 3049 153c e02a 38bb
000002d0: bb65 813d 9ae7 b5bc 7ac2 073d f415 80bd
000002e0: c8df f53c 6eaf 713d a876 e83c fc9c 54bc
000002f0: f825 123c 2614 563d 2c0d d1bc a07a 56bb
00000300: 140f 6fbc 4cd5 d83c 400d 4cbd c8ef 78bd
00000310: 2aa1 66bd 5e7c 483d b2f3 7f3d 9e9c 363d
00000320: ceda 39bd 2d6c 79bd fbdf 853d 8364 17bd
00000330: 3461 f83c 1019 ee3b b2e5 79bd 0a0e 793d
00000340: 8015 2ebd 59c1 0dbd c03b bd3b 106d ffbb
00000350: e09e 283d c2f4 273d b5ef 7bbd d4b3 dbbc
00000360: 37b6 79bd 30b4 663c 0ef0 b2bc 0075 453c
00000370: b441 f63c 2466 c33c a821 82bd 1ff9 873d
00000380: 2e7c 763d eeb4 7d3d 8038 ac3b e6d3 273d
00000390: dc4e ad3c 10ab 9cbc bc69 ff3c a0bc 6fbd
000003a0: 38fc 663d 3c2c a5bc 6067 283c 9256 51bd
000003b0: 0255 fcbc e0f1 42bd f4aa 9e3c 0222 d2bc
000003c0: 9e24 583d 1a09 2bbd f40a b63c 96a6 6c3d
000003d0: cad6 433d c0c9 c03b 9481 1abd 989f 1c3d
000003e0: 2043 333c cef5 46bd cc11 6d3d fec0 433d
000003f0: 3010 6f3c 305e 8cbb 4265 73bd a935 3bbd
-0.050758097 -0.05213383 -0.03216944 0.04525715 0.037054844 0.05139757 0.042698868 0.0094319135
0.04373063 0.037181213 -0.042501554 -0.01011328 0.057651617 0.037804678 0.02277004 0.008878112
0.023279905 0.020103008 -0.0004962832 -0.019581877 -0.046589117 0.04623454 0.06239613 0.025174841
0.02457504 0.0416931 -0.04275357 -0.028664589 0.013584033 -0.06276345 0.052568167 0.020411909
-0.021261755 -0.039446976 -0.014361963 -0.022569433 -0.049959853 0.064367004 0.032134153 0.018809743
-0.013007961 0.052460536 -0.015205011 -0.021427713 0.04931856 0.019854546 -0.019560318 -0.040103905
0.0073960423 -0.006045256 -0.053292632 -0.0077877827 0.050975226 -0.04176512 0.009403706 -0.015685994
-0.060519062 -0.06306101 0.010141887 -0.04065847 -0.023398891 0.031579427 0.036404446 -0.039358795
-0.039585903 -0.032530796 -0.0008348599 -0.046253093 -0.0029584467 0.012177981 -0.00368575 -0.023377609
0.003521353 0.059430696 -0.026134975 -0.039775245 -0.044908755 0.045957744 0.03737913 -0.026651602
-0.0076256245 -0.031637423 -0.04946896 0.015992247 0.056060888 -0.008495968 0.03692366 0.002259791
-0.050560486 0.03958837 -0.0012700781 0.04223118 0.024665505 -0.03951752 -0.03923531 0.01016973
0.039778404 0.0019878075 0.022950567 0.035980456 0.0477262 -0.032806728 -0.0027054027 -0.009881537
0.06461146 0.018666469 0.062432326 0.030309372 0.020855986 -0.059741594 0.009525068 0.015921548
0.013241924 0.05273007 0.06176529 0.01381214 -0.04215368 -0.0048060194 -0.037182644 -0.0025176257
0.007977009 -0.0050581545 -0.0029625818 -0.060658313 0.0084358305 -0.03944838 -0.010644123 0.013604358
-0.02931286 -0.02906593 -0.024345063 -0.023872316 -0.058687747 0.029816866 -0.056785926 0.018203162
-0.04869134 0.026972055 -0.063753545 0.05003167 -0.011019647 -0.015995156 -0.030783527 -0.017713703
0.00023528188 0.047028594 0.04986202 -0.022280384 0.03459227 0.063372396 0.0145160705 0.04584962
-0.048002318 0.062332533 0.02788017 -0.049684852 0.0629446 -0.017122578 0.06396239 -0.041464448
-0.019421615 -0.005139753 0.04804477 0.0030770674 -0.051586784 -0.05734829 -0.04064893 0.02149424
0.0412755 -0.015776843 0.020202242 -0.023732316 0.015918463 -0.055749144 0.047334395 0.0073901787
-0.028701808 0.035539776 0.009111688 -0.0028101727 0.06318232 -0.022205163 0.03314445 -0.06254187
0.030013934 0.059005193 0.028376892 -0.012976881 0.008920185 0.05226531 -0.025518976 -0.0032726899
-0.014590997 0.026468895 -0.049817324 -0.06077555 -0.05630604 0.04894673 0.062488265 0.044582956
-0.045374684 -0.06089418 0.065368615 -0.03696109 0.030319788 0.0072661713 -0.06101007 0.060804404
-0.042500973 -0.03460822 0.005774945 -0.0077949837 0.04116714 0.041004904 -0.0615079 -0.026819147
-0.06096479 0.014081046 -0.021842983 0.012051821 0.030060627 0.023852415 -0.06354076 0.06639313
0.06017702 0.061940126 0.0052557588 0.040973566 0.021155767 -0.019124538 0.031178348 -0.058529496
0.05639288 -0.020162694 0.010278553 -0.05110795 -0.030802254 -0.04759395 0.019368626 -0.025650982
0.052769296 -0.041756727 0.02222202 0.057776056 0.04781226 0.0058834255 -0.03772123 0.038238138
0.010941297 -0.04857426 0.0578783 0.047791474 0.014591262 -0.004283689 -0.05942274 -0.04570547

fc2.weight f4 [128, 256]
00000000: e092 4f3b 7290 623d 285f 6fbc ea2c 703d
00000010: 727a 0a3d 02f9 75bd da63 60bd e058 59bc
00000020: 7026 943b 40db 973a a0ee 2cbd c06a bdbb
00000030: 94eb 5abd 9cf7 c7bc 0023 5d3c 209e a03c
00000040: 6449 6cbd 2844 743c 8072 e43a 18ed 07bc
00000050: 608a a53b 063a 1a3d a0f0 18bd f819 6fbc
00000060: 0037 5cba 3c75 37bd 7c2e 00bd dc6a 1abd
00000070: 5617 18bd ac88 20bd b813 e5bc 84a0 f9bc
00000080: 543c 9abc acb8 08bd a0db 183b 6af2 6cbd
00000090: 98fb 84bc e8d1 0cbd 509e 783d 4409 ddbc
000000a0: a0fb 66bb f005 bebc b0ed 66bc 8085 a53b
000000b0: 341e 75bd 48bf 80bc 160a 62bd c013 c7bb
000000c0: ceeb 1d3d 9e2c 5abd ccc2 fcbc f836 eabc
000000d0: 280b 293c 0026 31bb c2b1 0fbd 4071 913b
000000e0: 786e 393d 5a1e 4f3d 00f5 0c3d cef8 113d
000000f0: 4c20 dc3c 82b3 7dbd 2048 b03c 8004 1a3a
00000100: 2800 953c 3006 62bd b670 743d e8df 9a3c
00000110: f810 1a3c acb1 74bd 6ce8 eebc 103e af3c
00000120: e4ad 68bd c8af e53c 8c22 47bd e010 3ebc
00000130: b01c 02bc 10f8 9f3c ac9e 3abd 84e4 49bd
00000140: a2db 14bd 547e 79bd 4090 023b c0f6 6abc
00000150: d81d 3d3c 329f 2c3d 1841 9e3c cccb 353d
00000160: a08b 463d ac9f 85bc 7cee 883c 242f 37bd
00000170: 181c 003d 001b 6b3c 40e3 77bb 40df 593b
00000180: 449b 833c cca2 cdbc c0fb 743b 96e2 073d
00000190: 3c9c 91bc b2b6 6dbd c0f5 06bb 0c57 ddbc
000001a0: 00e8 53bc ec1d 90bc 4496 e2bc 504f 963b
000001b0: 44c7 483d 6807 b3bc 5a8a 1a3d 82c7 103d
000001c0: 408e ecbb 8085 143b ca3b 113d 6a0a 58bd
000001d0: e037 b6bc ac51 c43c 0011 1bba f6fc 393d
000001e0: e074 823b 40a5 d9bc 0a74 0a3d 56c3 78bd
000001f0: 0038 00bd 6c91 123d 98b6 ac3c ee9c 2d3d
00000200: f071 93bc 8028 43bb daee 603d 5084 a13c
00000210: 3ca3 7abd 445d a5bc a007 433b 40cd 6c3b
00000220: a82d 313c f00f 6fbc 784d a73c cc83 cb3c
00000230: 2800 d0bc beab 573d 4894 f83c 88d7 74bd
00000240: b4c4 543d 5027 a73c 4a50 02bd e0a4 853b
00000250: 040c f03c 2241 50bd 8a41 603d 183e 16bd
00000260: 6c1a 7dbd 2e96 113d f0b4 da3b b060 14bc
00000270: da1c 5cbd 1021 093d d861 e7bc 38fe 1e3c
00000280: c009 a83b fc6d 573d 40e8 5f3d d07b 3dbc
00000290: b8a6 05bd 4040 b13a 0e11 7abd d684 68bd
000002a0: 2c8c 473d 48ec 85bc 3a24 53bd 88e7 543d
000002b0: 34bd 8c3c 40f1 5fbd 0c0c d1bc 5803 05bd
000002c0: 907c ee3c 2887 403c 4e84 59bd d85e f0bc
000002d0: 8e40 19bd de8d 5f3d 4ef6 56bd f4d5 cebc
000002e0: 5823 b3bc fc2f 793d 56c2 51bd 7ceb 98bc
000002f0: 00fc 08bc 0ca9 9a3c 4604 603d 0054 04bd
00000300: aa75 3bbd 0091 1a3d c06d 453b f0f9 dbbb
00000310: 9ca8 a5bc 3e6f 2bbd e852 39bc 688c fcbc
00000320: 28e4 3d3d 8cbb debc 6c0a 603d 70db f0bc
00000330: 923a 193d bc37 f03c 0069 9b3b e8da 923c
00000340: 4072 fa3c 082b c5bc 7abd 223d fc5e 0b3d
00000350: 5644 1bbd f867 d0bc 0030 59ba 4442 11bd
00000360: f02b 33bc 784b 3b3d 6e5f 4ebd bcb4 373d
00000370: 9edb 40bd 76a1 003d 80f8 1d3b d0a6 90bb
00000380: 0049 15bc e04e e5bb 789d 343d 3054 45bc
00000390: c4a3 383d e0f3 ef3b 7ce8 18bd 5ca2 953c
000003a0: 20d7 063b 4c06 66bd 2c9e a83c 9cd1 e0bc
000003b0: fe51 0dbd 1078 c4bb 88b1 513d d853 2fbd
000003c0: d493 9cbc f420 523d 2e72 533d 8049 723d
000003d0: 3679 293d 784f 463c 88b4 a7bc 5888 69bd
000003e0: 00b7 ee3b 84c9 30bd 5c1c bdbc 00fa 1e39
000003f0: 54a7 a1bc 2060 1f3d d8ed d43c cc40 59bd
0.0031673238 0.055313535 -0.014610089 0.058636583 0.03380818 -0.060051925 -0.054782726 -0.013265818
0.0045211837 0.0011585727 -0.042219758 -0.005780548 -0.05344732 -0.024410062 0.013497114 0.01960665
-0.05768718 0.014908828 0.0017429143 -0.008296274 0.005051896 0.03765299 -0.037338853 -0.014593594
-0.00084005296 -0.044789538 -0.03129433 -0.037699565 -0.03713163 -0.03919284 -0.027963504 -0.030472048
-0.018827595 -0.03337924 0.0023324266 -0.05784837 -0.01623325 -0.03437987 0.060697854 -0.026981957
-0.0035245195 -0.02319619 -0.014094755 0.005051315 -0.059843257 -0.01571621 -0.0551854 -0.0060753524
0.03855496 -0.053265207 -0.030854605 -0.028590664 0.010317601 -0.0027030706 -0.035081632 0.0044385493
0.045271367 0.050566055 0.034413338 0.03563767 0.02687087 -0.06193877 0.021518767 0.00058753043
0.018188551 -0.055181682 0.059677802 0.018905595 0.00940346 -0.059739754 -0.029163562 0.021391898
-0.05680646 0.02803792 -0.04861693 -0.011600703 -0.00794141 0.019527465 -0.045561478 -0.049290195
-0.03634227 -0.06091149 0.0019922405 -0.014341056 0.01154276 0.042144008 0.019318148 0.04438381
0.048473 -0.016311489 0.01671528 -0.04472269 0.031276792 0.014349699 -0.003782466 0.003324464
0.016065247 -0.025102042 0.00373815 0.033175074 -0.017774694 -0.05803556 -0.0020593256 -0.027019046
-0.012933731 -0.017592393 -0.027659543 0.0045870915 0.04901816 -0.021854118 0.0377296 0.035346515
-0.007219106 0.002266258 0.03545741 -0.052744307 -0.02224344 0.023964725 -0.0005915314 0.045407258
0.0039812177 -0.026568055 0.03380207 -0.060733162 -0.031303406 0.035783216 0.021083161 0.042385988
-0.017998666 -0.0029778779 0.054915287 0.019716412 -0.06119083 -0.020186074 0.0029759184 0.003613308
0.010814108 -0.014591202 0.020422682 0.02484312 -0.0253907 0.05265402 0.030344144 -0.05977586
0.051945403 0.020404488 -0.03181485 0.0040784925 0.029302604 -0.050843365 0.054750003 -0.03668031
-0.061792776 0.035543613 0.0066744015 -0.009056255 -0.053738452 0.033478796 -0.028244898 0.009704165
0.0051281154 0.052595124 0.05466485 -0.011565164 -0.0326297 0.0013523176 -0.06105142 -0.056767307
0.048717663 -0.01634802 -0.05154822 0.051978618 0.017180063 -0.054673433 -0.02551844 -0.032473892
0.02911213 0.011750974 -0.05310469 -0.0293421 -0.03741508 0.054578654 -0.05248099 -0.025248505
-0.02186744 0.060836777 -0.051210724 -0.018666975 -0.008360863 0.018879436 0.054691575 -0.03230667
-0.04576651 0.03773594 0.003012523 -0.0067131445 -0.020222 -0.041854136 -0.01131127 -0.03082867
0.046360165 -0.027189039 0.05469744 -0.029401511 0.037409373 0.029323451 0.0047427416 0.017926648
0.030572057 -0.02406837 0.03973148 0.03402613 -0.037906967 -0.025440201 -0.00082850456 -0.035463586
-0.0109357685 0.04572627 -0.050383978 0.044850096 -0.047084443 0.03140398 0.0024104416 -0.004414417
-0.009111643 -0.006997928 0.044095486 -0.012043998 0.045078054 0.0073227733 -0.03733109 0.018265896
0.0020575002 -0.05615835 0.020583235 -0.0274437 -0.034502022 -0.005995758 0.051194698 -0.04280457
-0.019113459 0.051300958 0.051622562 0.059152126 0.04137536 0.012103908 -0.020471826 -0.057014793
0.007284999 -0.04316093 -0.023084812 0.00015161186 -0.019733109 0.03891003 0.025992319 -0.05304031

fc2.bias f4 [128]
00000000: 889b 5fbc 20f7 e7bc 0e96 38bd 9e4c 153d
00000010: b850 52bc 9e82 5f3d 60b1 9cbc 38d3 5fbc
00000020: 8484 cabc 340b fc3c 68b7 e83c b889 e6bc
00000030: 38e0 ce3c 208f 2dbd 30f8 2fbd e468 ba3c
00000040: f28e 613d e43a 6d3d f403 8c3c 32e4 34bd
00000050: 30bc 31bc 989a c3bc 0661 3abd fc38 e0bc
00000060: c0a1 95bb e06e 4bbd 68ba 0bbd 1e70 673d
00000070: fc1b 9a3c c6e8 313d 2472 403d 80e0 783b
00000080: a048 653c 76a3 1ebd baf0 493d 1c53 93bc
00000090: acfc 5a3d a24f 0fbd c8f7 513d aa6e 6dbd
000000a0: bcc7 84bc 0a50 723d b0fe aebb 1c34 d2bc
000000b0: c088 c1bc dee3 14bd c03f 983a daa4 313d
000000c0: 22cc 4d3d eefc 5ebd 9638 063d 62d2 07bd
000000d0: a086 24bb 1870 9a3c 98e2 48bd 1a46 69bd
000000e0: 906a f83b a09b cc3b b07e 09bc 4636 5f3d
000000f0: 00b8 88bc 30d6 3dbc 1a76 0ebd 1823 2fbd
00000100: b010 b3bb 4247 7cbd eea6 22bd 3258 083d
00000110: e08a 383d 46c8 703d 70c2 3e3d 2e15 163d
00000120: 6ee6 04bd 3a0c 4c3d 4044 dc3c 2448 6bbd
00000130: 9e56 443d 64a9 b7bc 7055 a73b dcb0 85bc
00000140: 1673 0dbd 5cb8 96bc ecbf aebc a637 6abd
00000150: 6cf7 6cbd a252 163d 8c15 d13c c8c0 3f3c
00000160: 0ca5 f1bc 6639 3bbd da5c 7fbd 50f5 ab3c
00000170: ccc3 96bc 04a6 9fbc 98dd 0fbd fad7 593d
00000180: 06f6 363d 1e6f 5c3d 56a5 44bd 9c95 843c
00000190: ca06 193d 10bd 933b 683b 03bd 4e30 343d
000001a0: 701a 70bd 1e72 773d 046f e23c 209d 68bb
000001b0: f0c0 ab3b 3828 423c d4a5 99bc c0af 9abb
000001c0: 58b8 01bd 608a fb3b 8045 6dbd a838 3b3d
000001d0: f418 a03c c0cc 05bb 7c78 633d d0ec 00bd
000001e0: 20d8 04bb 5ca7 07bd 84d0 dbbc 08ce fabc
000001f0: 1cad 113d b8d9 85bc 9292 6fbd 3486 273d
-0.013647921 -0.02831608 -0.04506498 0.03645002 -0.012836628 0.054567926 -0.019127548 -0.013661198
-0.024721391 0.03076706 0.028407767 -0.028141841 0.0252534 -0.042372823 -0.0429613 0.022755094
0.055067964 0.05791749 0.017091729 -0.044162937 -0.01084809 -0.023877427 -0.045502685 -0.027370922
-0.0045664012 -0.049666286 -0.034113318 0.056503408 0.018812172 0.04343488 0.046983853 0.003797561
0.013994366 -0.038730107 0.04930184 -0.017983966 0.053463623 -0.034988053 0.051261693 -0.057966866
-0.016208522 0.059158362 -0.0053404197 -0.025659613 -0.023624778 -0.036350124 0.0011615679 0.043370105
0.050243504 -0.05444043 0.03276881 -0.03315962 -0.0025104657 0.018852279 -0.04904422 -0.05695162
0.0075810626 0.006244138 -0.008392021 0.05449512 -0.0166893 -0.011586711 -0.0347806 -0.042758077
-0.005464636 -0.061591394 -0.039709978 0.033287235 0.045054317 0.058784746 0.04657215 0.036641292
-0.032446317 0.049816348 0.026888013 -0.057441846 0.047934167 -0.022419639 0.0051066205 -0.016319685
-0.034533583 -0.018398456 -0.02133175 -0.057181977 -0.057853147 0.0366999 0.02552297 0.0117036775
-0.029497646 -0.045709036 -0.06234441 0.020990998 -0.01840391 -0.019488342 -0.035123438 0.053184487
0.04466822 0.053816907 -0.04800924 0.01618462 0.03735999 0.004508622 -0.032039076 0.04399138
-0.058618963 0.060411565 0.027640827 -0.0035494044 0.005241506 0.011850409 -0.01875583 -0.004720658
-0.031669945 0.0076764077 -0.05792761 0.04570833 0.019543149 -0.002041623 0.055534825 -0.031475842
-0.0020270422 -0.03311859 -0.026832826 -0.030615821 0.03556548 -0.016339168 -0.05848939 0.04089947

fc3.weight f4 [10, 128]
00000000: 21c2 60bd 1b9e a93d cce1 40bd 0080 e53c
00000010: 8e98 42bd dccc 9bbc 6d7d acbd a4b1 cebc
00000020: 7161 963d 98b9 63bc a077 2abc faca 6c3d
00000030: 38bb 52bd 464e 5ebd 7ce0 c73c 32dd 1b3d
00000040: 1588 3ebd 7aff 22bd e2e2 78bd 421b fabc
00000050: eefd edbc 2096 fe3c 7aa2 783d 8a1a 533d
00000060: 4302 ab3d 9a86 a8bd 9811 153d 2c63 b9bc
00000070: 0f06 8d3d 80d0 54ba 107c 403c 2557 9b3d
00000080: e859 9e3c 40e4 31bc 4c6d 0c3d 5917 803d
00000090: 7ac3 83bd e874 0d3d 71cc 74bd 7046 563c
000000a0: bfc5 ae3d ebd5 a33d 0022 34b9 e9cc 823d
000000b0: 5e42 3f3d a4fb 9f3c 4089 863c deb8 5abd
000000c0: bcda 90bd 1490 b4bc ca8b 94bd 565b 3f3d
000000d0: c76e 8bbd d9e1 99bd 3269 dcbc 62f9 a4bd
000000e0: d856 39bd c7c9 96bd 488c 85bc 4d8d 4abd
000000f0: 7a3d 573d 107f b4bd 0c00 b9bc a600 453d
00000100: 40c5 c43b 8602 173d d41f 9cbd d700 9d3d
00000110: 5d21 7dbd 7e03 623d 0604 423d 1534 843d
00000120: 00a6 f2ba a1b4 4bbd d3c5 b03d 7b1c 8d3d
00000130: ca3e 693d c545 5fbd ee2c 423d 74c8 39bd
00000140: 7f7d 8a3d 30b2 42bc 609a 82bb 0ab0 5abd
00000150: 9c72 ae3c 9259 24bd f26b a5bd 775e 843d
00000160: 3016 093c a008 25bd 207f e1bb 9068 0dbc
00000170: 9971 823d bb0b 3abd d2b2 7c3d 0b5f 3fbd
00000180: b582 8a3d 453d b33d e09e b2bd ae05 85bd
00000190: 2820 9a3c c4df a2bc 6e33 1b3d 8fe6 8f3d
000001a0: 808e ff3a 930e af3d cdcf 893d b8a1 a6bd
000001b0: 491b 81bd 8618 acbd a6e3 b4bd d3d1 5fbd
000001c0: 29cc 4bbd df74 9c3d 28f3 0d3c 38e3 2f3c
000001d0: 3eca 213d 4a5e 593d 29e9 a33d 80b0 803a
000001e0: 5048 b8bc 20af 963b 4fbc 82bd 9a5a 19bd
000001f0: 21dd 913d c0e5 8d3c 1def 8fbd 3807 51bc
00000200: 901f eebc 358f 80bd 38ef 073d d43b a5bc
00000210: 6338 2bbd 40f4 a4bd c1a9 9cbd 9393 aebd
00000220: c65b 763d 4cb4 863c 0f25 a33d 6edf 603d
00000230: fc5b 3cbd b0e5 e03c 531d a03d 02a9 90bd
00000240: a222 10bd 98ed 043d 3cce b0bc ee36 353d
00000250: f89d 6b3c e6e9 333d c80a 903c 6db2 63bd
00000260: 77a5 0fbd 47cd a0bd 9823 0abc 5a13 3d3d
00000270: 4ef3 263d 40aa 67bc e49c f83c 9ac2 81bd
00000280: a1d3 06bd 1ab0 6d3d 359d abbd c89a 8fbd
00000290: 8070 533b dc0c 9d3c 208e 3c3b 7c52 a1bc
000002a0: 837b 28bd 83c8 9bbd ebe9 4abd 600b babc
000002b0: b2ee 703d 60bf 40bc d7a2 993d 603e 90bd
000002c0: 7878 64bc e8ce 15bd a03b 883c a2f9 663d
000002d0: c04f 133d 58ec 99bc 7872 543c 3569 88bd
000002e0: 4963 863d 1edf 6e3d ea9d 673d 58f1 0e3c
000002f0: 0397 67bd 4b2a 9e3d 1738 6abd 6c61 8fbd
00000300: 5c29 9dbd 1099 a8bb 3220 f0bc 30f8 143d
00000310: 77cb 96bd 24d8 a83c 80eb 243c 687c 31bd
00000320: bf66 90bd ee4c 2d3d 3022 adbc 2b4a 933d
00000330: 80c3 083c deb5 3cbd 74a3 d7bc 7221 ffbc
00000340: 1eea 1a3d b8c4 9abc ba27 5d3d 18ed 5fbc
00000350: fe01 533d e866 92bc 1041 b23b a1e8 973d
00000360: 333a 62bd 51c6 9fbd 021e 483d 7da8 883d
00000370: a350 933d b025 2cbc f0a9 c73c b694 33bd
00000380: 0b2f 983d 5cd9 8ebd 5ba5 b03d 00cd aebb
00000390: 80c8 5abc ad67 b13d ac2e adbd c394 953d
000003a0: 2020 2dbd 1714 803d 6c81 70bd f980 853d
000003b0: 5213 563d 80d5 84bb 89a7 8d3d befe 2f3d
000003c0: 8065 b4bb 2c0c e03c c8b8 27bd 18f0 1abd
000003d0: e0e8 6a3c 6e68 a4bd cc3c c4bc c8ac 223c
000003e0: 2863 7fbd 40cf 94bc e023 06bc bcb2 0d3d
000003f0: 1ef6 35bd 2f02 b33d 0a61 313d cd92 b23d
-0.054872636 0.08282109 -0.047090337 0.028015137 -0.04750877 -0.019018583 -0.084223606 -0.02523119
0.07342804 -0.0138992295 -0.010404497 0.05781076 -0.051448077 -0.054273866 0.024399035 0.038052745
-0.046516497 -0.039794423 -0.060763247 -0.030530576 -0.029051747 0.031077445 0.060701825 0.05153898
0.08350041 -0.08228798 0.03639373 -0.022630297 0.06885921 -0.0008118227 0.011748329 0.07584981
0.01932998 -0.010857642 0.03428392 0.06254453 -0.064337686 0.03453532 -0.059765283 0.013078317
0.08533811 0.07999786 -0.00017178804 0.0638674 0.046694152 0.019529171 0.016422868 -0.05339896
-0.0707297 -0.022041358 -0.07253225 0.046717964 -0.068082385 -0.0751378 -0.02690563 -0.080553785
-0.045248836 -0.07362705 -0.016302243 -0.04945116 0.052548863 -0.08813298 -0.02258303 0.04809632
0.0060049593 0.03686764 -0.07623258 0.07666176 -0.061799396 0.05517911 0.04736712 0.06455246
-0.0018512607 -0.049732808 0.08631482 0.06890198 0.056944646 -0.054509897 0.04740613 -0.045357183
0.06762218 -0.0118833035 -0.003985688 -0.05339054 0.021294884 -0.040124483 -0.080772296 0.0646333
0.008367106 -0.04029143 -0.0068816096 -0.008630887 0.06369323 -0.045421343 0.061693974 -0.0467215
0.06763212 0.087519206 -0.08721709 -0.06495224 0.018814161 -0.01988209 0.037890844 0.070263974
0.0019497424 0.08547702 0.06729088 -0.08136314 -0.06304032 -0.08403115 -0.08832483 -0.054643463
-0.04975525 0.07639479 0.00866393 0.0107353255 0.039499514 0.053068437 0.08003456 0.0009818226
-0.022495419 0.0045985132 -0.06383573 -0.03743992 0.07122255 0.017321467 -0.07028029 -0.012758069
-0.029067785 -0.062773146 0.03318712 -0.02017013 -0.04180182 -0.080543995 -0.076495655 -0.08524241
0.060146116 0.016443394 0.07966053 0.05490058 -0.04598616 0.027453274 0.07818093 -0.07063486
-0.03518928 0.03245315 -0.021582715 0.04424184 0.014380924 0.043924235 0.017583266 -0.055590082
-0.03506991 -0.078516535 -0.008431338 0.046161033 0.040759377 -0.014139712 0.030348249 -0.063359454
-0.03291667 0.05802927 -0.08379594 -0.07011944 0.00322631 0.01917117 0.0028771237 -0.019692652
-0.041133415 -0.07606604 -0.049539488 -0.022710502 0.058821388 -0.011764377 0.07501762 -0.07043147
-0.013944738 -0.036574274 0.016629994 0.056390412 0.035964727 -0.018789455 0.012966745 -0.06660692
0.06561906 0.05831825 0.056547083 0.008724533 -0.0565405 0.077229105 -0.057182398 -0.070010036
-0.07673904 -0.0051451996 -0.029312227 0.036369503 -0.073630266 0.020610876 0.010065913 -0.043331534
-0.07050847 0.042309694 -0.021134466 0.07191881 0.008347392 -0.04607188 -0.026323058 -0.031143878
0.037820928 -0.018892631 0.053992964 -0.013667367 0.05151557 -0.017871335 0.005439885 0.07417417
-0.055231284 -0.07801498 0.048856743 0.066727616 0.071931146 -0.010507032 0.024373025 -0.043842994
0.07430848 -0.06975052 0.08625289 -0.0053344965 -0.013353467 0.08662353 -0.084561676 0.07303765
-0.042266965 0.06253832 -0.058717176 0.0651874 0.05226452 -0.0040537715 0.069167204 0.04296755
-0.005505264 0.027349554 -0.040947706 -0.037826627 0.014337748 -0.08027731 -0.023954771 0.00992889
-0.062350422 -0.01816523 -0.008187264 0.034594283 -0.04442417 0.08740651 0.043305434 0.08719406

fc3.bias f4 [10]
00000000: 600a 5e3b 74f9 57bd d6eb a3bd 0658 a3bd
00000010: 8792 adbd 4663 5b3d eafa 3d3d 562c 713d
00000020: d206 8dbd 20c0 ad3c
0.0033880696 -0.05272813 -0.080039665 -0.079757735 -0.084752135 0.05356147 0.04638187 0.058880173
-0.068860665 0.021209776
