checkpoint/ConvNet2_ep0.pth (torch, 986503 bytes, 10 tensors)

conv1.weight f4 [128, 3, 3, 3]
0	0xbda939f1	-0.082630046
1	0xbba51049	-0.0050373417
2	0x3db46a2a	0.08809312
3	0xbd2e92b1	-0.042620365
4	0xbdeeff2d	-0.11669765
5	0x3d9400f5	0.07226745
6	0xbe3efdec	-0.18651551
7	0x3e33168a	0.17489067
8	0x3e05814c	0.13037604
9	0x3c02243a	0.007943207
10	0xbe332e5d	-0.17498155
11	0xbe0d99db	-0.13828222
12	0x3ce3640e	0.02775767
13	0xbc992e22	-0.018698756
14	0x3e32be80	0.17455482
15	0xbd2eaa29	-0.042642746
16	0x3cc73bcf	0.024320511
17	0xbe38fd05	-0.1806527
18	0x3dc77979	0.09739966
19	0x3d644241	0.055727247
20	0x3d48cdef	0.04902452
21	0x3dd7acd7	0.105310135
22	0xbd7296f5	-0.059225995
23	0xbe16ff7a	-0.14745894
24	0x3dc91c1c	0.098198146
25	0x3e44dd62	0.19225076
26	0xbe0101ec	-0.1259839
27	0xbdd010fa	-0.10159488
28	0x3cc9dcc8	0.02464141
29	0xbd6137c4	-0.054984823
30	0x3dabc002	0.08386232
31	0xbd243304	-0.040087715
32	0x3df26f6e	0.1183766
33	0xbd4f6cd4	-0.050640896
34	0x3e3781f1	0.17920662
35	0xbbc079a0	-0.005873874
36	0xbe10fcc7	-0.14158927
37	0x3daa2542	0.083078876
38	0xbdd122fd	-0.102117516
39	0xbd3cba3c	-0.046076044
40	0xbccc8bf0	-0.024969071
41	0x3e0dd76d	0.1385171
42	0xbd31669c	-0.043310747
43	0xbd77968c	-0.060446307
44	0x3dfd72c2	0.12375404
45	0xbe164534	-0.14674836
46	0x3d2fb16c	0.042893812
47	0x3da41fea	0.080138996
48	0xbcff5328	-0.031167582
49	0x3e046389	0.12928595
50	0xbc763050	-0.015026167
51	0x3e3a14e1	0.18172027
52	0x3e42f43f	0.19038485
53	0x3dececea	0.11568625
54	0xbdc3063b	-0.09522673
55	0x3e44df43	0.19225793
56	0x3c7e2f81	0.0155142555
57	0xbd07d2bb	-0.033159953
58	0xbe2d772f	-0.16939996
59	0x3dbbd9f7	0.09172433
60	0x3cc21f7e	0.023696657
61	0xbdda4c34	-0.10659066
62	0xbe1b90d1	-0.15191962
63	0xbde6d00c	-0.112701505
64	0x3dca1a3c	0.09868285
65	0x3e1e15b8	0.15437973
66	0xbdd28519	-0.102792926
67	0x3e3d8a3b	0.18509762
68	0x3dc16253	0.09442582
69	0xbc5f861f	-0.013642817
70	0xbde22c46	-0.11043601
71	0xbe37e59e	-0.17958686
72	0xbbf4987f	-0.007464468
73	0xbe37ee4c	-0.17961997
74	0x3e0f160c	0.13973254
75	0xbe4257b0	-0.18978763
76	0x3dd5be9f	0.10436749
77	0xbe3afd3d	-0.18260665
78	0xbdc2da4c	-0.09514293
79	0xbbf28fcf	-0.007402397
80	0xbe118f2c	-0.14214772
81	0xbe44ed67	-0.19231187
82	0xbc7b15df	-0.015325039
83	0xbc90a28a	-0.01765563
84	0xbd62b7f3	-0.05535121
85	0x3e293cdb	0.16527121
86	0xbdfe1d5e	-0.12407945
87	0xbd48191b	-0.048852067
88	0x3e0cba97	0.13743053
89	0x3e41a6da	0.18911305
90	0xbdc95229	-0.09830124
91	0x3dfcfaf8	0.12352556
92	0xbd8e792c	-0.069567055
93	0x3d1b4e7d	0.03791665
94	0x3de1f28f	0.110325925
95	0xbda6e91c	-0.08149931
96	0x3dcea0f5	0.10089294
97	0x3d16156f	0.036641534
98	0x3db7836d	0.08960614
99	0xbd3f90b6	-0.046768866
100	0x3e36cc80	0.17851448
101	0xbe1011f6	-0.14069352
102	0x3d710911	0.058846537
103	0x3df62527	0.12018805
104	0xbdea245d	-0.11432717
105	0xbe2a7d80	-0.16649437
106	0xbd413f49	-0.047179494
107	0x3e052aec	0.13004655
108	0xbc1e2d0f	-0.0096542975
109	0xbda0f8e8	-0.07859975
110	0xbe147ce7	-0.14500771
111	0xbd7404b5	-0.0595748
112	0x3e28141c	0.16413921
113	0x3e3aa882	0.18228343
114	0xbda0a5c6	-0.07844119
115	0xbdf2b688	-0.11851221
116	0x3d115371	0.035479967
117	0xbd564fb3	-0.0523221
118	0x3e05300d	0.13006611
119	0xbcadeda1	-0.021231474
120	0xbd432f0d	-0.047652293
121	0xbde1deb7	-0.110288076
122	0xbdf422e5	-0.11920718
123	0xbe3f3a23	-0.18674521
124	0x3c66d319	0.014088416
125	0xbe232af2	-0.15934351
126	0x3dfcf02a	0.12350495
127	0xbe2ff0e6	-0.17181739
128	0x3d843346	0.06455092
129	0xbe2adbaf	-0.16685365
130	0xbe0a01a6	-0.13477191
131	0xbcb43349	-0.02199711
132	0x3d67fca2	0.056637414
133	0xbd88485f	-0.06654429
134	0x3cae163c	0.021250837
135	0x3d184000	0.03717041
136	0x3e1ae64f	0.15126918
137	0xbd879798	-0.06620711
138	0x3d9455ae	0.072429046
139	0xbd5237a4	-0.051322594
140	0xbc8e11b0	-0.017342418
141	0x3e3e0177	0.18555246
142	0xbd00b05c	-0.03141819
143	0xbe12d3b9	-0.14338578
144	0x3e447e61	0.19188835
145	0xbe3e6a85	-0.18595321
146	0x3cc73f28	0.024322107
147	0xbdde018e	-0.1084014
148	0xbc316550	-0.010827377
149	0x3d9c6a36	0.07637446
150	0xbdfb833c	-0.1228089
151	0x3e3c2c2b	0.18376224
152	0xbe08f809	-0.13375868
153	0x3e42cdd9	0.19023837
154	0x3e31949f	0.1734185
155	0x3dab102a	0.083526924
156	0x3d1358a0	0.03597319
157	0x3a60fe00	0.0008582771
158	0xbe0c7f06	-0.1372033
159	0xbd2b9104	-0.041886345
160	0x3dda783a	0.10667463
161	0x3e169119	0.14703788
162	0x3e228639	0.15871514
163	0xbd9e0ab8	-0.07716888
164	0xbd120de7	-0.03565779
165	0x3d25e02f	0.040497
166	0x3d61db0b	0.055140536
167	0x3de6fb52	0.11278404
168	0x3dfc05ba	0.1230578
169	0xbdd8b906	-0.105821654
170	0xbe2be7f4	-0.16787702
171	0x3d8dd111	0.06924642
172	0x3e36f99b	0.17868654
173	0xbd8b370d	-0.067976095
174	0x3e305711	0.17220713
175	0xbd991387	-0.07474428
176	0x3d8572f2	0.06516065
177	0xbd04fe7a	-0.03246925
178	0xbe233323	-0.15937476
179	0x3c8cf53c	0.01720678
180	0xbe18ee3c	-0.14934629
181	0xbdfa7314	-0.12228981
182	0xbddb4bb3	-0.10707798
183	0xbe172bd1	-0.14762808
184	0xbdb81531	-0.08988417
185	0xbe42ec76	-0.19035515
186	0xbb0ef6d6	-0.0021814606
187	0x3df7abc4	0.120933086
188	0xbb5d34de	-0.0033753435
189	0xbdfa70cd	-0.12228546
190	0x3de15269	0.110020466
191	0xbd9fe50a	-0.078073576
192	0x3d5b6086	0.05355885
193	0xbe07c8bf	-0.13260172
194	0x3e021d43	0.12706475
195	0x3df55ede	0.11980985
196	0x3c8b677d	0.01701712
197	0x3d4e0de0	0.0503062
198	0xbdd58531	-0.10425795
199	0x3d93e0c9	0.07220609
200	0xbdaa7138	-0.08322376
201	0xbe0e218f	-0.13879989
202	0x3c91c4a0	0.017793953
203	0xbd8a268b	-0.06745633
204	0x3dbc731a	0.092016414
205	0xbe4298f6	-0.19003662
206	0x3dd3050f	0.10303699
207	0xbe31bc13	-0.17356901
208	0xba6b5458	-0.0008977107
209	0x3e26e006	0.16296396
210	0xbe267daa	-0.16258875
211	0xbd016ade	-0.031596057
212	0x3d5b792c	0.053582355
213	0x3e2bde99	0.16784133
214	0x3e06eb41	0.1317568
215	0xbdb819ed	-0.0898932
216	0x3e2bd39b	0.1677994
217	0xbdecb806	-0.11558537
218	0xbe0305eb	-0.12795226
219	0xbdf47893	-0.1193706
220	0xbe1aca10	-0.15116143
221	0x3e25078d	0.16116162
222	0xbd7bae79	-0.061445687
223	0xbc0d93b9	-0.008641177
224	0xbe10966b	-0.1411988
225	0xbbfe7373	-0.0077652275
226	0xbe2cb160	-0.16864538
227	0xbdeee75c	-0.11665222
228	0x3e4018f8	0.18759525
229	0x3de5b66b	0.11216434
230	0x3dfc107d	0.123078324
231	0xbe223c13	-0.15843229
232	0xbe079320	-0.13239717
233	0x3e0e3a9d	0.13889547
234	0x3d9d01ac	0.076663345
235	0x3d02d545	0.03194167
236	0x3df88e4a	0.121365145
237	0xbc8435f4	-0.016139008
238	0xbdaef6b2	-0.08543147
239	0x3d09df1f	0.03366005
240	0x3cbcf44c	0.023065709
241	0x3e23d611	0.15999629
242	0x3d7a37d4	0.061088398
243	0xbd9d8ee5	-0.076932706
244	0x3bdbfd95	0.006713579
245	0x3d9ae99e	0.0756409
246	0xbdf09db0	-0.117488265
247	0x3d7984d3	0.060917687
248	0x3d7be5a3	0.061498296
249	0x3dc1350a	0.094339445
250	0xbe0912d0	-0.13386083
251	0xbe31584d	-0.1731884
252	0x3c9a7e5f	0.018859087
253	0x3dc3cf0f	0.09560978
254	0x3dd25f72	0.10272111
255	0xbc8f06cc	-0.017459296

conv1.bias f4 [128]
0	0x3d08e0ee	0.033417635
1	0xbe398301	-0.1811638
2	0x3deeb125	0.116548814
3	0x3e122818	0.14273107
4	0x3d9a0574	0.07520571
5	0xbe1d99bb	-0.15390675
6	0xbde998c0	-0.11406088
7	0x3df26f40	0.118376255
8	0xbde1b97f	-0.11021709
9	0xbcf5f9f0	-0.030026406
10	0xbd0277e6	-0.031852625
11	0xbd2c83c3	-0.042117845
12	0xbe3b9ce0	-0.18321562
13	0x3d5b4170	0.053529203
14	0x3e4003a2	0.18751386
15	0xbe3fb495	-0.1872123
16	0x3b8b60fe	0.0042535057
17	0x3dc6fe01	0.09716416
18	0xbdb8adda	-0.090175346
19	0xbdc84897	-0.097794704
20	0xbb11b940	-0.0022235662
21	0x3e20e6a4	0.15712982
22	0xbd886746	-0.06660323
23	0x3d71c1b4	0.05902262
24	0x3dab5e98	0.08367652
25	0xbda1336b	-0.07871135
26	0x3e11f089	0.14251913
27	0x3e43f1de	0.19135234
28	0xbe3a6bf4	-0.18205243
29	0xbe0e2b98	-0.13883817
30	0x3dfbf14a	0.123018816
31	0xbe1736c0	-0.14766979
32	0xbe36a90e	-0.17837927
33	0x3e36fe3c	0.1787042
34	0xbcb176af	-0.021663038
35	0x3d7a3501	0.061085705
36	0xbd81c1b8	-0.06335777
37	0xbe193585	-0.14961822
38	0xbdbf2084	-0.09332374
39	0x3d9843ba	0.07434793
40	0x3d8668ab	0.065629326
41	0x3dce5101	0.10074044
42	0xbe08cf5a	-0.13360348
43	0x3d91b7fb	0.071151696
44	0xbd7675d4	-0.060170963
45	0xbe22ebcd	-0.15910263
46	0xbd352b08	-0.04423049
47	0xbc3a62a6	-0.011376059
48	0x3e00b608	0.1256944
49	0x3e3488f0	0.17630363
50	0x3e363b07	0.17795955
51	0xbd0be769	-0.034156237
52	0xbe335004	-0.17510992
53	0xbd0da726	-0.034583233
54	0x3de6a33f	0.112616055
55	0xbd566df0	-0.05235094
56	0xbe3efac0	-0.18650341
57	0xbe187070	-0.14886642
58	0xbd81bacf	-0.06334459
59	0xbe2b2041	-0.16711523
60	0x3d1bcfab	0.038039844
61	0xbbfbce80	-0.007684529
62	0x3d0056bc	0.031332716
63	0x3e23453b	0.15944378
64	0xbe071eac	-0.13195294
65	0xbba29d7f	-0.0049626227
66	0x3d0c4375	0.03424402
67	0x3e2d4f36	0.16924748
68	0x3d941bce	0.07231866
69	0x3dbb7913	0.091539524
70	0x3e18115d	0.14850374
71	0x3e35538c	0.17707652
72	0x3c212f83	0.009837988
73	0xbe365486	-0.1780568
74	0x3d63ef82	0.055648334
75	0x3e2c8bf9	0.1685027
76	0x3e12a13f	0.14319323
77	0xbdad978d	-0.08476172
78	0xbe1c0ed9	-0.15240039
79	0xbc8576de	-0.016292032
80	0x3dc71009	0.09719855
81	0x3c8f3269	0.017480092
82	0xbdd1cf8f	-0.10244667
83	0xbe002309	-0.12513365
84	0xbe2e10ea	-0.1699864
85	0x3ce23322	0.027612273
86	0xbe14f99e	-0.14548346
87	0x3e1a10a2	0.15045407
88	0x3c19095a	0.0093406085
89	0x3e0e8426	0.13917598
90	0x3d89efc1	0.067351826
91	0xbde0ba65	-0.10973052
92	0xbcc6e5d5	-0.024279514
93	0xbe3031bf	-0.17206477
94	0x3dbcd7b2	0.09220828
95	0x3e2b7ae3	0.16746096
96	0x3d9aef5e	0.07565187
97	0x3b641845	0.0034804505
98	0x3db4bb2f	0.08824765
99	0xbdb61db7	-0.088923864
100	0xbde4ff38	-0.111814916
101	0x3dd4923a	0.10379453
102	0x3d4ffd54	0.050778702
103	0xbd8fa11a	-0.070131496
104	0xbe1f1ebf	-0.15539072
105	0xbd827585	-0.06370071
106	0xbe1df018	-0.1542362
107	0x3d7d1774	0.061789945
108	0x3e0a7a7f	0.13523291
109	0x3dc45957	0.09587353
110	0x3e41c894	0.1892417
111	0x3e2538b5	0.16134913
112	0xbdcd17ca	-0.10014303
113	0x3c6df971	0.0145248035
114	0xbe2c19b2	-0.16806677
115	0x3d2fd044	0.042923227
116	0x3ccb7260	0.024834812
117	0x3d4323d9	0.04764161
118	0xbe1e9325	-0.15485819
119	0xbc8a33d6	-0.01687042
120	0xbde036b7	-0.10947936
121	0x3e433a78	0.19065273
122	0x3e24d4d9	0.1609682
123	0xbc9f176e	-0.019420352
124	0x3cb2d0d3	0.02182809
125	0xbb05e5a4	-0.0020431066
126	0xbd470535	-0.04858895
127	0x3e414fd1	0.18878104

conv2.weight f4 [56, 128, 3, 3]
0	0xbc6d8315	-0.014496584
1	0xbcce1106	-0.025154602
2	0xbc235dac	-0.009971064
3	0xbc27384e	-0.010206295
4	0x3ce8bd2b	0.028410515
5	0x3bcba934	0.006215239
6	0xbcd84238	-0.026398763
7	0xbc07b8de	-0.008283822
8	0x3bf8721c	0.0075819623
9	0xbb3320f0	-0.0027332865
10	0xbce7a920	-0.028278887
11	0xbc85463a	-0.016268838
12	0x3be56304	0.007000329
13	0x3c11d3b2	0.00890057
14	0x3c8af559	0.016962694
15	0x3cc19a17	0.023633046
16	0xbca50cf2	-0.020147774
17	0xbcd93401	-0.026514055
18	0xbbde642c	-0.0067868438
19	0x3c30f566	0.010800695
20	0x3cb4885d	0.02203768
21	0x3c694046	0.014236515
22	0xbc9b9d25	-0.01899583
23	0xbc4fa642	-0.012673916
24	0x3c968cc9	0.018377678
25	0x3cc9829d	0.024598414
26	0xbc6a2a37	-0.014292291
27	0xbb94eca8	-0.004544813
28	0xbc2ed240	-0.010670245
29	0x3c224f2a	0.0099065695
30	0x3af39cb0	0.0018586125
31	0x3cef8cb5	0.029241899
32	0x3cab74f9	0.0209298
33	0xbce0e879	-0.027454602
34	0x3c9677cb	0.018367669
35	0x3c96e14d	0.018417979
36	0x3b1f2da8	0.0024288688
37	0xbc1a4c32	-0.00941758
38	0x3b5c92b8	0.0033656787
39	0x3cc3c11f	0.023895798
40	0x3c948b49	0.018132823
41	0xbc485574	-0.012227405
42	0x3cce9023	0.025215214
43	0x3ac9e2d0	0.0015402678
44	0x3cbc7131	0.023003193
45	0xbcc5a006	-0.024124157
46	0x3c77d5aa	0.015126625
47	0xbcb99625	-0.022654602
48	0x3c84e3d1	0.016221913
49	0x3b7a23d8	0.0038168337
50	0xbc54cf4a	-0.012988875
51	0x3c513466	0.01276884
52	0x3c08933a	0.008335883
53	0xbca19356	-0.019723576
54	0xbb576d80	-0.0032871664
55	0x3c953dff	0.018218039
56	0xbba80504	-0.005127551
57	0xbb4b4858	-0.0031018462
58	0xbbb0d454	-0.0053964052
59	0xbcb01e70	-0.021498889
60	0x3cb2fa97	0.021848006
61	0x3cb40c37	0.02197848
62	0x3c01129a	0.00787797
63	0xbce3af21	-0.027793469
64	0x3cdd7b53	0.027036345
65	0x3c5afd36	0.013366034
66	0xbcb5c09b	-0.022186568
67	0xbc9c5d98	-0.019087598
68	0xbc98c918	-0.018650576
69	0x3cecb1f3	0.028893447
70	0xbc8efee4	-0.017455526
71	0xbc669f1d	-0.0140760215
72	0x3babd404	0.00524378
73	0xbc82c204	-0.015961654
74	0xbc118724	-0.008882318
75	0x3c748896	0.014925143
76	0xbb83e2e8	-0.004024852
77	0x3b2c5ad8	0.0026299264
78	0xbb84f38c	-0.0040573534
79	0x3c4a57ce	0.012350036
80	0xbc2ca8fe	-0.010538338
81	0x3b9d299c	0.00479622
82	0x3b0f1068	0.0021829847
83	0xbac82280	-0.0015269071
84	0x3cd043d3	0.025422966
85	0xbc937050	-0.01799789
86	0x3cb1d17b	0.021706333
87	0xbcc1b180	-0.023644209
88	0x3c8afe67	0.016967012
89	0x3bf30c1c	0.007417215
90	0x3c95c02f	0.018280117
91	0x3cc85f61	0.024459543
92	0xbc0c1066	-0.008548832
93	0x39fa7d40	0.00047777034
94	0xbacff890	-0.0015866924
95	0x3be56aac	0.0070012417
96	0xbb19ad50	-0.002344925
97	0xbb83e734	-0.0040253643
98	0x3c6a2b3a	0.014292533
99	0xbcef8d22	-0.029242102
100	0xbc80d5a0	-0.015726864
101	0x3cc62cd1	0.024191292
102	0xbcbd7113	-0.023125207
103	0x3c631ed2	0.013862329
104	0xbb6c4ae0	-0.0036055371
105	0x3bf9275c	0.007603569
106	0xbc2310fa	-0.009952778
107	0xbbe2fce4	-0.0069271196
108	0xbc48cb96	-0.01225557
109	0xbbf6aecc	-0.0075281616
110	0xbbc53374	-0.0060180966
111	0xbc343a06	-0.011000162
112	0x3c3a16ce	0.011357976
113	0x3b324548	0.002720194
114	0x3cb96d57	0.022635145
115	0x3ce8c697	0.028415008
116	0x3c095556	0.008382162
117	0x3c56afce	0.013103439
118	0xbc90cd3c	-0.017675988
119	0xbcaa55e8	-0.020792916
120	0xbbd459c0	-0.0064804256
121	0xbcccfdc3	-0.025023347
122	0xbcb8c52c	-0.022554956
123	0xbcde2e65	-0.027121732
124	0xbcd334b9	-0.025781976
125	0xbcd7ac83	-0.026327377
126	0xbbe6c134	-0.0070420746
127	0x3c27fe8e	0.010253562
128	0x3a305c40	0.00067276135
129	0x3b7b9ca8	0.0038392935
130	0x3cc739df	0.024319587
131	0xbc53c520	-0.012925416
132	0xbcbfcc5c	-0.023412876
133	0x3cb04caf	0.02152094
134	0xbb839720	-0.0040158182
135	0xbc6bfcb3	-0.01440351
136	0xbcb04673	-0.021517968
137	0xbccb2fec	-0.024803124
138	0x3c09879e	0.00839415
139	0xbccd3c2f	-0.025053112
140	0xbb661c98	-0.0035112258
141	0xbc96b18b	-0.018395206
142	0xbcab8f6b	-0.02094241
143	0xbc063424	-0.008191142
144	0x3c0ac0ca	0.008468816
145	0xbcdc3d90	-0.026884824
146	0x3c82f59d	0.015986258
147	0xbcbefcdb	-0.02331393
148	0x3c8afa91	0.016965182
149	0x3bd0fe54	0.0063779745
150	0x3c984f57	0.01859252
151	0xbc83c1d0	-0.016083628
152	0xbc5895ac	-0.013219278
153	0xb9d1ed00	-0.00040040165
154	0xbaca96e0	-0.0015456341
155	0x3cdaa10b	0.02668812
156	0xbc0b1bc0	-0.008490503
157	0xbb907f24	-0.0044096876
158	0xbc9bb7f2	-0.01900861
159	0xbbfa622c	-0.0076410975
160	0x3c54ee32	0.012996243
161	0xbb9a3ed8	-0.0047071986
162	0xbabeeb90	-0.0014566053
163	0xbc0960aa	-0.008384863
164	0xbc6d6d3c	-0.014491376
165	0x3c6cc082	0.014450194
166	0x3c81707f	0.015800713
167	0xba2bbb60	-0.00065510534
168	0xbc92e6ce	-0.017932322
169	0x3ce98fd9	0.028510975
170	0x3bde680c	0.0067873057
171	0x3cddd5d3	0.027079498
172	0x3bde432c	0.00678291
173	0xbcced76f	-0.025249211
174	0x3c083f52	0.008315878
175	0xbc181092	-0.009281294
176	0xbcded49c	-0.02720099
177	0x3c1b8eda	0.009494508
178	0xbc4e1102	-0.012577297
179	0x3ce25145	0.027626643
180	0xb88c5e00	-6.693229e-05
181	0x3b3b6fa8	0.0028600488
182	0xbcd5f4e0	-0.026117742
183	0x393fee80	0.00018304028
184	0x3ca902d9	0.02063124
185	0x3cd1532f	0.02555236
186	0xbc82095c	-0.015873604
187	0x39d1ee00	0.0004004091
188	0x3ca85e5d	0.020552808
189	0x3ceadbeb	0.028669318
190	0xbbae304c	-0.005315816
191	0x3c5c80ea	0.01345847
192	0xbcd901be	-0.026490089
193	0xbcd6e46e	-0.02623197
194	0x3ca4c5e7	0.020113898
195	0xbcbacf04	-0.02280379
196	0xbc1b1f78	-0.009467952
197	0xbb67d130	-0.0035372488
198	0x3c85dbf5	0.016340235
199	0xbcb0b876	-0.021572333
200	0x3c5d7766	0.013517236
201	0x3c49c126	0.012314117
202	0xbcc32c0e	-0.023824718
203	0xbc4952b4	-0.012287784
204	0xbbd889c0	-0.006608218
205	0xbc976932	-0.018482778
206	0x3cb80d75	0.022467354
207	0xbc8b314e	-0.016991284
208	0x3cccca29	0.024998741
209	0x3c7e16de	0.015508382
210	0xbc9c9088	-0.019111887
211	0xbc4af732	-0.0123880375
212	0x3c2a9cbe	0.010413347
213	0x3c9c5df3	0.019087767
214	0x3c670e86	0.014102584
215	0xbc648d3a	-0.013949687
216	0xbce9df5d	-0.02854889
217	0x3cab7f25	0.02093465
218	0x3c7f2216	0.015572092
219	0xbcc9bf9a	-0.024627496
220	0xbcdd222c	-0.026993833
221	0x3be8d664	0.0071056355
222	0x3b26e808	0.0025467891
223	0xbb491d60	-0.0030687675
224	0x3cd8eafb	0.026479235
225	0xbb886cdc	-0.0041633677
226	0xbc697a9a	-0.014250422
227	0x3c4960f6	0.012291184
228	0xbc35da0a	-0.011099348
229	0x3cb95e55	0.022627989
230	0xbc5c9d26	-0.0134652015
231	0x3baaefe4	0.0052165855
232	0xbca5b157	-0.020226164
233	0xbb7afc28	-0.003829727
234	0xbc5540f6	-0.013015976
235	0x3cadccd9	0.021215843
236	0xbc84ff82	-0.016235117
237	0xbb8020dc	-0.003910167
238	0x3cd75b4b	0.026288649
239	0xbbc2dd00	-0.0059467554
240	0xbce91fb4	-0.0284575
241	0xbc9eab22	-0.019368712
242	0x3c93f20b	0.018059751
243	0x3bc79f34	0.0060919765
244	0x3c6a4bba	0.014300281
245	0xbc40ce70	-0.011767969
246	0x3c14274e	0.009042574
247	0xbcf15099	-0.029457377
248	0x3ae33860	0.0017335527
249	0xbceed377	-0.029153569
250	0x3bfa5534	0.0076395515
251	0xbbe2e440	-0.006924182
252	0x3cda3c3f	0.026640056
253	0x3c75fe76	0.0150142815
254	0xbc9d9e06	-0.01924039
255	0xbb589550	-0.0033047982

conv2.bias f4 [56]
0	0xbc3dc6d2	-0.011583047
1	0x3cda33d7	0.026636047
2	0xbbaed592	-0.005335518
3	0x3cd3f795	0.025874892
4	0x3b144b14	0.0022627758
5	0x3ce6f6f8	0.028193936
6	0x3ccc7765	0.024959275
7	0x3bce3d44	0.0062939245
8	0xbcdd651e	-0.027025755
9	0xbc7bfdbc	-0.015380319
10	0x3c83d717	0.016093774
11	0x3c13ff25	0.009032999
12	0xbc15f08a	-0.009151587
13	0xbc818563	-0.015810674
14	0xbccc7b91	-0.024961265
15	0xbbb163a1	-0.005413488
16	0xbc5caf36	-0.013469508
17	0x3c9ab35c	0.018884353
18	0xbbe202b8	-0.0068972968
19	0x3cb6e354	0.022325195
20	0x3c9237ce	0.017848875
21	0x3c6c3d0e	0.014418853
22	0x3c8d4a0e	0.017247226
23	0xbc63fa90	-0.013914719
24	0xbc9b5be8	-0.018964723
25	0xbbd7381c	-0.006567968
26	0xbbcda25f	-0.0062754597
27	0x3c7c2231	0.015389011
28	0xbce302d5	-0.027711311
29	0x3bf85ea4	0.0075796414
30	0xbc122476	-0.008919826
31	0xbb931c12	-0.00448943
32	0xbcc22946	-0.023701321
33	0xbb9b7124	-0.004743712
34	0x3cb574c5	0.022150407
35	0xbcdc11a9	-0.02686389
36	0xbb697fe8	-0.0035629217
37	0x3caa00a9	0.020752268
38	0xbbd88c93	-0.0066085546
39	0xbcc60e32	-0.02417669
40	0xbcb409a2	-0.02197725
41	0xbc118642	-0.008882107
42	0xbc33288e	-0.010934962
43	0x3c701cf6	0.014655342
44	0x3a6e98cf	0.000910175
45	0xbcad1aa6	-0.021130871
46	0xbabadcbb	-0.0014256457
47	0x3b64f438	0.0034935605
48	0xba4a5440	-0.00077182427
49	0xbb69853e	-0.0035632397
50	0xbc9990e0	-0.01874584
51	0x3c83c055	0.016082922
52	0x3c831aaf	0.016003935
53	0x3af56b70	0.0018724035
54	0x3aa9aff0	0.001294611
55	0x3ccf8506	0.025331985

fc1.weight f4 [256, 560]
0	0x3cd03c80	0.025419474
1	0x3d1e5b56	0.038661323
2	0xbc770e6c	-0.015079122
3	0xbc8b7f97	-0.017028613
4	0xbd034e14	-0.032056883
5	0xbc465950	-0.012106255
6	0xbce87786	-0.028377306
7	0xbb93e608	-0.004513506
8	0xbd2a80e1	-0.041626815
9	0x3c47d5d8	0.01219698
10	0xbbd125d2	-0.0063826824
11	0xbc02adc8	-0.007976003
12	0x3d1cf349	0.038317952
13	0x3d2a256f	0.041539606
14	0xbbc3e113	-0.0059777587
15	0x3d26d867	0.04073372
16	0xbd2428b1	-0.04007787
17	0xbbc1e53d	-0.00591722
18	0x3ca95829	0.02067192
19	0xbc7e6bb4	-0.015528608
20	0x3c871a1d	0.016491944
21	0x3c7ae9af	0.015314504
22	0x3d0f4ea6	0.034987114
23	0xbcdfad0c	-0.027304195
24	0x3d1469eb	0.036233824
25	0x3ba6e60b	0.005093341
26	0xbc0049f8	-0.0078301355
27	0x3d12aa32	0.035806842
28	0xbc9ea1ea	-0.019364316
29	0x3be7a097	0.0070687043
30	0xbc7ea458	-0.015542112
31	0x3ac3403f	0.0014896466
32	0xbd0ca59d	-0.03433763
33	0x3c8d056c	0.0172145
34	0x3bcb4f7d	0.006204544
35	0x3c684d47	0.014178581
36	0x3cb1c840	0.021701932
37	0x3bf59f01	0.0074957614
38	0xbc6897db	-0.014196361
39	0xbd0963f0	-0.033542573
40	0xbc220818	-0.009889625
41	0x3d1a9422	0.037738927
42	0xbcd939eb	-0.026516875
43	0x3cc0fce4	0.023558088
44	0xbc943ae6	-0.018094491
45	0x3d078fea	0.03309623
46	0x3d0b87a0	0.03406489
47	0x3d18ca26	0.03730216
48	0x3d184029	0.037170563
49	0x3c38de67	0.011283494
50	0xbd267a92	-0.040644236
51	0x3cf043ca	0.0293292
52	0x3c743401	0.014904977
53	0xbc3a31db	-0.0113644255
54	0x3c901cfa	0.017591942
55	0xbc591092	-0.01324858
56	0x3c6569ff	0.014002322
57	0x3c8c6fd8	0.017143175
58	0x3c1a7758	0.009427868
59	0x3d06e728	0.03293529
60	0xbc73b4fe	-0.014874695
61	0xbcb8fc9f	-0.022581397
62	0x39d1d580	0.00040022656
63	0x3cd924e8	0.026506856
64	0x3be97078	0.007124003
65	0x3d27a8c2	0.040932424
66	0xbb588fc0	-0.0033044666
67	0xbc447f64	-0.011993263
68	0xbc8c3bc9	-0.017118352
69	0x3cb9e8d4	0.022694029
70	0xbd0dcc68	-0.034618765
71	0x3d1ed26d	0.038774896
72	0x3cd6e5d8	0.026232645
73	0x3d03c644	0.032171503
74	0x3ccd7830	0.025081724
75	0x3a97f436	0.0011593166
76	0xbcdd3f41	-0.0270077
77	0x3c690d33	0.014224338
78	0xbce4cd55	-0.027929941
79	0x3a9746e4	0.0011541513
80	0x3b56a7d1	0.0032753835
81	0x3b3075c4	0.0026925663
82	0x3bfb891b	0.0076762564
83	0xbd0fba22	-0.03508962
84	0xbd254c97	-0.040356245
85	0xbd18a83b	-0.037269812
86	0x3c46926c	0.012119871
87	0xbca71bac	-0.020398937
88	0x3c00e1ac	0.007866304
89	0xbc8948bd	-0.016758317
90	0x3bd90068	0.006622363
91	0x3bc82800	0.006108284
92	0xbcc4bf71	-0.024017068
93	0x3ce88234	0.028382398
94	0x3d0f441c	0.034977064
95	0x3cb7d08c	0.02243831
96	0x3ceced24	0.028921671
97	0xbca8d339	-0.020608531
98	0x3b90ffb8	0.0044250153
99	0x3c2ddd68	0.010611869
100	0x3b880f9d	0.004152252
101	0xbd25c0d3	-0.040467095
102	0x3c730266	0.014832115
103	0xbb7cb164	-0.0038557881
104	0xbc1e0a33	-0.009645986
105	0x3c1220e8	0.008918978
106	0x3d03ed91	0.032208983
107	0x3cf1d05e	0.029518303
108	0x3ca9b461	0.020715894
109	0x3c42dce0	0.011893481
110	0x3ba845c2	0.005135269
111	0x3d104de7	0.035230543
112	0x3c04f8f1	0.008115993
113	0xbd1abe87	-0.037779357
114	0x3d1e4fca	0.03865031
115	0xbcb2f537	-0.021845443
116	0x3cfa73f8	0.030572876
117	0x3d1e9ffc	0.03872679
118	0x3b4a5c6f	0.0030877849
119	0x3c82d730	0.01597175
120	0x3b5a55c5	0.0033315283
121	0x3b7b7a40	0.0038372427
122	0xbbcb2dc0	-0.006200522
123	0x3c5d5344	0.013508622
124	0xbb9101d8	-0.0044252686
125	0x3cb93334	0.022607423
126	0x3c61698c	0.0137580745
127	0x3d296406	0.041355155
128	0x3d0ab67e	0.033865444
129	0x3af5f380	0.0018764585
130	0x3c2d7660	0.010587305
131	0x3d29d008	0.04145816
132	0x3d076e18	0.033063978
133	0x3d21b2c2	0.039477117
134	0xbc432920	-0.01191166
135	0x3cd4c050	0.025970608
136	0xbd1583ed	-0.036502767
137	0x3d2346ee	0.039862566
138	0x3d0fb9f8	0.035089463
139	0x3d1c899e	0.03821718
140	0xbbc7dab8	-0.0060990714
141	0xbc4eb3f2	-0.0126161445
142	0xbc42ae3f	-0.011882364
143	0xbc0eceec	-0.008716326
144	0xbd13c968	-0.036080748
145	0x3bcb56a6	0.0062053977
146	0xbca7489a	-0.020420361
147	0x3cad6135	0.021164516
148	0x3d0951b8	0.0335252
149	0x3cd728d6	0.02626459
150	0x3d0e142c	0.034687206
151	0xbd0da837	-0.03458425
152	0xbc952fcc	-0.018211268
153	0xbd2bed5c	-0.04197441
154	0xbd1e5f72	-0.038665242
155	0xbcd0bf9c	-0.025481991
156	0x3c047e01	0.008086682
157	0xbd19db06	-0.037562393
158	0xbc81ff16	-0.015868705
159	0x3c48fcf0	0.012267336
160	0x3c082f28	0.008312024
161	0xbc14e228	-0.009087123
162	0xbccd18ec	-0.025036298
163	0xbd1a3534	-0.037648395
164	0x3d2be15e	0.041962974
165	0x3c9be312	0.019029174
166	0x3c7dc234	0.015488196
167	0xbb9825a8	-0.004643161
168	0xbb77a140	-0.0037785321
169	0x3c925b2e	0.017865743
170	0x3bc1d0e2	0.0059147933
171	0xbcfe57e9	-0.031047778
172	0x3bb98ec4	0.005662771
173	0x3c9f0672	0.019412253
174	0xbb1a9c2b	-0.0023591619
175	0x3c828b53	0.015935576
176	0x3c9d545c	0.019205265
177	0xbcc4933d	-0.02399599
178	0x3c2bc42c	0.010483783
179	0x3cd26ca1	0.025686564
180	0xbbe825c8	-0.007084582
181	0xbae7a9a0	-0.0017674454
182	0x3b9de8a8	0.0048189946
183	0x3d2835d4	0.04106696
184	0x3d10f1d6	0.035386883
185	0x3c2ee188	0.010673888
186	0x3c6a5218	0.014301799
187	0xbd13b543	-0.036061537
188	0xbd0f77f1	-0.035026494
189	0xbd1745f2	-0.03693194
190	0x3b9edacf	0.0048478614
191	0x3d17dbf3	0.037074994
192	0xbd27e529	-0.04099003
193	0xbd0dd051	-0.034622494
194	0x3d1bcf89	0.038039718
195	0xbd028d33	-0.03187294
196	0x3c73020b	0.01483203
197	0x3d034f3f	0.032057997
198	0xbc9b0ec5	-0.018927941
199	0x3cfd8f62	0.03095216
200	0xbc98709a	-0.01860838
201	0x3c24a30b	0.010048638
202	0xbc467c3e	-0.012114583
203	0xbd1321f8	-0.035921067
204	0x3b93a2eb	0.0045055053
205	0x3d23a544	0.03995253
206	0x3d0685fb	0.032842617
207	0x3c9e5b80	0.01933074
208	0xbb33d443	-0.002743975
209	0x3cde9b28	0.027173594
210	0x3d244f8e	0.04011493
211	0x3cb652fc	0.022256367
212	0x3d020690	0.03174454
213	0x3b29a410	0.0025885142
214	0xbd20a1e4	-0.03921689
215	0x3d222f60	0.03959596
216	0xbce4e13e	-0.027939435
217	0x3c08a624	0.008340392
218	0xbc3108f8	-0.010805361
219	0xbd1c576b	-0.038169306
220	0x3c4cbe29	0.01249651
221	0x3c36dc20	0.01116088
222	0x3c52b6f1	0.012860999
223	0xbc0978bd	-0.008390603
224	0x3cd8342e	0.026392069
225	0x3d1a47b9	0.037666056
226	0x3d20ee81	0.039289955
227	0xbcc6c397	-0.024263186
228	0xbbef10e2	-0.0072957138
229	0xbccbcc3b	-0.024877658
230	0x3c5b45bf	0.013383328
231	0xbd1c6e3d	-0.03819107
232	0xbcee3ee0	-0.029082716
233	0x3ca0e8cd	0.019642258
234	0x3ccf8a50	0.025334507
235	0x3d237278	0.039904088
236	0x3d15ba64	0.03655471
237	0x3b8409d1	0.0040294905
238	0xbbcf6934	-0.00632968
239	0x3cb09848	0.021556988
240	0x3c176cd8	0.009242259
241	0x394b7306	0.00019402438
242	0xbc4abcfa	-0.012374157
243	0x3bfd4ae6	0.007729876
244	0x3be51ea0	0.006992176
245	0xbbfccc82	-0.007714809
246	0xbba2adcb	-0.0049645654
247	0xbcef69d7	-0.029225273
248	0x3c1bbcbf	0.00950545
249	0x3cf19b98	0.029493138
250	0xbc9eb12e	-0.019371595
251	0x3b3daad0	0.0028940924
252	0x3caabe24	0.02084262
253	0xbd25fcb8	-0.040524215
254	0xbaebfe20	-0.0018004812
255	0x3c8ac836	0.016941171

fc1.bias f4 [256]
0	0x3d25012e	0.04028433
1	0xbd1e48d3	-0.03864367
2	0x3b5df520	0.003386803
3	0x3bfc2630	0.007694982
4	0xbbec12d0	-0.007204391
5	0xbd12c6b1	-0.03583402
6	0x3d007528	0.03136173
7	0xbba8eac8	-0.005154941
8	0x3c19f4f0	0.009396777
9	0x3d264d79	0.040601227
10	0x3ce5f68c	0.028071664
11	0x3c195a1a	0.009359861
12	0x3c0bae8b	0.008525501
13	0xbad4d21e	-0.0016236936
14	0xbb10aeb6	-0.0022076792
15	0xbb060df0	-0.0020455085
16	0xbcdb4929	-0.026768284
17	0xbd15f990	-0.036614954
18	0x3c0cfd16	0.008605262
19	0x3cc4d4bc	0.02402722
20	0xbd01a12c	-0.031647846
21	0xbb852020	-0.0040626675
22	0xbcf85e7a	-0.030318487
23	0xbac32095	-0.001488703
24	0x3d1c4188	0.038148433
25	0x3c340994	0.010988612
26	0x3cb7f1db	0.022454193
27	0x3bc61671	0.0060451557
28	0xbc254240	-0.010086596
29	0xbc5deb2b	-0.013544838
30	0x3d24d86c	0.04024546
31	0xbc2df308	-0.010617025
32	0xbb771e3e	-0.0037707235
33	0xbc73d93a	-0.014883334
34	0x3b88b93b	0.004172472
35	0xbc9956f4	-0.01871822
36	0x3c0e5000	0.008686066
37	0xbd14e4c0	-0.036350965
38	0xbc92a637	-0.017901523
39	0xbd24a81c	-0.040199384
40	0x3ce2da80	0.02769208
41	0x3c34178c	0.010991942
42	0xbd0acef6	-0.03388878
43	0xbbbe37d8	-0.005804997
44	0x3c8a7e0c	0.016905807
45	0x3be69e85	0.00703794
46	0x3b1ce719	0.0023941456
47	0x3c9d4755	0.019199053
48	0x3c583518	0.013196252
49	0x3cf49286	0.029855024
50	0x3ccb4b1b	0.024816087
51	0xbd0c5f3a	-0.034270503
52	0xbbd2f660	-0.0064380616
53	0xbcea105d	-0.028572256
54	0xbcd244cd	-0.025667572
55	0xbc6bc288	-0.014389642
56	0x3c48a318	0.012245916
57	0x3c1370f0	0.008999094
58	0x3d0c6b2b	0.03428189
59	0x3ca62329	0.020280438
60	0xbd238418	-0.039920896
61	0xbc41776a	-0.011808256
62	0x3d16126c	0.036638662
63	0xbcda9c0a	-0.026685733
64	0xbc02df84	-0.007987861
65	0x3bbbd015	0.0057315924
66	0xbcde66fa	-0.027148712
67	0xbb9046b8	-0.0044029616
68	0xbc9568d7	-0.018238468
69	0x3d1a0edc	0.037611827
70	0x3d16702f	0.03672808
71	0x3ba456e0	0.005015239
72	0xbcf5736a	-0.02996226
73	0x3b4a6c20	0.0030887201
74	0x3bdfd9d8	0.006831389
75	0xbcebae79	-0.028769718
76	0xbb1f8b70	-0.0024344586
77	0x3c929174	0.017891623
78	0xbd2563ff	-0.040378567
79	0x3b4c5af0	0.0031182133
80	0xbcb12b84	-0.021627195
81	0xbcc51d2c	-0.024061762
82	0x3ba7bad2	0.0051187063
83	0x3ccb64d4	0.024828352
84	0xbb1a7e30	-0.0023573749
85	0x3d0c68b3	0.034279536
86	0xbd2937b4	-0.04131289
87	0xbd11cc6a	-0.035595335
88	0x3d1c0ebb	0.038099986
89	0x3bf76328	0.007549662
90	0x3ad43300	0.0016189516
91	0x3cb708f0	0.022343129
92	0xbca6f2e1	-0.020379486
93	0x3c5fa594	0.013650317
94	0xbcfbc47c	-0.03073334
95	0xbcb74641	-0.022372367
96	0xbcf3713a	-0.029717077
97	0xbd0d44f2	-0.03448958
98	0xbd1cab10	-0.038249075
99	0xbd2bcce3	-0.041943442
100	0xbbaed70d	-0.0053356946
101	0x3c8583fe	0.01629829
102	0xbd2403a2	-0.040042527
103	0xbc8122f0	-0.01576373
104	0x3d291029	0.041275177
105	0xbc520cc4	-0.012820426
106	0x3cef9eb4	0.02925048
107	0x3d1ea4f9	0.03873155
108	0xbcfed10c	-0.03110554
109	0x3c93a2ad	0.018021906
110	0xbc8ebf44	-0.017425187
111	0xbd07a5a1	-0.03311694
112	0x3d0e2b3a	0.034709193
113	0x3c3eb218	0.011639141
114	0xbd1ecb1a	-0.03876791
115	0xbd131d72	-0.035916753
116	0xbc9e8e5b	-0.01935499
117	0xbd01b952	-0.031670876
118	0x3c063840	0.008192122
119	0xbbdcfe6b	-0.006744196
120	0x3d001054	0.03126557
121	0x3d20acc8	0.039227277
122	0xbc91252d	-0.017717922
123	0x3cc6a4f5	0.02424858
124	0xbbb81c18	-0.0056185834
125	0x3cafbeed	0.021453345
126	0xbcb69205	-0.022286424
127	0x3d034436	0.032047473
128	0x3cc9fd99	0.024657058
129	0xbca64277	-0.020295365
130	0xbd1e60d0	-0.038666546
131	0x3cb2083c	0.021732442
132	0xbca530dd	-0.020164901
133	0x3caac38f	0.020845203
134	0x3bfbd0a0	0.007684782
135	0xbc61a92f	-0.013773247
136	0x3ba1f680	0.004942715
137	0xbd2ba9ca	-0.04190997
138	0xbc95de2f	-0.018294422
139	0x3d245ed2	0.04012949
140	0x3d28bbc7	0.041194703
141	0xba3d1a6e	-0.0007213716
142	0x3d2c043e	0.041996233
143	0x3d157408	0.03648761
144	0x3d27a04c	0.040924355
145	0xbcd790a4	-0.026314087
146	0xbd2767ef	-0.040870603
147	0xbd0b532c	-0.034014866
148	0x3d1d7dbc	0.038449988
149	0xbc213298	-0.009838723
150	0x3d0f85cf	0.03503972
151	0xbd08dcf6	-0.03341385
152	0xbd231175	-0.03981157
153	0xbc77e640	-0.0151305795
154	0x3a93b2a0	0.0011268444
155	0xbcdf79da	-0.027279783
156	0xbd16b2aa	-0.03679148
157	0xbd22e295	-0.039766867
158	0xbcdf84cf	-0.027285008
159	0x3c19843d	0.009369907
160	0x3cb23cc8	0.021757498
161	0x3d2cebef	0.04221719
162	0x3a85e920	0.0010216571
163	0x3b6ce4e4	0.0036147172
164	0x3cef3a98	0.029202744
165	0xbb364c74	-0.0027816566
166	0xbd022077	-0.031769242
167	0xbaf3f835	-0.00186134
168	0x3c4e2415	0.012581845
169	0xbcc4265d	-0.023944074
170	0xbb1d8db0	-0.002404075
171	0x3c933701	0.017970564
172	0x3cfa7fa4	0.030578442
173	0xbd0eb15e	-0.03483712
174	0x3cd52971	0.026020737
175	0xbd0581da	-0.03259454
176	0x3c08b960	0.008344978
177	0xbcb8f268	-0.022576526
178	0x3bf62aa0	0.0075124055
179	0xbcaa47bc	-0.020786159
180	0x3cefa098	0.029251382
181	0xbd181c11	-0.03713614
182	0x3ca7690f	0.020435838
183	0xbcdec704	-0.027194507
184	0xbcb7ad18	-0.022421405
185	0x3ce4a311	0.027909787
186	0x3b3f5220	0.0029193237
187	0x3cb4f7bc	0.022090785
188	0x3cb7ffc2	0.022460822
189	0xbc90b9d8	-0.017666742
190	0x3c917a8a	0.017758626
191	0xbc3e441e	-0.01161292
192	0x3d022822	0.031776555
193	0xbbc9af70	-0.006154947
194	0x3d02a3ca	0.031894483
195	0xbd106280	-0.035250187
196	0x3c8e3d32	0.017363165
197	0xbd143b0a	-0.036189117
198	0xbd14e36c	-0.0363497
199	0x3c4c3a30	0.012465045
200	0xbc26beb2	-0.010177301
201	0xbaeea4e0	-0.0018207096
202	0x3bd2c4f0	0.006432168
203	0xbb589001	-0.0033044817
204	0xbc0e881c	-0.008699443
205	0x3bad00e0	0.0052796453
206	0x3c56b0d5	0.0131036835
207	0x3ca87c68	0.020567134
208	0xbd0e4253	-0.03473122
209	0x3d2019d6	0.03908714
210	0xbbdd5310	-0.0067542866
211	0x3bc7b1d4	0.006094197
212	0x3cd81f91	0.02638224
213	0xbc834a77	-0.016026719
214	0x3b56d6e5	0.0032781896
215	0xbcdc67f3	-0.026905036
216	0xbc836a18	-0.0160418
217	0x3bd55e30	0.006511472
218	0xbd29e7b6	-0.041480742
219	0xbca2cc43	-0.01987279
220	0x3d2c7c75	0.04211088
221	0xbc9ca563	-0.019121831
222	0xbd286fe0	-0.041122317
223	0x3a49f631	0.0007704227
224	0x3c69b1b1	0.014263556
225	0xbd10e761	-0.03537691
226	0x3c37afdc	0.011211362
227	0xbacd0320	-0.001564119
228	0xbccac267	-0.024750901
229	0x3d2524a1	0.040318135
230	0x3ce8e492	0.028429303
231	0x3cf958c0	0.030437827
232	0x3ceac6fb	0.028659334
233	0xbc54fe45	-0.013000076
234	0x3c18965c	0.009313192
235	0xbc62a3ac	-0.013832968
236	0x3ca99b04	0.0207038
237	0xbc8a7f52	-0.016906414
238	0x3cd09053	0.025459444
239	0xbc9d574d	-0.019206667
240	0xbc9fce48	-0.019507542
241	0x3c9109f7	0.017704947
242	0x3d1f3af2	0.038874574
243	0xbbe03700	-0.006842494
244	0xbc919d34	-0.017775156
245	0xbc29d236	-0.01036506
246	0xbd2597b5	-0.040427882
247	0xbd15d2c3	-0.03657795
248	0x3b08a0e0	0.0020847842
249	0x3cdcc410	0.026948959
250	0x3b9dd27e	0.0048163524
251	0xbc011ff4	-0.007881153
252	0x3c84a0c8	0.016189948
253	0xbcc88933	-0.024479484
254	0x3d1ee28a	0.038790263
255	0x3c642531	0.013924883

fc2.weight f4 [128, 256]
0	0xbd2eac9a	-0.042645074
1	0xbd43c914	-0.047799185
2	0x3d4a3b70	0.04937309
3	0xbc75fcc0	-0.015013874
4	0x3aabc3c0	0.0013104603
5	0xbc998c84	-0.01874376
6	0xbc45cdf9	-0.0120730335
7	0xbccfe7b8	-0.025379047
8	0xbb13bf20	-0.002254434
9	0x3d0e4a8b	0.03473906
10	0xbd3d23b0	-0.046176612
11	0xbb387893	-0.002814804
12	0x3c0f7ab2	0.00875728
13	0xbc9b67ff	-0.018970488
14	0x3d61bacf	0.055109795
15	0xbd504888	-0.05085042
16	0xbb584afe	-0.0033003683
17	0x3c31c1b3	0.010849404
18	0xbced3782	-0.028957132
19	0x3d69464a	0.0569518
20	0x3bc7b814	0.006094942
21	0xbd5b063e	-0.05347275
22	0xbc427798	-0.011869334
23	0xbd1fdf04	-0.039031044
24	0xbcdba1bc	-0.02681052
25	0xbaa98200	-0.001293242
26	0x3d606f82	0.054793842
27	0xbd2fc774	-0.042914823
28	0xbd0e490a	-0.034737624
29	0x3cf703ee	0.030153241
30	0x3d517190	0.051133692
31	0xba2dea6e	-0.0006634359
32	0xbcf58033	-0.029968357
33	0xbcb30d90	-0.021857053
34	0xbd6238a1	-0.055229787
35	0xbd1e886b	-0.038704317
36	0x3c4d46b7	0.012529067
37	0xbb87df30	-0.004146479
38	0x3c25d408	0.010121353
39	0xbba04ab0	-0.004891716
40	0x3cc3ef1f	0.023917733
41	0xbd30c7d1	-0.04315931
42	0xbd389d7c	-0.045072064
43	0x3d7d3bc4	0.061824575
44	0x3d1bddf2	0.03805346
45	0xbd2bf53a	-0.041981913
46	0xbbc3ec2e	-0.0059790825
47	0xbca7416b	-0.020416936
48	0x3c9e673c	0.019336335
49	0xbd63ea7f	-0.055643555
50	0xbb06de1f	-0.0020579172
51	0xbd6b1556	-0.057393394
52	0x3d6aa69e	0.057287805
53	0xbd474631	-0.048650924
54	0xbc191402	-0.009343149
55	0x3d5b174a	0.053489007
56	0xbc252958	-0.010080658
57	0xbd26ed75	-0.0407538
58	0x3d52cfaf	0.051467594
59	0xbd62e102	-0.055390365
60	0xbc603590	-0.013684645
61	0xbcf0be64	-0.02938766
62	0xbd528218	-0.0513936
63	0xbcb86428	-0.022508696
64	0x3d58f0d2	0.05296404
65	0xbc286d87	-0.01028002
66	0xbd36420e	-0.04449659
67	0x3c446700	0.011987448
68	0x3b7b6fca	0.0038366192
69	0xbc7b0ab8	-0.01532238
70	0xbd0278ac	-0.031853363
71	0xbcc49a4c	-0.023999356
72	0xbd148515	-0.03625973
73	0xbc73b518	-0.014874719
74	0x3d17b5ea	0.03703872
75	0x3b84c250	0.004051484
76	0x3d008c31	0.031383697
77	0xbd4de5d6	-0.050268017
78	0x3b601f00	0.0034198165
79	0x3c8c4414	0.017122306
80	0xbd1f48ce	-0.03888779
81	0x3c665bf4	0.014060009
82	0xbd75c4a4	-0.060001984
83	0xbcdc38aa	-0.026882488
84	0x3b933b90	0.0044931844
85	0x3bd45a2b	0.0064804754
86	0xbd1cda96	-0.038294397
87	0xbd73399e	-0.05938112
88	0xbd1c85a0	-0.038213372
89	0xbd77d45c	-0.060505256
90	0x3d5fab1a	0.054606535
91	0xbd746260	-0.05966413
92	0x3cbe87e4	0.023258157
93	0x3c811e94	0.015761651
94	0xbd26028c	-0.040529773
95	0xbcb585b2	-0.022158477
96	0x3d183556	0.03716024
97	0x3d3584ae	0.044315986
98	0x3cb23aa4	0.021756478
99	0xbc60ca62	-0.013720127
100	0xbb0dab94	-0.002161716
101	0x3d693950	0.056939423
102	0xbd5ef12b	-0.054429214
103	0x3cb6694c	0.022267006
104	0xbbe77c10	-0.00706435
105	0xbc9438c8	-0.018093482
106	0xbcb9b8fc	-0.022671215
107	0x3d364416	0.044498526
108	0xbcec2346	-0.028825413
109	0x3d560f27	0.052260544
110	0xbd302ce8	-0.043011576
111	0xbcf6226e	-0.030045714
112	0xbd5b1bbe	-0.053493254
113	0xbd62729e	-0.05528509
114	0xbce686d4	-0.028140463
115	0xbc9a0b6c	-0.018804274
116	0x3cd407ef	0.02588269
117	0x3c52a8d6	0.012857636
118	0xbd3b4c30	-0.045726955
119	0xbd30c471	-0.04315609
120	0xbcf79924	-0.03022439
121	0xbd31865a	-0.04334102
122	0xbc85aa8c	-0.016316675
123	0x3c9f0206	0.019410145
124	0xbc4243c0	-0.011856973
125	0xbd508be6	-0.050914668
126	0x3bde2558	0.006779354
127	0x3d214948	0.039376527
128	0xbd5cf4a6	-0.053944252
129	0x3b186120	0.002325125
130	0xbd1812f8	-0.037127465
131	0x3d4c9ed4	0.049956158
132	0x3c84b81a	0.016201068
133	0x3ce0e84b	0.027454516
134	0xbc0641b0	-0.008194372
135	0x3d182d7c	0.037152752
136	0xbd4a0310	-0.049319327
137	0x3d68a2f8	0.056796044
138	0x3d59205c	0.053009376
139	0x3d41075b	0.047126155
140	0x3c1a3cf6	0.009413948
141	0xbd4ea838	-0.050453395
142	0x3c7d61c5	0.015465205
143	0xbd5bd963	-0.053674113
144	0xbd790564	-0.060796157
145	0xbc2e5830	-0.010641143
146	0xbd508154	-0.050904587
147	0xbce237a8	-0.02761443
148	0xbc91e778	-0.017810568
149	0xbbd70210	-0.006561525
150	0xbd03f0a3	-0.03221191
151	0x3d0c55f7	0.03426167
152	0x3cc84461	0.024446668
153	0xbd7fdf2c	-0.062468693
154	0xbd520246	-0.0512717
155	0x3c957d78	0.018248305
156	0x3d40debc	0.047087416
157	0xbd5f154a	-0.054463662
158	0x3d5fffc0	0.05468726
159	0x3d3b9331	0.04579467
160	0xbd4a3290	-0.049364626
161	0x3d66f3ef	0.056384977
162	0x3c649af0	0.013952956
163	0x3d225417	0.039630976
164	0xbd4c1f50	-0.04983455
165	0xbb0d20dc	-0.0021534478
166	0x3d0b2f74	0.0339808
167	0x3c2a6cb7	0.010401896
168	0xbcf306c6	-0.029666316
169	0xbcef5810	-0.029216796
170	0xbd78c032	-0.060730167
171	0x3d78defc	0.06075953
172	0xbc5a6c10	-0.013331428
173	0x3c221b80	0.009894252
174	0x3d7b5533	0.06136055
175	0x3d3954fa	0.045247056
176	0xbd63024c	-0.055422112
177	0x3c3a4610	0.011369243
178	0xbd2abe24	-0.04168524
179	0x3c71c111	0.014755503
180	0xbbe746a0	-0.0070579797
181	0xbd5efda8	-0.054441124
182	0xbc309400	-0.010777473
183	0x3d35c43f	0.044376608
184	0xbce8d8e8	-0.028423741
185	0x3c8f689a	0.017505933
186	0x3b0ae020	0.0021190718
187	0x3cab8885	0.020939121
188	0x3d0d37b6	0.03447696
189	0x3ce427c3	0.027850991
190	0xbc4be7a5	-0.012445365
191	0xbd1fd476	-0.039020978
192	0xbd49ef93	-0.04930074
193	0x3c0dfaa8	0.008665718
194	0x3cf71890	0.03016308
195	0x3c16e3a8	0.009209551
196	0x3c9721a8	0.018448666
197	0xbc173706	-0.009229427
198	0x3d21888a	0.039436854
199	0xbd04c626	-0.03241553
200	0xbc984651	-0.018588217
201	0x3d31339e	0.043262117
202	0xbc527fa0	-0.012847811
203	0x3c8d4ce8	0.017248586
204	0xbd0a8a54	-0.033823326
205	0xbb2bfee0	-0.0026244447
206	0x3d6e9e3a	0.058256365
207	0xbd6873aa	-0.05675093
208	0xbd352d5a	-0.044232704
209	0x3d17ffd6	0.03710922
210	0x3d3fef3c	0.04685901
211	0xbd10b4b8	-0.035328597
212	0x3d7dfb78	0.062007397
213	0xbd693146	-0.056931756
214	0xbcc86ef7	-0.024466975
215	0x3c3dd920	0.011587411
216	0x3d4e1729	0.050315056
217	0x3cfbcc88	0.030737177
218	0xbd2cf1d0	-0.042222798
219	0xbc8bc3eb	-0.017061194
220	0x3b28fa4f	0.0025783961
221	0xbbd85500	-0.0066019297
222	0xbb893e30	-0.0041883215
223	0x3be6c77b	0.007042823
224	0x3d6c4e30	0.057691753
225	0xbbf0e758	-0.007351797
226	0xbc99daa8	-0.018781021
227	0x3d2f6a76	0.04282614
228	0x3d1f7622	0.03893102
229	0x3d5e7660	0.05431211
230	0x3d2943ff	0.04132461
231	0xbc7d3868	-0.015455343
232	0xbd265ea5	-0.040617604
233	0x3d7b2711	0.061316554
234	0xbd632f3a	-0.05546496
235	0x3d0aa4b4	0.03384848
236	0x3d47a8a1	0.0487448
237	0x3d7c97d2	0.061668225
238	0x3d44659e	0.047948472
239	0xbc0fc8a8	-0.0087758675
240	0x3d10bd22	0.03533662
241	0xbb69e49d	-0.0035689243
242	0xbd0fb027	-0.0350801
243	0xbd2b5ac4	-0.041834608
244	0x3d2aab46	0.041667245
245	0xbd6315c7	-0.05544069
246	0x3bcf7caf	0.006332002
247	0x3d267be6	0.040645503
248	0x3cf9eaa4	0.030507393
249	0xbd279f01	-0.040923122
250	0x3cb72c16	0.022359889
251	0x3d00dcdb	0.031460624
252	0xbd1504ac	-0.03638141
253	0x3d6c686e	0.05771678
254	0xbd47aba6	-0.04874768
255	0x3cfcc08b	0.03085353

fc2.bias f4 [128]
0	0x3d2cb8d8	0.04216847
1	0xbd716724	-0.058936253
2	0xbd2dd83b	-0.04244254
3	0xbcea1c28	-0.02857788
4	0x3d696a9d	0.05698644
5	0xbd459074	-0.048233464
6	0x395732ec	0.00020522968
7	0xbd43f7e8	-0.047843844
8	0xbbabd960	-0.005244419
9	0xbd6c5c6e	-0.057705335
10	0x3bdc8330	0.006729506
11	0xbd54d572	-0.05196137
12	0x3bb93fce	0.005653358
13	0xbcd6c134	-0.026215173
14	0x3c8ca5b7	0.017168863
15	0x3c98efeb	0.01866909
16	0x3d42e07f	0.047577377
17	0x3cdb926a	0.026803214
18	0x3d774891	0.06037194
19	0x3c27c2c4	0.010239307
20	0x3ca1cb7a	0.019750345
21	0x3cbc341a	0.022974063
22	0x3d27917d	0.040910233
23	0xbc44d0bc	-0.012012657
24	0xbd1bbab2	-0.038019843
25	0x3cc38f92	0.02387217
26	0xbcf80c50	-0.030279309
27	0x3c3eb197	0.01163902
28	0x3cd0ceef	0.025489299
29	0xbb601400	-0.0034191608
30	0xbcf3318c	-0.029686712
31	0x3d613db9	0.054990504
32	0x3cd21d3a	0.025648702
33	0x3d45c720	0.048285604
34	0x3aeff79b	0.0018308045
35	0xbcfe3d2c	-0.031035028
36	0xbc806e82	-0.015677694
37	0x3d0b2298	0.033968538
38	0x3d21fea2	0.039549477
39	0xbc6546a8	-0.013993897
40	0x3d2e1db1	0.042508785
41	0xbd4be8c8	-0.049782544
42	0xbd677d23	-0.056515824
43	0xbc72fbc8	-0.014830537
44	0x3d616cb9	0.055035327
45	0x3c3c50e0	0.0114938915
46	0xbd226fa4	-0.03965725
47	0x3a3b48b7	0.0007144319
48	0x3d49464a	0.0491393
49	0x3d22a034	0.039703563
50	0xbd695686	-0.05696728
51	0xbd090dfc	-0.033460602
52	0xbacce4fd	-0.0015632209
53	0xbd546e56	-0.051863037
54	0xbcdcd5c8	-0.026957408
55	0x3d2896fc	0.041159615
56	0x3d46013f	0.048341032
57	0x3d6cb1fe	0.057786934
58	0x3d61cbd6	0.055126034
59	0xbc3373d0	-0.010952905
60	0x3d0efa43	0.034906637
61	0xbd1c9de4	-0.038236514
62	0x3d227552	0.039662667
63	0xbd12b272	-0.03581471
64	0x3ce3d711	0.027812513
65	0xbc69d290	-0.014271393
66	0xbc7e4248	-0.015518732
67	0x3d2d579e	0.042319886
68	0xbbf6da50	-0.007533349
69	0x3caae65b	0.020861795
70	0x3d5bd22d	0.053667236
71	0x3d602748	0.05472496
72	0x3bdb6f6f	0.0066966335
73	0x3d1643c5	0.036685724
74	0xbd36177f	-0.044456
75	0xbd083aea	-0.03325931
76	0x3cec978c	0.028880857
77	0x3d67dd1f	0.056607362
78	0x3d1fb93c	0.038995013
79	0x3ca09d43	0.019606238
80	0x3c8554ec	0.016275845
81	0x3c36b599	0.011151695
82	0xbd7f1f18	-0.062285513
83	0x3caad717	0.020854516
84	0x3ca45297	0.020058913
85	0x3b7ecb94	0.0038878666
86	0x3d6b9034	0.05751057
87	0x3d364944	0.044503465
88	0x3d50587a	0.050865628
89	0x3d4e0af8	0.05030343
90	0xbbc430b0	-0.0059872493
91	0xbcbbda4c	-0.02293124
92	0xbc9af908	-0.018917575
93	0xbd3fc324	-0.04681696
94	0xbd02b2e6	-0.031908892
95	0x3d69520d	0.056963015
96	0x3d51ca42	0.05121828
97	0x3cf53955	0.029934565
98	0xbd11d9b8	-0.035608023
99	0xbcdbbc48	-0.026823178
100	0xbd2bf312	-0.041979857
101	0xbcd3f220	-0.02587229
102	0xbbf27bc0	-0.007400006
103	0xbd0a5460	-0.033771873
104	0xbd190d0c	-0.037365958
105	0xbb6275ae	-0.0034555006
106	0x3ca3ea94	0.020009317
107	0x3d34608f	0.044037398
108	0x3c6c31e8	0.014416195
109	0xbc5ed568	-0.013600685
110	0x3c683838	0.01417356
111	0x3cb96d00	0.022634983
112	0xbd55cffc	-0.052200302
113	0xbc910693	-0.01770333
114	0x3d3c9231	0.046037856
115	0xbd7b09a0	-0.061288476
116	0x3d016960	0.031594634
117	0x3d2255c1	0.039632563
118	0xbca44a0c	-0.02005484
119	0x3d6c1090	0.057632983
120	0xbcef66f4	-0.029223897
121	0x3b92d229	0.0044806194
122	0xbd21b088	-0.039474994
123	0x3cd2338e	0.025659349
124	0xbc88dae8	-0.016705945
125	0xba85f30f	-0.0010219532
126	0x3d3c1cf5	0.045926053
127	0xbcca0a90	-0.02466324

fc3.weight f4 [10, 128]
0	0xbc81e8dc	-0.015858106
1	0x3d7465c6	0.05966737
2	0xbd697622	-0.056997426
3	0xbd9b3bb6	-0.07579748
4	0xbd443851	-0.04790527
5	0xbd63f753	-0.05565579
6	0xbd19d684	-0.037558094
7	0x3c941f50	0.018081337
8	0xbd9ec47e	-0.07752322
9	0x3bedc3f0	0.0072560236
10	0xbbd15620	-0.0063884407
11	0x3c7cff30	0.015441701
12	0x3d8ee75f	0.06977724
13	0x3d97081f	0.07374596
14	0xbc2169a8	-0.009851851
15	0xbcb5364c	-0.022120617
16	0xbd2ad6e7	-0.041708853
17	0xbd3499d8	-0.04409203
18	0x3cb71a5d	0.022351438
19	0x3d612263	0.054964434
20	0x3db26913	0.087114476
21	0xbd59a7ec	-0.05313866
22	0x3d182269	0.03714219
23	0x3beedf77	0.0072898227
24	0xbd7e8cdc	-0.062146053
25	0x3cea5b40	0.028607965
26	0x3d9a8045	0.07543997
27	0x3c324b5c	0.010882225
28	0x3ca0ff27	0.019652916
29	0xbcdc2118	-0.02687125
30	0x3d223aea	0.039606966
31	0xbd1e492a	-0.038643993
32	0x3d4504e5	0.04810037
33	0xbcde50e8	-0.027138188
34	0xbcca262b	-0.024676403
35	0x3d12fd04	0.035885826
36	0xbcce6749	-0.025195735
37	0x3db40d0b	0.0879155
38	0x3d86871c	0.06568739
39	0xbd3ae1d7	-0.045625534
40	0xbdb3eaf0	-0.08785045
41	0xbd328bf8	-0.043590516
42	0xbd909207	-0.070591025
43	0x3c4ce970	0.012506828
44	0xbd86b0df	-0.06576704
45	0xbd6f19d6	-0.05837425
46	0x3cad3184	0.021141775
47	0xbd77faff	-0.060542103
48	0xbd334ca5	-0.043774266
49	0x3dadeb0c	0.08492097
50	0xbb1d83e0	-0.0024034902
51	0x3c6210a8	0.0137979165
52	0x3cefd370	0.029275626
53	0xbc032a58	-0.008005701
54	0x3d652162	0.05594004
55	0xbd93e9df	-0.07222342
56	0x3d871885	0.065964736
57	0x3ce40dce	0.027838614
58	0xbd0f40e9	-0.034974013
59	0xbda58df2	-0.080837145
60	0xbcfecb0b	-0.031102678
61	0x3d5ede9e	0.054411523
62	0xbd2bf7e7	-0.041984465
63	0xbd599f90	-0.053130686
64	0xbcb68d76	-0.02228425
65	0xbd40229d	-0.04690801
66	0x3cdb7e9c	0.02679377
67	0xbd2638b4	-0.04058142
68	0xbd3d3657	-0.0461944
69	0x3d9d0e49	0.0766874
70	0x3cc20f87	0.023689045
71	0x3d315800	0.043296814
72	0x3d8d883d	0.06910751
73	0x3d804626	0.0626338
74	0x3d9dfde6	0.07714443
75	0x3dae1725	0.08500508
76	0x3d08cf48	0.033400804
77	0x3c9384ef	0.018007724
78	0x3d59dbe8	0.053188235
79	0xbda778c7	-0.08177333
80	0x3ba1f4ed	0.0049425275
81	0x3d3b99fc	0.045801148
82	0x3c8c7f78	0.017150626
83	0xbda182ce	-0.07886277
84	0xbd126441	-0.03574014
85	0xbda74e57	-0.08169239
86	0x3d2b203d	0.04177879
87	0x3d403bfd	0.04693221
88	0x3bd98975	0.0066387006
89	0x3cddef3f	0.02709162
90	0xbd190675	-0.037359674
91	0xbc4bee1c	-0.012446906
92	0xbd972d9b	-0.073817454
93	0xbc16f750	-0.009214237
94	0x3d9c97ad	0.07646117
95	0xbd681e97	-0.056669798
96	0x3b9d150a	0.004793768
97	0x3a778f89	0.00094436907
98	0xbd7602c4	-0.06006123
99	0x3c077ca1	0.00826946
100	0xbd2b76f2	-0.041861482
101	0x3da12157	0.07867687
102	0x3bf095a0	0.0073420554
103	0x3d019ee2	0.031645663
104	0x3d99a31b	0.07501813
105	0xbd0e15f4	-0.034688905
106	0x3c1779c0	0.009245336
107	0x3d0a5c32	0.03377933
108	0xbb0bec40	-0.0021350533
109	0x3cf32a48	0.029683247
110	0x3d54984a	0.051903047
111	0x3d21cee6	0.039503954
112	0x3d978fd3	0.07400479
113	0x3d6ab141	0.05729795
114	0x3d8c71ac	0.06857619
115	0x3c8c8ff0	0.017158478
116	0x3d9b2357	0.075751
117	0xbd4a592d	-0.04940145
118	0x3c130729	0.008973875
119	0xbbded356	-0.0068000956
120	0x3d666eda	0.05625806
121	0xbdaa1a8f	-0.08305847
122	0xbd620571	-0.05518097
123	0x3d2ec1fe	0.042665474
124	0x3d2c880e	0.04212194
125	0x3baecef7	0.0053347307
126	0x3d6ce66c	0.057836935
127	0x3c7e7828	0.015531577
128	0x3d8c3e0d	0.06847773
129	0x3d9da2ab	0.07697042
130	0x3d160e60	0.036634803
131	0xbdb26e39	-0.087124296
132	0xbb2a9728	-0.0026030038
133	0xbd84b45d	-0.06479714
134	0x3d49568e	0.04915481
135	0xbd8f4544	-0.06995633
136	0xbd4f05d1	-0.050542656
137	0xbd287277	-0.041124787
138	0x3d9b43ab	0.07581266
139	0xbb873260	-0.004125878
140	0xbc3cdcd5	-0.01152726
141	0x3d3f59a2	0.04671634
142	0xbd995ae9	-0.07488043
143	0xbc89fd9a	-0.01684456
144	0x3a035d38	0.0005011144
145	0xbb2df01c	-0.0026540821
146	0xbc2c5619	-0.010518574
147	0xbd97969a	-0.07401772
148	0xbd28f8f0	-0.04125303
149	0x3dad0601	0.08448411
150	0xbcafb3f5	-0.021448115
151	0x3d8a0a6f	0.06740271
152	0x3d8418ad	0.06450019
153	0xbc5d9e33	-0.013526487
154	0xbd397f80	-0.04528761
155	0x3d4bdba4	0.049770012
156	0x3da16c84	0.07882026
157	0xbc816a44	-0.015797742
158	0xbd46112e	-0.048356228
159	0xbda3fca8	-0.08007175
160	0xbd8e996b	-0.06962856
161	0x3c54d630	0.012990519
162	0x3d2eae05	0.042646427
163	0xbd921e4a	-0.071346834
164	0x3bfdd46f	0.0077462713
165	0x3d8fd14b	0.07022341
166	0x3bc1d327	0.005915064
167	0xbc781a50	-0.015142992
168	0x3d48c6d1	0.04901773
169	0x3c7f5478	0.015584104
170	0x3c6a9866	0.014318561
171	0x3d7a23da	0.061069347
172	0xbd847e8b	-0.06469449
173	0x3d6580fe	0.05603122
174	0xbdb2cdfa	-0.08730693
175	0x3a9d8ab9	0.0012019492
176	0x3d980606	0.07423024
177	0x3dad1b95	0.084525265
178	0xbd87d970	-0.0663327
179	0xbccf5108	-0.025307193
180	0xbd172a08	-0.03690532
181	0xbd3fe4d7	-0.046849098
182	0xbce41602	-0.027842525
183	0x3d0d07bd	0.034431208
184	0xbcbf0b45	-0.023320803
185	0xbd8131d2	-0.063083306
186	0xbd8ba402	-0.068183914
187	0x3c44b800	0.01200676
188	0xbc8b7d3e	-0.017027494
189	0xbdb0330f	-0.08603489
190	0x3d9d80f7	0.07690614
191	0xbd8a5bda	-0.067558005
192	0x3d3b33f0	0.04570383
193	0xbbdc59d0	-0.0067245737
194	0x3d21d716	0.039511763
195	0x3cf9b7eb	0.030483207
196	0x3d76ada6	0.060224198
197	0xbd9cc225	-0.07654218
198	0xbd897b57	-0.06712978
199	0x3d602c59	0.054729793
200	0xbd8b671f	-0.06806778
201	0x3cb6d7c7	0.022319688
202	0x3d88c962	0.06679036
203	0x3d32e5cb	0.04367618
204	0xbc04f1ba	-0.008114273
205	0x3bb55799	0.005534124
206	0x3d8e5838	0.0695042
207	0xbdab1970	-0.08354461
208	0xbd31fc63	-0.043453585
209	0x3da7faac	0.08202109
210	0x3cdcefe8	0.026969865
211	0x3d23547a	0.039875485
212	0xbda41008	-0.0801087
213	0xbc7ff379	-0.015622013
214	0xbd9ca5a9	-0.07648785
215	0xbbbab4f4	-0.005697841
216	0x3cdb3a35	0.026761154
217	0x3cbdb427	0.023157192
218	0xbd235b2e	-0.039881878
219	0xbc800a20	-0.015629828
220	0xbcd4ce82	-0.025977377
221	0xbdb4ad5a	-0.08822127
222	0xbd71030d	-0.0588408
223	0xbd0ad92a	-0.03389851
224	0x3c8da2ef	0.017289607
225	0x3da9f819	0.08299274
226	0xbceb728e	-0.028741147
227	0xbd4ec576	-0.050481282
228	0xbd953df8	-0.0728721
229	0xbdac0d78	-0.084010065
230	0xbd1cd71a	-0.038291074
231	0x3c658740	0.014009297
232	0x3d265c02	0.04061509
233	0xbda36fdd	-0.079803206
234	0x3d586e32	0.052839465
235	0x3cf98a08	0.030461326
236	0x3d185796	0.037192903
237	0x3c8b5d7c	0.01701235
238	0xbda3bd00	-0.07995033
239	0xbd3c3a36	-0.04595395
240	0x3c517348	0.012783833
241	0x3ca3baa4	0.019986458
242	0xbd0d6270	-0.034517705
243	0x3da0b9fb	0.07847973
244	0xbc26c26b	-0.010178189
245	0xbd534868	-0.051582724
246	0xbc2cd842	-0.010549607
247	0x3cce6160	0.025192916
248	0xbd943e25	-0.07238416
249	0x3d2e6e47	0.042585637
250	0x3d029788	0.031882793
251	0xbd70f831	-0.058830444
252	0xbda69aeb	-0.08135017
253	0x3d444bc9	0.047923837
254	0xbd62a62a	-0.055334248
255	0xbc8cf0bc	-0.017204635

fc3.bias f4 [10]
0	0x3cd7011c	0.026245646
1	0x3d41aca1	0.047283772
2	0x3d91881c	0.07106039
3	0xbd93c665	-0.07215575
4	0xbd7a9881	-0.061180595
5	0xbd9660cf	-0.073426835
6	0xbd9dc232	-0.077030554
7	0xbd2ed8ff	-0.042687412
8	0xbda2858c	-0.07935628
9	0x3ceb3ed7	0.028716488
