checkpoint/ConvNet2_ep249.pth (torch, 986503 bytes, 10 tensors)

conv1.weight f4 [128, 3, 3, 3]
00000000: a0df a9bd 6f1a 5c3d 8fb0 143d 3db0 4bbd
00000010: 1eec 5ebd 6bcf 8a3c e648 44be 7703 773e
00000020: 3521 a43d 8de9 f93b 8afe edbd 26a3 42be
00000030: 5727 a93c 5e79 323d 4330 f43d 64d7 43bd
00000040: 3ba7 b93d 126e 6cbe cad3 c63d 017f ea3d
00000050: de48 35bb fb1c c93d 889e 473b e7a5 4fbe
00000060: 8f85 be3d d564 843e f972 34be fa10 d0bd
00000070: c8dc c93c c437 61bd 02c0 ab3d 0433 24bd
00000080: 6e6f f23d d46c 4fbd f181 373e a079 c0bb
00000090: c7fc 10be 4225 aa3d fd22 d1bd 3cba 3cbd
000000a0: f08b ccbc 6dd7 0d3e 9c66 31bd 8c96 77bd
000000b0: c272 fd3d 3445 16be 6cb1 2f3d ea1f a43d
000000c0: 2853 ffbc 8963 043e 5030 76bc e114 3a3e
000000d0: 3ff4 423e eaec ec3d 7a6f 5ebd fb31 8e3e
000000e0: 2d3c 2e3d 4478 80bc cca5 fbbd e090 b23d
000000f0: 9fb2 1f3d 3708 83bd 34ad 20be 4301 93bd
00000100: 4492 3c3e 42c2 393e f8b9 aebd 802e 6d3e
00000110: 3c19 b83d cf37 d83a 49e8 8abd 0102 3dbe
00000120: b109 093d 6dd4 c0bd 96c2 2a3e ff71 30be
00000130: 9983 1a3e 5ea2 3fbe 3989 a3bd a135 103d
00000140: 8fab 16be e38a 1ebe ba3f dd3d 9116 34be
00000150: 6aea 9cbc 0f73 933e 4237 9abe 21bf 20bd
00000160: 15bc 773e 322b 3f3d 561b 79bd 8ace 7c3e
00000170: 673f 69be 9fc8 973d 47a3 6e3e 5b6a 84be
00000180: 644d e23d c886 103e 2668 58bd 0f13 18bc
00000190: 4c8f 9a3e 0e0a 99be bfa5 c23d 80bc 783e
000001a0: 0d39 95be 07a8 20be 69c4 6a3d 390b 4bbc
000001b0: cf18 b53b 874b e6bd b3ec 90bd 8afa 14bd
000001c0: 33be ff3d 993c 813e 8382 8fbd 7bb2 1abe
000001d0: f5d1 ed3d 5821 18bd 630e c53d 9722 593d
000001e0: 6e4c c8bc 5924 19be 6101 49bd 03a8 36be
000001f0: 5d55 97bc 152e a1bd f203 0e3e dd99 52be
00000200: dc1f 0e3e 2919 13be a636 32be 2e2a 453d
00000210: 7d21 853d 8bf8 cabd 10ae d03d 0040 183d
00000220: 4fe6 1a3e 9897 87bd ae55 943d a437 52bd
00000230: b011 8ebc 7701 3e3e 5cb0 00bd b9d3 12be
00000240: 617e 443e 856a 3ebe 283f c73c 8e01 debd
00000250: 5065 31bc 366a 9c3d 3c83 fbbd 2b2c 3c3e
00000260: 09f8 08be d9cd 423e 9f94 313e 2a10 ab3d
00000270: a058 133d 00fe 603a 067f 0cbe 0491 2bbd
00000280: 3a78 da3d 1991 163e ad03 4a3e 5e05 1dbd
00000290: bf12 b4bd 80f3 8e3d e2b9 b93d 4a1f 2e3d
000002a0: c4b0 1c3e 25c7 89bd 12b6 5fbe cdc9 dc3d
000002b0: aabe 5e3e 8c42 f6bd a658 4e3e 938e 20bd
000002c0: c28a a7bb 6d74 24bb ab73 f7bd 33bf 08bd
000002d0: 00e2 e2bd d9ea aabd 222b 23be 5b54 f2bd
000002e0: c191 5ebd 1f71 85be 0b90 e33c 814e 233e
000002f0: 9a0c 5dbd 2b61 eebd 1ab3 893d 070b efbc
00000300: ace9 7f3d 7691 3fbe cdba 3d3e 39d3 033e
00000310: d4b9 0cbd 0f30 e03d a375 c9bd 2e07 f13c
00000320: ee9d 0cbd a9ff 04be ad41 16bd 1762 17bc
00000330: 2bba ce3d 3134 77be 2c17 263e 38b4 2bbe
00000340: 87eb 32bd 02f1 583e c45b 1dbe a147 b0bd
00000350: 57f6 e43d cd01 353e 2b9f a43d 7ac1 fbbc
00000360: d069 353e 236b 07be 2c39 dfbd e9b4 e1bd
00000370: 2ad8 2dbe e321 353e 1968 55bd dd76 d5bc
00000380: 7097 fdbd 9bb6 d13a eac0 3dbe 2e15 c8bd
00000390: df79 493e d799 bf3d 4722 0e3e 79ab 18be
000003a0: 5b69 19be 6f05 203e 4730 b03d a961 7a3c
000003b0: 9fb0 0f3e c4aa e4bb 4613 d5bd e643 4a3d
000003c0: f5c0 043d d6ff 113e deb0 a03d 9046 92bd
000003d0: 96b0 eb3b 4690 9d3d e213 eebd 493e 623d
000003e0: 405d 793d 2fb8 c43d 1e9c 0fbe 8bf2 35be
000003f0: 709e c73c 87ca c43d 1a06 d53d 35e2 84bc
-0.08294606 0.053736147 0.036301192 -0.04972862 -0.054424398 0.016944608 -0.19168434 0.24122415
0.08014146 0.0076267184 -0.11620815 -0.19007549 0.020648642 0.043572776 0.11923268 -0.047812834
0.090651 -0.23088863 0.09708364 0.11450005 -0.002766184 0.09819981 0.0030459482 -0.2027813
0.09302818 0.2585818 -0.17621984 -0.10159488 0.02464141 -0.054984823 0.08386232 -0.040087715
0.1183766 -0.050640896 0.17920662 -0.005873874 -0.14158927 0.083078876 -0.102117516 -0.046076044
-0.024969071 0.1385171 -0.043310747 -0.060446307 0.12375404 -0.14674836 0.042893812 0.080138996
-0.031167582 0.12928595 -0.015026167 0.18172027 0.19038485 0.11568625 -0.05430553 0.27772507
0.042537857 -0.015682347 -0.122874826 0.08719039 0.038988706 -0.06398051 -0.15691072 -0.07177975
0.18415171 0.1814051 -0.085315645 0.2316227 0.08989188 0.0016496124 -0.06782586 -0.18457796
0.033456508 -0.09415517 0.16675791 -0.17230986 0.15089263 -0.18714282 -0.079851575 0.035207395
-0.14713882 -0.15482669 0.108031705 -0.17586733 -0.019154746 0.2879872 -0.30120283 -0.039244775
0.24192841 0.046672054 -0.060817085 0.24688163 -0.22778092 0.07411312 0.23304473 -0.25862393
0.11049917 0.14113915 -0.0528337 -0.009281888 0.30187452 -0.29890484 0.0950427 0.24290657
-0.2914509 -0.15689097 0.057316218 -0.012392812 0.005526639 -0.112448744 -0.07076397 -0.036371745
0.124874495 0.25241545 -0.07007315 -0.15107147 0.11612312 -0.037141174 0.09621885 0.053011503
-0.024450507 -0.14955272 -0.04907358 -0.17837529 -0.018473322 -0.078701176 0.13868693 -0.20566507
0.13879341 -0.14365067 -0.17403659 0.04813593 0.06500528 -0.09910687 0.1018945 0.03717041
0.15126918 -0.06620711 0.072429046 -0.051322594 -0.017342418 0.18555246 -0.03141819 -0.14338578
0.19188835 -0.18595321 0.024322107 -0.1084014 -0.010827377 0.07637446 -0.1228089 0.18376224
-0.13375868 0.19023837 0.1734185 0.083526924 0.03597319 0.0008582771 -0.1372033 -0.041886345
0.10667463 0.14703788 0.19727965 -0.038335197 -0.08792638 0.06980038 0.090686575 0.04251031
0.15301806 -0.06727437 -0.21846798 0.10780678 0.2175242 -0.120244116 0.20151004 -0.03919847
-0.0051129768 -0.002509381 -0.12082609 -0.033385467 -0.11078262 -0.08345575 -0.15934423 -0.11832496
-0.05433822 -0.26062867 0.027778646 0.15947916 -0.053967096 -0.11639627 0.06723614 -0.029180063
0.062478706 -0.18707833 0.1852829 0.12873544 -0.034356907 0.109466664 -0.098368905 0.029422369
-0.0343303 -0.12988152 -0.036683727 -0.009239695 0.100941025 -0.24141003 0.16219777 -0.16767967
-0.043681648 0.21185687 -0.15367037 -0.08607412 0.11179798 0.17676468 0.080381714 -0.030731905
0.17716146 -0.13224463 -0.108995765 -0.11020834 -0.16976991 0.17688708 -0.05210123 -0.026057655
-0.123824 0.0015999855 -0.18530622 -0.09769665 0.19675396 0.093555145 0.13880263 -0.14909162
-0.14981596 0.15627073 0.08602958 0.015282073 0.1403222 -0.0069783647 -0.10404067 0.04938116
0.03241058 0.1425775 0.07846235 -0.07142365 0.0071926815 0.076935336 -0.11624886 0.05523518
0.060879946 0.09605443 -0.14024398 -0.17768304 0.024367541 0.096089415 0.104015544 -0.016221145

conv1.bias f4 [128]
00000000: 0b26 6d3d 0183 39be ac80 973d 85c6 613e
00000010: efa4 0fbc bb99 1dbe 4cb4 27be 5fd9 a23d
00000020: e478 babd ddec bcbc b48b ecbc 30d5 b0bd
00000030: e09c 3bbe 7041 5b3d 3e27 dd3d 17d9 3dbe
00000040: dc05 a1bd 9f0a 6c3d 1095 18be 4596 f9bd
00000050: 40b9 11bb e01c 913d 93ce 63bd b4c1 713d
00000060: b8e7 c73c 3f39 c0bd 7581 313e fec5 4d3e
00000070: f46b 3abe 982b 0ebe 787b fa3d fba9 29be
00000080: 0ea9 36be 1b04 633e 529d b0bc de14 62bc
00000090: b8c1 81bd fc71 1cbe 2e88 c5bd ba43 983d
000000a0: 700e 083e 5215 c63d 12b8 09be 0b6b 853d
000000b0: d475 76bd 0ef2 33be 313e c0bd 4423 6fbc
000000c0: 9721 693d 0605 2b3e 4e51 3a3e 5c96 d3bd
000000d0: f464 37be fc86 5dbd 39aa ea3d b268 74bd
000000e0: c0fa 3ebe bdc4 57be 5543 72bd 3fe0 56be
000000f0: 14f7 0f3d 80ce fbbb 8e6f 53bc 1ce1 d73d
00000100: ac1e 07be 0906 e6bb e19c 133d 6512 383e
00000110: 32cf 963d 9a0f be3d edd0 1d3e 0c54 5d3e
00000120: 6c76 db3c 97d2 28be 1e80 3e3d 4c64 2e3e
00000130: b392 133e 8d97 adbd d90e 1cbe 6997 92bc
00000140: be1c b73d 01a5 8d3c 2a60 c4bd 07df 1ebe
00000150: c235 40be 97a9 fc3d 5711 64be b68b d43d
00000160: 1d1e b4bd 4695 023e ca65 78bb c1aa 0abe
00000170: 5a66 c8bc d8d5 41be 8123 b53d caf6 103e
00000180: 5eef 9a3d 305d 7fbd accd 7d3d 361f d8bd
00000190: 66b9 07be 3a92 d43d 29bd 4a3d a6d3 3ebc
000001a0: cf60 21be e928 81bd 18f0 1dbe 7417 7d3d
000001b0: 1437 0b3e e61c 403d c4f6 5e3e 38eb b73d
000001c0: e674 16be f90f 653c b43e 2dbe 5536 8e3c
000001d0: 6072 cb3c 15e7 3b3d fdd8 18be 2e46 bbbd
000001e0: 2fc4 0dbe 7d95 403e f43b 9a3d 7505 51bd
000001f0: 8885 db3b a121 b5bd 7f8b 29bd b4d2 863d
0.05789761 -0.1811638 0.07397589 0.22048385 -0.008767351 -0.15390675 -0.16377372 0.079516165
-0.09105089 -0.023062164 -0.02887521 -0.08634412 -0.18321562 0.053529203 0.107985005 -0.18539844
-0.07862446 0.057627317 -0.14900613 -0.12186865 -0.0022235662 0.070855856 -0.055616926 0.05902262
0.024402484 -0.09385919 0.1733454 0.2009506 -0.18205243 -0.13883817 0.12230581 -0.16568749
-0.17837927 0.22169535 -0.021559391 -0.01379892 -0.06335777 -0.15277857 -0.09645115 0.07434793
0.13286757 0.09672035 -0.13449124 0.065145575 -0.060170963 -0.17572805 -0.09386862 -0.01459581
0.0569168 0.16701135 0.18195078 -0.10331413 -0.17909604 -0.05408381 0.11458249 -0.059670158
-0.18650341 -0.21071143 -0.059146244 -0.2098398 0.03514774 -0.007684529 -0.012905015 0.10540983
-0.13195294 -0.0070197624 0.036038283 0.17975767 0.07363738 0.092803195 0.1541173 0.21614093
0.026789866 -0.16486584 0.0465089 0.17030448 0.1441143 -0.08476172 -0.15240039 -0.017894464
0.08941029 0.017290594 -0.09588654 -0.15514766 -0.18770507 0.12337034 -0.2227224 0.1037821
-0.08794806 0.12752256 -0.0037902468 -0.135417 -0.024462868 -0.18929231 0.088446625 0.14156643
0.07565187 -0.06234473 0.061963722 -0.10552828 -0.13254318 0.10379453 0.049496803 -0.011647141
-0.15759586 -0.06306631 -0.1542362 0.061789945 0.1359523 0.04690256 0.21773821 0.08980411
-0.1469303 0.013980859 -0.1691845 0.017359892 0.024834812 0.045874674 -0.14926524 -0.09144245
-0.1384437 0.18807025 0.075309664 -0.051030595 0.006699268 -0.08844305 -0.0413928 0.06583157

conv2.weight f4 [56, 128, 3, 3]
00000000: 1583 6dbc 0611 cebc ac5d 23bc 4e38 27bc
00000010: 2bbd e83c 34a9 cb3b 3842 d8bc deb8 07bc
00000020: 1c72 f83b f020 33bb 20a9 e7bc 3a46 85bc
00000030: 0463 e53b b2d3 113c 59f5 8a3c 179a c13c
00000040: f20c a5bc 0134 d9bc 2c64 debb 66f5 303c
00000050: 5d88 b43c 4640 693c 259d 9bbc 42a6 4fbc
00000060: c98c 963c 9d82 c93c 372a 6abc a8ec 94bb
00000070: 40d2 2ebc 2a4f 223c b09c f33a b58c ef3c
00000080: f974 ab3c 79e8 e0bc cb77 963c 4de1 963c
00000090: a82d 1f3b 324c 1abc b892 5c3b 1fc1 c33c
000000a0: 498b 943c 7455 48bc 2390 ce3c d0e2 c93a
000000b0: 3171 bc3c 06a0 c5bc aad5 773c 2596 b9bc
000000c0: d1e3 843c d823 7a3b 4acf 54bc 6634 513c
000000d0: 3a93 083c 5693 a1bc 806d 57bb ff3d 953c
000000e0: 0405 a8bb 5848 4bbb 54d4 b0bb 701e b0bc
000000f0: 97fa b23c 370c b43c 9a12 013c 21af e3bc
00000100: 537b dd3c 36fd 5a3c 9bc0 b5bc 985d 9cbc
00000110: 18c9 98bc f3b1 ec3c e4fe 8ebc 1d9f 66bc
00000120: 04d4 ab3b 04c2 82bc 2487 11bc 9688 743c
00000130: e8e2 83bb d85a 2c3b 8cf3 84bb ce57 4a3c
00000140: fea8 2cbc 9c29 9d3b 6810 0f3b 8022 c8ba
00000150: d343 d03c 5070 93bc 7bd1 b13c 80b1 c1bc
00000160: 67fe 8a3c 1c0c f33b 2fc0 953c 615f c83c
00000170: 6610 0cbc 407d fa39 90f8 cfba ac6a e53b
00000180: 50ad 19bb 34e7 83bb 3a2b 6a3c 228d efbc
00000190: a0d5 80bc d12c c63c 1371 bdbc d21e 633c
000001a0: e04a 6cbb 5c27 f93b fa10 23bc e4fc e2bb
000001b0: 96cb 48bc ccae f6bb 7433 c5bb 063a 34bc
000001c0: ce16 3a3c 4845 323b 576d b93c 97c6 e83c
000001d0: 5655 093c ceaf 563c 3ccd 90bc e855 aabc
000001e0: c059 d4bb c3fd ccbc 2cc5 b8bc 652e debc
000001f0: b934 d3bc 83ac d7bc 34c1 e6bb 8efe 273c
00000200: 405c 303a a89c 7b3b df39 c73c 20c5 53bc
00000210: 5ccc bfbc af4c b03c 2097 83bb b3fc 6bbc
00000220: 7346 b0bc ec2f cbbc 9e87 093c 2f3c cdbc
00000230: 981c 66bb 8bb1 96bc 6b8f abbc 2434 06bc
00000240: cac0 0a3c 903d dcbc 9df5 823c dbfc bebc
00000250: 91fa 8a3c 54fe d03b 574f 983c d0c1 83bc
00000260: ac95 58bc 00ed d1b9 e096 caba 0ba1 da3c
00000270: c01b 0bbc 247f 90bb f2b7 9bbc 2c62 fabb
00000280: 32ee 543c d83e 9abb 90eb beba aa60 09bc
00000290: 3c6d 6dbc 82c0 6c3c 7f70 813c 60bb 2bba
000002a0: cee6 92bc d98f e93c 0c68 de3b d3d5 dd3c
000002b0: 2c43 de3b 6fd7 cebc 523f 083c 9210 18bc
000002c0: 9cd4 debc da8e 1b3c 0211 4ebc 4551 e23c
000002d0: 005e 8cb8 a86f 3b3b e0f4 d5bc 80ee 3f39
000002e0: d902 a93c 2f53 d13c 5c09 82bc 00ee d139
000002f0: 5d5e a83c ebdb ea3c 4c30 aebb ea80 5c3c
00000300: be01 d9bc 6ee4 d6bc e7c5 a43c 04cf babc
00000310: 781f 1bbc 30d1 67bb f5db 853c 76b8 b0bc
00000320: 6677 5d3c 26c1 493c 0e2c c3bc b452 49bc
00000330: c089 d8bb 3269 97bc 750d b83c 4e31 8bbc
00000340: 29ca cc3c de16 7e3c 8890 9cbc 32f7 4abc
00000350: be9c 2a3c f35d 9c3c 860e 673c 3a8d 64bc
00000360: 5ddf e9bc 257f ab3c 1622 7f3c 9abf c9bc
00000370: 2c22 ddbc 64d6 e83b 08e8 263b 601d 49bb
00000380: fbea d83c dc6c 88bb 9a7a 69bc f660 493c
00000390: 0ada 35bc 555e b93c 269d 5cbc e4ef aa3b
000003a0: 57b1 a5bc 28fc 7abb f640 55bc d9cc ad3c
000003b0: 82ff 84bc dc20 80bb 4b5b d73c 00dd c2bb
000003c0: b41f e9bc 22ab 9ebc 0bf2 933c 349f c73b
000003d0: ba4b 6a3c 70ce 40bc 4e27 143c 9950 f1bc
000003e0: 6038 e33a 77d3 eebc 3455 fa3b 40e4 e2bb
000003f0: 3f3c da3c 76fe 753c 069e 9dbc 5095 58bb
-0.014496584 -0.025154602 -0.009971064 -0.010206295 0.028410515 0.006215239 -0.026398763 -0.008283822
0.0075819623 -0.0027332865 -0.028278887 -0.016268838 0.007000329 0.00890057 0.016962694 0.023633046
-0.020147774 -0.026514055 -0.0067868438 0.010800695 0.02203768 0.014236515 -0.01899583 -0.012673916
0.018377678 0.024598414 -0.014292291 -0.004544813 -0.010670245 0.0099065695 0.0018586125 0.029241899
0.0209298 -0.027454602 0.018367669 0.018417979 0.0024288688 -0.00941758 0.0033656787 0.023895798
0.018132823 -0.012227405 0.025215214 0.0015402678 0.023003193 -0.024124157 0.015126625 -0.022654602
0.016221913 0.0038168337 -0.012988875 0.01276884 0.008335883 -0.019723576 -0.0032871664 0.018218039
-0.005127551 -0.0031018462 -0.0053964052 -0.021498889 0.021848006 0.02197848 0.00787797 -0.027793469
0.027036345 0.013366034 -0.022186568 -0.019087598 -0.018650576 0.028893447 -0.017455526 -0.0140760215
0.00524378 -0.015961654 -0.008882318 0.014925143 -0.004024852 0.0026299264 -0.0040573534 0.012350036
-0.010538338 0.00479622 0.0021829847 -0.0015269071 0.025422966 -0.01799789 0.021706333 -0.023644209
0.016967012 0.007417215 0.018280117 0.024459543 -0.008548832 0.00047777034 -0.0015866924 0.0070012417
-0.002344925 -0.0040253643 0.014292533 -0.029242102 -0.015726864 0.024191292 -0.023125207 0.013862329
-0.0036055371 0.007603569 -0.009952778 -0.0069271196 -0.01225557 -0.0075281616 -0.0060180966 -0.011000162
0.011357976 0.002720194 0.022635145 0.028415008 0.008382162 0.013103439 -0.017675988 -0.020792916
-0.0064804256 -0.025023347 -0.022554956 -0.027121732 -0.025781976 -0.026327377 -0.0070420746 0.010253562
0.00067276135 0.0038392935 0.024319587 -0.012925416 -0.023412876 0.02152094 -0.0040158182 -0.01440351
-0.021517968 -0.024803124 0.00839415 -0.025053112 -0.0035112258 -0.018395206 -0.02094241 -0.008191142
0.008468816 -0.026884824 0.015986258 -0.02331393 0.016965182 0.0063779745 0.01859252 -0.016083628
-0.013219278 -0.00040040165 -0.0015456341 0.02668812 -0.008490503 -0.0044096876 -0.01900861 -0.0076410975
0.012996243 -0.0047071986 -0.0014566053 -0.008384863 -0.014491376 0.014450194 0.015800713 -0.00065510534
-0.017932322 0.028510975 0.0067873057 0.027079498 0.00678291 -0.025249211 0.008315878 -0.009281294
-0.02720099 0.009494508 -0.012577297 0.027626643 -6.693229e-05 0.0028600488 -0.026117742 0.00018304028
0.02063124 0.02555236 -0.015873604 0.0004004091 0.020552808 0.028669318 -0.005315816 0.01345847
-0.026490089 -0.02623197 0.020113898 -0.02280379 -0.009467952 -0.0035372488 0.016340235 -0.021572333
0.013517236 0.012314117 -0.023824718 -0.012287784 -0.006608218 -0.018482778 0.022467354 -0.016991284
0.024998741 0.015508382 -0.019111887 -0.0123880375 0.010413347 0.019087767 0.014102584 -0.013949687
-0.02854889 0.02093465 0.015572092 -0.024627496 -0.026993833 0.0071056355 0.0025467891 -0.0030687675
0.026479235 -0.0041633677 -0.014250422 0.012291184 -0.011099348 0.022627989 -0.0134652015 0.0052165855
-0.020226164 -0.003829727 -0.013015976 0.021215843 -0.016235117 -0.003910167 0.026288649 -0.0059467554
-0.0284575 -0.019368712 0.018059751 0.0060919765 0.014300281 -0.011767969 0.009042574 -0.029457377
0.0017335527 -0.029153569 0.0076395515 -0.006924182 0.026640056 0.0150142815 -0.01924039 -0.0033047982

conv2.bias f4 [56]
00000000: d2c6 3dbc aa94 df3c 7969 473b 16e1 ba3c
00000010: 6c3a 01bb 4942 da3c 9d0d c43c 1d68 973c
00000020: 9101 c9bc bcfd 7bbc 7909 833c 6b7c 353c
00000030: d719 09bc 6385 81bc b146 d2bc 9b7d 31bc
00000040: 58dd 5dbc b614 323c bcef d0bb 29e4 af3c
00000050: cf05 c03c 96ab 6e3c eece b73c c716 11bc
00000060: 21b6 b3bc d517 d7bb eb17 ea3b 3121 8e3c
00000070: 3389 e2bc 80b3 fc3b b7cc 12bc 74e4 5dba
00000080: b83b 8dbc 25f3 a2bb 828a ad3c b936 dcbc
00000090: 2002 84bb ccbb a83c 22da 50bc 6c98 cebc
000000a0: 8129 b8bc 5604 25bc 8e28 33bc f61c 703c
000000b0: 17c7 be39 a61a adbc 31b1 2ebb 38f4 643b
000000c0: 12b3 e5ba 905d 9abb 1898 02bc 841b c83c
000000d0: 2e0c 813c 83c5 523a f0af a93a 7d91 bb3c
-0.011583047 0.027292568 0.0030427857 0.022812407 -0.001971866 0.026642935 0.023932273 0.018482262
-0.02453688 -0.015380319 0.015995728 0.011077027 -0.008367977 -0.015810674 -0.025668474 -0.010833169
-0.013541542 0.010869196 -0.006376235 0.0214711 0.02344027 0.014567276 0.022437539 -0.008855528
-0.021937432 -0.0065641203 0.0071439645 0.017349811 -0.027653312 0.0077118278 -0.008959941 -0.0008464523
-0.01724039 -0.0049728327 0.02118421 -0.026881563 -0.0040285736 0.020597361 -0.012747319 -0.025219165
-0.022480728 -0.010071835 -0.010934962 0.014655342 0.00036387958 -0.021130871 -0.0026655907 0.0034935605
-0.0017524681 -0.0047108606 -0.007970832 0.024427183 0.015752878 0.0008040296 0.001294611 0.022896523

fc1.weight f4 [256, 560]
00000000: 803c d03c 565b 1e3d 6c0e 77bc 977f 8bbc
00000010: 144e 03bd 5059 46bc 8677 e8bc 08e6 93bb
00000020: e180 2abd d8d5 473c a0f6 1cbc dc4a a6bb
00000030: 423c 313d efd1 2d3d 69e0 0cbc 6983 203d
00000040: 47e7 2abd 49a1 ddbb 1a28 993c c575 96bc
00000050: 5b94 543c c8e4 7e3d 7301 c73d 2e9c aabc
00000060: a618 2b3b ad2a e4bc 7ef1 1ebd 3463 a13c
00000070: 1593 0dbd 2779 8cbc 711e 3dbc 0c78 3bbc
00000080: 51ee 59bd 90ef 0abb cc25 32ba 9896 033c
00000090: ec5a 963c 6350 173c 7269 9ebb ce33 40bc
000000a0: 3ac9 333c 5b46 843c cb83 76bd 3a60 36bc
000000b0: 30d8 fdbc ca75 ab3c 1163 ce3c ecc2 143d
000000c0: e34d 403d 9582 283d 9c70 1bbd 7d0e e33c
000000d0: 9e9f 473c 9ee0 41bc f859 9c3c 6292 4ebc
000000e0: 3834 673c 36b6 943c e70e 2f3c 12c9 0a3d
000000f0: 44ab 71bc 9ffc b8bc 80d5 d139 e824 d93c
00000100: 7870 e93b c2a8 273d c08f 58bb 647f 44bc
00000110: c93b 8cbc d4e8 b93c 9236 11bd 97e5 ae3d
00000120: de63 c43d 41f9 3f3d 9e21 8bba 9981 edbc
00000130: 57f2 60bd 64dc 9a3b b937 1bbd 617a aebc
00000140: da8f 9d3c 3b23 3fbc 47c6 2dbc afb0 42bd
00000150: 424e 0cbd 9b94 13bd 4a57 853c fbd4 81bc
00000160: 0c9b 8f3c adfd bc3b 6800 d93b 0028 c83b
00000170: 71bf c4bc 3482 e83c 1c44 0f3d 8cd0 b73c
00000180: 24ed ec3c 39d3 a8bc b8ff 903b 68dd 2d3c
00000190: 8d5e 243a bf15 923a d1c5 833d d39d 7a3a
000001a0: 0a37 1fbd 174a d2bc a640 e1b9 6dba 223c
000001b0: d0cc d43b 64c7 edbb ca30 a73c d665 9e3d
000001c0: d55e 523d a71c 1bbd c125 973b 73c1 76bd
000001d0: e7fe f8bb 0098 863c 7989 48bc 7a38 4bbb
000001e0: aa98 133c 3c7d 8b3b 3ad2 05bc e9aa 363c
000001f0: 06de aebb 6e1b b53c 733d 633c 4827 2c3d
00000200: ea02 103d b903 853b 6076 2d3c 08d0 293d
00000210: 186e 073d c2b2 213d 2029 43bc 50c0 d43c
00000220: ed83 15bd ee46 233d f8b9 0f3d 9e89 1c3d
00000230: 715a 33bb a0ac 85bc 1048 8ebc 7531 69bc
00000240: 32b9 19bd 3cd1 923b c0ed c5bc 4565 a13c
00000250: c7c1 113d d7b5 fb3c 2696 233d 54ca 4bbd
00000260: 08ea 20bd fb17 6abd 72e7 13bd 97c1 cabc
00000270: 538e 2e3c 60f1 08bd 58c8 c7bb 7a0f 0e3d
00000280: 282f 083c 28e2 14bc ec18 cdbc 3435 1abd
00000290: 5ee1 2b3d 12e3 9b3c 34c2 7d3c a825 98bb
000002a0: 40a1 77bb 075a 923c da0d 1b3c c2b7 85bd
000002b0: 919a 37bd 0f9e a5bc 1a53 3cbc e8f5 913b
000002c0: 767d 463c b7d9 b8bc b60d e63c ea65 8a3d
000002d0: ca59 e0bb 4c9d 64bb 10b7 833b 4a9e 2b3d
000002e0: b184 163d 3ff8 3d3c 3e46 6a3c 1a32 13bd
000002f0: 4355 0fbd a05f 16bd b564 b73b 8389 013d
00000300: 414f 48bd f179 2ebd 49a8 0b3d 9988 13bd
00000310: 1c0c 433c 188a fa3c 294c 8cbc a8b5 1f3d
00000320: 0598 56bc 14b3 783c 3828 24bc 4d11 20bd
00000330: 7f43 3d3a acc4 203d 95a6 043d 3520 a53c
00000340: dc5f 94ba b3eb f03c 1bf7 243d ef7b b73c
00000350: eba3 023d 4dcb 323b 446c 20bd c44b 223d
00000360: 688e e4bc 426a 093c 46f2 2ebc 70a3 1bbd
00000370: c536 6d3c 5229 833c 13b9 b63c 7709 1bbb
00000380: d54f e13c 95ce 113d 8487 173d e52f cabc
00000390: 0620 18bc 9498 f0bc d98e aa3c e731 75bc
000003a0: ee6b 19b9 fa1d a23c 3211 1a3c 653e e13c
000003b0: 5518 cf3c 0cfc ce39 641f 21bc 39ee 503c
000003c0: 1c91 ba3c 2a85 a6bc 8905 20bd c78b 71bc
000003d0: acd1 953a 7a90 83bc cf8e 31bc a44e f6bc
000003e0: ef23 963c d2a1 603d d693 9ebc d0aa 3d3b
000003f0: 24be aa3c b8fc 25bd 20fe ebba 36c8 8a3c
0.025419474 0.038661323 -0.015079122 -0.017028613 -0.032056883 -0.012106255 -0.028377306 -0.004513506
-0.041626815 0.01219698 -0.009580284 -0.005074842 0.043270357 0.042436536 -0.008598425 0.039187822
-0.04172447 -0.0067636115 0.01869588 -0.018366704 0.012974824 0.0622299 0.09717073 -0.020826425
0.002610722 -0.02785238 -0.038804524 0.019700624 -0.034564096 -0.017147614 -0.011542902 -0.011442196
-0.05320579 -0.002119992 -0.00067957933 0.00803151 0.018353902 0.009235474 -0.0048343474 -0.011731101
0.010973269 0.01614683 -0.06018428 -0.011131341 -0.030986875 0.02093019 0.025193723 0.036318704
0.04694928 0.041140158 -0.03794919 0.02771687 0.012184052 -0.011833338 0.01908587 -0.012608143
0.014111571 0.018153291 0.010684705 0.03388316 -0.014750306 -0.022581397 0.00040022656 0.026506856
0.007124003 0.040932424 -0.0033044666 -0.011993263 -0.017118352 0.022694029 -0.035452433 0.085398845
0.09589361 0.046868566 -0.0010614877 -0.028992461 -0.054918613 0.0047259796 -0.03789494 -0.02129859
0.019233633 -0.011666114 -0.010606355 -0.04753178 -0.03425432 -0.036030393 0.016276974 -0.015848627
0.017529987 0.005767545 0.006622363 0.006108284 -0.024017068 0.028382398 0.034977064 0.02243831
0.028921671 -0.020608531 0.0044250153 0.010611869 0.00062701927 0.0011145397 0.06434215 0.0009560261
-0.03887085 -0.025670094 -0.0004296351 0.009932143 0.006494142 -0.007256435 0.020409007 0.077342674
0.05135997 -0.037869122 0.004612655 -0.06024308 -0.007598746 0.016429901 -0.012239807 -0.0031009004
0.009008566 0.0042568725 -0.008167798 0.011149147 -0.005336526 0.022107806 0.013869631 0.04202965
0.03515903 0.0040592817 0.010587305 0.04145816 0.033063978 0.039477117 -0.01191166 0.025970608
-0.036502767 0.039862566 0.035089463 0.03821718 -0.002736714 -0.016317666 -0.017368346 -0.014232983
-0.03753013 0.004480509 -0.02416122 0.01970161 0.03558519 0.030726356 0.039938115 -0.049753502
-0.03928569 -0.057151776 -0.036109395 -0.024750514 0.01065405 -0.03343332 -0.006096881 0.03468273
0.008312024 -0.009087123 -0.025036298 -0.037648395 0.041962974 0.019029174 0.015488196 -0.004643161
-0.0037785321 0.017865194 0.009463752 -0.0652919 -0.04482514 -0.02021697 -0.011494422 0.004454363
0.012114873 -0.022564752 0.02808271 0.0675772 -0.006846641 -0.0034883795 0.0040196255 0.041899003
0.036747638 0.011594831 0.014298974 -0.035936452 -0.03499342 -0.03671229 0.005596722 0.031625282
-0.048903707 -0.04259676 0.034096036 -0.03601894 0.011904743 0.030583426 -0.01712616 0.0389916
-0.013097768 0.015179414 -0.0100193545 -0.039079 0.00072198355 0.03925006 0.032385428 0.02015696
-0.0011320072 0.029409265 0.04027472 0.022397963 0.031894606 0.0027281821 -0.03916575 0.039623037
-0.027899936 0.00838715 -0.01067788 -0.037997663 0.01447839 0.016010914 0.022305047 -0.0023656765
0.027503887 0.035597403 0.036994472 -0.024681041 -0.009284979 -0.02936963 0.020820068 -0.014965511
-0.00014631424 0.019789685 0.009403514 0.027495572 0.025280157 0.0003947917 -0.009834144 0.012752109
0.022774272 -0.02032717 -0.03906778 -0.014742798 0.0011430285 -0.016060103 -0.010837271 -0.030066796
0.018327681 0.054841824 -0.019357603 0.0028940924 0.02084262 -0.040524215 -0.0018004812 0.016941171

fc1.bias f4 [256]
00000000: d4a4 2d3d 0f10 29bd 20f5 5d3b 38b8 be3c
00000010: 1417 edbb b1c6 12bd 4201 033d ac1d 75bb
00000020: f0f4 193c adbc 3f3d 8d64 d53c 4c9a 863c
00000030: 5e7b 163d 8ecf e03b f689 b83b b917 ceba
00000040: 44a0 97bc f05e dbbc ab43 743c bcd4 c43c
00000050: befa d5bc b25a 94bb bc53 f8bc 78c8 2fbb
00000060: 5076 6d3d 9409 343c 0a6e fd3c 9c65 c33b
00000070: 27f8 e8bb 473e 81bc 6cd8 243d 0ffd 5dba
00000080: 967a 9ebb d47a 72bc dce1 993c 3b70 8ebc
00000090: fe68 283c 03e8 14bd 37a6 92bc 11b1 42bd
000000a0: b826 cd3c 18d2 843c 96ec 18bd 0e9c d9bb
000000b0: a3e8 183d 5ed8 a73b d72a 933c 8ce6 e43c
000000c0: 1c55 723c 122c e93c 1642 0d3d fc7d 24bd
000000d0: 085e e03b 3357 c8bc 8037 9bbc 3325 6ebc
000000e0: 18a3 483c 70cb 843c d522 283d d070 553c
000000f0: 1884 23bd cb84 51bc 1e13 033d 702b 98bc
00000100: 7ab6 02bc ccf7 533c 168c e5bc b846 90bb
00000110: 0680 7fbc 2143 343d 9330 393d 12fd b33b
00000120: d23e dcbc 7baa 4b3b 165a ed3b ceab f1bc
00000130: 9b45 963c cead 2f3d 3a89 25bd 98da 413b
00000140: e521 a6bc 53f7 8abc 23b2 093c abd1 ff3c
00000150: fd7d 1abb f869 253d 194f 11bd cb91 07bd
00000160: 5083 2f3d 0c6b ab3b 0033 d43a c1d6 b03c
00000170: 502e a8bc 6dd4 cd3b c59b 34bd 7c93 bbbc
00000180: 2b7f f3bc f08e fdbc 4322 23bd e67d 3fbd
00000190: 236a 35bb fe83 853c ecb5 40bd f7e8 74bc
000001a0: 45db 5b3d 46fc 52bc 55b0 ea3c 6a15 1a3d
000001b0: 61f4 a2bb fd98 1d3d 8aeb 3fbc 087d 0bbd
000001c0: 19fd 0c3d 237c 343c 1acb 1ebd 721d 13bd
000001d0: 518d eabb 48ca c5bc 66e1 ae39 1882 62bc
000001e0: b919 e63c bf48 1e3d f54f 99bc 3737 af3c
000001f0: 483a b73a 11da 9f3c 0c42 c1bc 22b8 003d
00000200: 89a7 263d ed57 a6bc 9778 19bd 2be0 ac3c
00000210: 0f26 2abc a105 c93c 3101 9f3b eaa6 76bc
00000220: 98cb 8c3c 17e0 30bd d715 b4bc 6b3e 2b3d
00000230: 2714 3a3d 6e1a 3dba d2e2 1c3d 99eb 213d
00000240: 171a 373d 57b2 cebc ef67 27bd 9cc2 26bd
00000250: bc7d 1d3d 9832 21bc b0a5 143d d1ba 7cbc
00000260: 5e98 f1bc ebdf 84bc d131 4e3a da79 dfbc
00000270: aab2 16bd 95e2 22bd 5ab0 7cbc a59b d63c
00000280: 12b3 ab3c 4eb5 573d 7e6b 843a d743 543c
00000290: e70a ef3c e94a 273c d588 e0bc ce6c 4f3c
000002a0: 0ed0 6b3c dd97 cabc f393 233c a2de 573c
000002b0: a47f fa3c 1019 0abd 4366 ba3c da81 05bd
000002c0: fcdd bc3b 68f2 b8bc a02a f63b 1018 bdbc
000002d0: c2c0 f53c 19fa 0dbd ed0d 043d d372 7fbc
000002e0: af71 dbbc 414c 0a3d 82d2 1f3a bbaf e23c
000002f0: 53a2 a63c 40f4 6abc aadb 8f3c 574a 35bc
00000300: 4918 ef3c 3d3e f0bb e69e 263d cd08 0dbd
00000310: 0618 d33c d863 dbbc 5cf4 1fbd b5d9 3e3c
00000320: 3303 17bc d2f0 363c c97f b43b 848d b93a
00000330: d369 febb e000 ad3b 56be 433c ef53 9b3c
00000340: 1c48 1bbd bd93 523d ffea 98bb 6a90 953b
00000350: 9df1 273d 7d0f 92bc 2dd4 973b 8e74 f5bc
00000360: 1197 1dbc 1848 a03b 9f67 1ebd b082 4fbc
00000370: 1b05 6e3d e95a a2bc e06f 28bd 0140 703b
00000380: 239c 9a3c dea0 dbbc dcaf 373c 5439 d3ba
00000390: e6e8 cabc ae50 3a3d 44bf bf3c f80a f33c
000003a0: c3d6 eb3c 34c1 84bb 1cb9 153c e3a8 71bc
000003b0: bfd6 1e3d f404 e7bb 36a5 2b3d 2b9e aabc
000003c0: c460 a4bc c479 913c 2641 553d 7279 bdbb
000003d0: 5333 49bc 5222 17bc ff31 10bd 684c f7bc
000003e0: e0a0 083b b27f bd3c d739 a13b b443 89bc
000003f0: 4107 7e3c 6424 87bc 111b 203d 8cc2 cf3c
0.04239352 -0.04127508 0.003386803 0.023281202 -0.007235417 -0.03583402 0.03198362 -0.003740172
0.009396777 0.046810795 0.026048923 0.016430996 0.036738746 0.00686068 0.0056316806 -0.0015723623
-0.018509038 -0.026778668 0.014908711 0.02402722 -0.02612054 -0.0045274133 -0.030313365 -0.002682237
0.05797416 0.010988612 0.03093626 0.0059630405 -0.00710966 -0.015776766 0.04024546 -0.00084681896
-0.0048363907 -0.014799792 0.018784456 -0.0173875 0.010278938 -0.036354076 -0.017901523 -0.047532145
0.025042877 0.016213462 -0.037335 -0.0066409176 0.037331235 0.0051222285 0.017964764 0.027941965
0.0147907995 0.028463397 0.034486853 -0.04015921 0.006847147 -0.024455642 -0.018947363 -0.014535236
0.012245916 0.016210288 0.041048843 0.013027385 -0.039920896 -0.012788008 0.032000653 -0.0185754
-0.007978076 0.012937497 -0.0280209 -0.0044029616 -0.015594488 0.04400933 0.04521234 0.005492815
-0.026885424 0.0031076956 0.007243405 -0.029500868 0.018343737 0.042890362 -0.040414073 0.0029579755
-0.020279834 -0.016963637 0.0084042875 0.031227907 -0.002357363 0.040384263 -0.035475824 -0.033098023
0.04284984 0.005231267 0.0016189516 0.021586778 -0.020529896 0.0062814266 -0.044093866 -0.022897474
-0.029723724 -0.030951947 -0.039827596 -0.046750925 -0.002768167 0.01629829 -0.047048494 -0.014948121
0.05367591 -0.0128775295 0.028648535 0.03761808 -0.00497298 0.03847598 -0.011713872 -0.034054786
0.03442106 0.011015925 -0.03876791 -0.035916753 -0.0071579595 -0.024144307 0.000333558 -0.013824962
0.028088437 0.038643595 -0.018714884 0.021388633 0.0013979161 0.019513162 -0.023591064 0.031425603
0.040687118 -0.020305598 -0.03746852 0.021102985 -0.01038505 0.024538817 0.004852437 -0.015054444
0.017186925 -0.04318246 -0.02198307 0.041807573 0.045429375 -0.0007213716 0.03830225 0.039531324
0.044702616 -0.025231523 -0.040870603 -0.040712938 0.038449988 -0.009838723 0.036290824 -0.0154254
-0.0294916 -0.016220054 0.00078656996 -0.027279783 -0.03679148 -0.039766867 -0.015422905 0.026197264
0.02095941 0.05266314 0.0010102836 0.012955627 0.029180003 0.010210731 -0.027408997 0.012660218
0.014392866 -0.024730617 0.009984004 0.013175638 0.030578442 -0.033715308 0.02275384 -0.03259454
0.0057637673 -0.022576526 0.0075124055 -0.023082763 0.02999914 -0.03466234 0.032239843 -0.015591341
-0.026787607 0.033764128 0.0006096737 0.027671685 0.020341074 -0.01434046 0.017560799 -0.011065087
0.029186385 -0.007331638 0.04067888 -0.03443222 0.025768291 -0.026781008 -0.0390514 0.011648585
-0.009217071 0.0111658145 0.0055083972 0.0014156555 -0.00776408 0.0052796453 0.011947235 0.018960921
-0.037910566 0.051410425 -0.0046666856 0.0045643346 0.041001905 -0.017829651 0.0046334476 -0.029962804
-0.009618537 0.0048914067 -0.03867304 -0.012665436 0.058110338 -0.01981874 -0.041122317 0.0036659243
0.01887328 -0.026810106 0.011211362 -0.0016115108 -0.024769258 0.0454871 0.023406632 0.029668316
0.02878893 -0.004051352 0.009138372 -0.014749738 0.038779017 -0.007050151 0.041905604 -0.020827373
-0.020065673 0.017758258 0.052064084 -0.0057822997 -0.012280303 -0.009224491 -0.03520393 -0.0301878
0.0020847842 0.023132179 0.004920225 -0.016755916 0.015504659 -0.016496845 0.039088313 0.025361322

fc2.weight f4 [128, 256]
00000000: ea7e c1bd 0313 44bd 703b 4a3d c064 1dbd
00000010: c0c3 ab3a 848c 99bc 8188 b4bc 0fd4 d2bc
00000020: 20bf 13bb fb2d 723d 159b 9ebd d3bd 683d
00000030: a111 66bc 55c6 41bc 315f 8c3d 0e9b 46bd
00000040: 8a65 8c3c 3533 373d de2e 14bd 4a46 693d
00000050: b67e 313d 481d 5bbd e67a 42bc 020a 20bd
00000060: ad6e 90bd 0082 a9ba 6d51 903d f22f 14bd
00000070: bcb7 44bd c61c d13c 9071 513d 53a9 d03c
00000080: 64a9 fbbc 900d b3bc e8ec 5cbd d655 96bd
00000090: 94fb 1f3c 9af2 87bb 08d4 253c 7026 d8b8
000000a0: 5d30 b93d 5070 b7bc 8174 31bd c43b 7d3d
000000b0: 9435 2e3d 900c 4bbc 3ae5 0f3d 606f 953b
000000c0: 9be2 a13c f83d f3bc 0d71 d03b ef7d 96bd
000000d0: bdf0 ae3d a2e6 52bd 16f9 023d 7318 5b3d
000000e0: 5829 25bc 0f23 46bd 83b8 423d 6c59 6cbd
000000f0: 9035 60bc b2c3 a9bc 1885 b4bd 2a83 43bd
00000100: b1ed 583d 251f 85bb bfb9 36bd 0067 443c
00000110: 5921 32ba 6c07 6538 839e dcbd ead2 c5bc
00000120: d896 10bd d83c 73bc 6067 1c3d dc92 473a
00000130: fdf2 123d 94cb 11bd a464 1f3c 1844 8c3c
00000140: 24ff 75bc d435 c7bc 058e c8bd 8e85 bb3b
00000150: 903b 933b 6385 b53c 113c 46bd c447 6ebd
00000160: f5ae 8ebd 4355 78bd 1aab 5f3d 0690 74bd
00000170: 84af c23c 6c3b 0f3c 5816 4ebd 23e4 b4bc
00000180: 1ea1 183d e5f5 b93c 2ee7 7f3c fc88 41bd
00000190: b4f0 c5bc 5039 693d 9751 6bbd 6c10 8a3c
000001a0: 01cd 52bd 7249 94bc f09f b9bc ad39 993c
000001b0: 3561 dabc df29 ae3d ca83 a7bd eeaf 0bbd
000001c0: 433b 5bbd 56cb 74bd d486 e6bc 6c0b 9abc
000001d0: 01cb 5f3c 0335 d9bb da50 a2bd 0177 8ebd
000001e0: 4c62 f8bc f88a 1bbd 4764 88bc a72b 77bc
000001f0: d4e9 47bc 02e7 50bd fd35 d83b 554a 213d
00000200: a42c 8abd d496 173b ebd1 cfbc 58a0 483d
00000210: 9232 753d e637 a43c 872c 0ebc e70a 183d
00000220: e5f9 1ebd fcab 683d 4552 e63d 0fc2 8c3d
00000230: 012d 073d 38a8 4ebd fb9d 7b3c f103 9fbd
00000240: 4ebd 6abd aa13 d0bb 5481 50bd 2155 56bd
00000250: 78e7 91bc 1002 d7bb 55b4 83bc 3f7b 9abc
00000260: 5ee9 833b 0a62 69bd 65f7 51bd 787d 953c
00000270: bcde 403d 4a15 5fbd b4b6 ca3d d40b 493d
00000280: 1a34 4abd 607e aa3d 9896 643c d45d 043d
00000290: 450f 4cbd 409a 253d dcd3 48bd e93b cebb
000002a0: 885c ebbc a754 f5bc c57f 90bd 5de7 863d
000002b0: 106c 5abc 2694 c23c 72d4 803d fa54 393d
000002c0: 7233 92bd 1046 3a3c 24be 2abd 1f4a a63c
000002d0: 1f4c 193b 892f 81bd 38ba f9bc 48bc 613d
000002e0: 7b59 45bd ee7f 703c 8cbc 1cbc 9a80 1a3b
000002f0: cb40 e13c 8897 bb3c d75f a43c 9b8c 23bd
00000300: 2eb3 45bd dbc1 1c3c bdf5 823d e733 143d
00000310: 0e52 20bc c6c4 3dbd 1f88 213d 0dc6 04bd
00000320: ed3b 933c e2b3 833d 0361 52bc 5b94 003d
00000330: 9e75 4fbd e0fe 2bbb de7c 6f3d 5139 80bd
00000340: 4d71 68bd db0a ba3d 2bad 393d cbae 1bbd
00000350: 1c7a a13d 39e6 54bd 943c 31bd 7db4 1f3c
00000360: 1a97 023d 2a88 253d f21f b5bd 914b 98bc
00000370: de48 6abc 26d7 c5bb 303e 89bb 858c 5c3d
00000380: c668 c03c 03c0 0cbd a8da 99bc 29dd 2c3d
00000390: 7013 203d 0057 d73d 96d4 4f3d 0cb9 ccbc
000003a0: 9e42 54bd f8f6 be3d 6751 66bd df5a 033d
000003b0: 6e56 d33c 5510 863d 5843 173c 1a07 13bc
000003c0: 59fb 123d aa1b 9a39 80b7 25bd 271f c7bc
000003d0: 141f 3b3d 7ddf b5bd 3756 533c eeaa 633d
000003e0: a4ea f93c 8961 97bd 3f28 b73c b329 0b3d
000003f0: 7ec5 14bd f89e ae3d 1478 47bd a886 4d3d
-0.09448035 -0.047869693 0.04937309 -0.03842616 0.0013104603 -0.01874376 -0.022037746 -0.025735883
-0.002254434 0.05912588 -0.07744423 0.056821655 -0.014042289 -0.011827071 0.06854094 -0.048487715
0.017138261 0.04472657 -0.03617751 0.0569518 0.04333373 -0.05349472 -0.011870122 -0.039072044
-0.0705236 -0.001293242 0.07046781 -0.036178537 -0.048026785 0.025526416 0.051133692 0.025471365
-0.03072042 -0.021857053 -0.05393687 -0.07340591 0.009764571 -0.0041487934 0.010121353 -0.00010306842
0.09042428 -0.022392422 -0.043323997 0.061824575 0.042531565 -0.012393132 0.035130717 0.004560396
0.019761374 -0.029692635 0.006361133 -0.07348239 0.08542011 -0.05148948 0.031975828 0.053490113
-0.010080658 -0.04837328 0.047539245 -0.057702467 -0.013684645 -0.020723198 -0.08814448 -0.04773251
0.052961055 -0.0040625506 -0.044610735 0.011987448 -0.00067951303 5.4604767e-05 -0.10772421 -0.024148423
-0.035300106 -0.014846049 0.038184524 0.00076131313 0.035876263 -0.035594538 0.009728584 0.017122313
-0.015014444 -0.02431766 -0.09792713 0.005722708 0.0044931844 0.02215833 -0.048397128 -0.05817391
-0.06966964 -0.060628187 0.054606535 -0.059707664 0.023765333 0.008742195 -0.050314277 -0.02208144
0.03726303 0.02270026 0.015619082 -0.04724978 -0.024162628 0.056939423 -0.057450857 0.016853534
-0.05146504 -0.018101428 -0.022659272 0.01870426 -0.02665768 0.0850408 -0.08179434 -0.034103326
-0.053523313 -0.05976423 -0.028140463 -0.018804274 0.01365924 -0.006628634 -0.079255775 -0.06956292
-0.03032031 -0.037974328 -0.016649378 -0.015086091 -0.012201745 -0.051001556 0.006598233 0.03937753
-0.06746796 0.0023130672 -0.025368651 0.04898104 0.05986268 0.020046186 -0.008677608 0.037119772
-0.038812537 0.056804642 0.112461604 0.06872951 0.033001903 -0.050453395 0.01535749 -0.07764424
-0.05730944 -0.0063500004 -0.050904587 -0.05232728 -0.017810568 -0.006561525 -0.0160772 -0.018857596
0.0040256223 -0.056978263 -0.051261324 0.018248305 0.047087416 -0.054463662 0.09898129 0.049083546
-0.049366094 0.08324885 0.01395192 0.032316044 -0.04981925 0.040430307 -0.04903017 -0.006293763
-0.028730646 -0.029947592 -0.0705562 0.06587098 -0.013331428 0.023752283 0.06290521 0.045247056
-0.07138719 0.011369243 -0.04168524 0.020299016 0.002339132 -0.06307895 -0.030484304 0.0551112
-0.04818104 0.014678938 -0.009566437 0.0023575188 0.027496716 0.022899404 0.020065231 -0.039929014
-0.048266582 0.009567703 0.06394527 0.03618231 -0.009785188 -0.046330236 0.039436456 -0.03241544
0.01797291 0.06430794 -0.012840512 0.031391483 -0.050649278 -0.0026244447 0.058468692 -0.06260932
-0.056748677 0.09084102 0.04533116 -0.038008492 0.07884619 -0.05197737 -0.043270662 0.009747622
0.031882383 0.04041306 -0.08843984 -0.01859072 -0.014299599 -0.0060376106 -0.0041883215 0.053844947
0.02348746 -0.034362804 -0.018781021 0.042203102 0.039081037 0.10514641 0.050739847 -0.024990581
-0.051821344 0.09324449 -0.056229975 0.032069083 0.025798049 0.06546084 0.009232365 -0.008973861
0.035884235 0.0002939378 -0.040458202 -0.024306847 0.045683935 -0.08880518 0.012898973 0.055582933
0.030507393 -0.0739165 0.022358058 0.033975314 -0.036321156 0.08526415 -0.0486985 0.050177246

fc2.bias f4 [128]
00000000: 3571 793d 6de0 66bd 2c7e d2bc ff57 d4bc
00000010: dad9 933d 361c 7dbd 821e 893c ef44 50bd
00000020: 5fa5 6f3c e487 6dbd b734 033c 72d5 54bd
00000030: 99c8 fe3b eec3 02bd 1841 523c ad3a d73c
00000040: 6aae 013e c0ce 333d 1a0f 8b3d 59f1 303d
00000050: 563a 073d 8f2b d33c f27c 6e3d 5a4e 503a
00000060: 3a94 20bd a953 5d3c 3795 c5bc 6b3c 4e3c
00000070: 7803 553d 692b ee39 4218 f3bc 097f ab3d
00000080: 2fc3 083d 8aa5 3b3d 00a1 393a 01d8 00bd
00000090: 8464 35bc d543 783d adf0 643d 0bcf 8f3a
000000a0: 486f 2a3d 89ec 0bbd d288 c0bc 7e23 caba
000000b0: 52dc 8b3d 3b21 7d3d e7e0 c1bc ea61 2b3b
000000c0: c755 483d 30a5 a23d 41d2 4fbd 3a77 e5bc
000000d0: e694 403b 9eea 6cbd c8d5 dcbc d930 603d
000000e0: d4fb ad3d 5968 a03d d35f 823d 2ce3 a53c
000000f0: f905 5b3d e49d 1cbd 60d5 163d c833 b0bb
00000100: c81e 2a3d 8a65 833a 7413 a4bc 1d4c 3d3d
00000110: ccb9 6cbc 9059 793d 2dd2 5b3d 6623 8a3d
00000120: 74f6 3a3d b53f 803d e506 30bd d69a b2bc
00000130: 650d e63c 5848 893d 8bde a43d 8d5d 343d
00000140: ae95 c33c d4fe ab3c 2dfb 8fbd 185b eb3c
00000150: cbac f43c cdf1 3a3c cc18 a93d 5ef5 a13d
00000160: 1452 463d 52ef 9a3d 0de3 4ebb 3c20 a1ba
00000170: a896 66bc 24c3 3fbd 6c61 22bb 74e8 833d
00000180: 0e56 a23d 37ed e73c 8cd6 c0bc 29a9 f2bc
00000190: bd47 42bd 65de d0bc 830f b43a 6054 0abd
000001a0: 64d1 1dbd ffbf 603c 94ea a33c 8244 4b3d
000001b0: fa90 e53c 32ec 60bc ce67 603c ee41 933d
000001c0: 3a19 54bd 22a4 7ebc 5238 593d 1a9d 80bd
000001d0: e089 3c3d b34c 813d 4015 d4bb f3ee 853d
000001e0: f466 efbc d6e6 81bb fa03 24bd 90f0 aa3d
000001f0: e8da 88bc b4db 9c3a ed79 863d f27e f5bc
0.06089898 -0.056366373 -0.025694929 -0.025920866 0.07219286 -0.061794482 0.01673818 -0.05084699
0.01462683 -0.057990924 0.008008174 -0.05196137 0.007775378 -0.031925134 0.012832902 0.026273096
0.1266419 0.043898344 0.0678999 0.043198917 0.033014618 0.025777606 0.058224626 0.00079462456
-0.03920386 0.013508716 -0.024119003 0.012587647 0.05200526 0.0004542724 -0.029674653 0.083738394
0.033389267 0.045812167 0.0007081181 -0.031455997 -0.011071328 0.060611565 0.05589359 0.0010971738
0.041610032 -0.034161124 -0.023502741 -0.0015421954 0.06829132 0.06179927 -0.023666812 0.002615089
0.04890993 0.07941663 -0.050737623 -0.028010953 0.0029385625 -0.057840936 -0.026957408 0.054734085
0.08495298 0.07832403 0.06365933 0.020249926 0.053472493 -0.038236514 0.036824584 -0.0053772666
0.04153326 0.0010024768 -0.020028807 0.046215165 -0.014448594 0.06087643 0.053667236 0.06745033
0.045645192 0.06262151 -0.042975325 -0.021802347 0.028082559 0.067032516 0.08050259 0.04403453
0.023875084 0.020995535 -0.0703033 0.02872996 0.02986755 0.011410189 0.08256683 0.07908128
0.04841812 0.07565178 -0.0031568438 -0.0012292932 -0.014074005 -0.04681696 -0.0024777306 0.06440821
0.0792657 0.028311355 -0.023539804 -0.029621677 -0.047431696 -0.025496671 0.0013737533 -0.033771873
-0.03852977 0.01371765 0.020009317 0.04962588 0.028023232 -0.013728188 0.013696624 0.071903095
-0.05178187 -0.015542062 0.053032227 -0.06279965 0.046029925 0.06313457 -0.0064722598 0.065397166
-0.029223897 -0.0039642854 -0.040042855 0.08346665 -0.016705945 0.0011967332 0.06566224 -0.029967759

fc3.weight f4 [10, 128]
00000000: 6326 843c f6ec 803d 8cc0 80be 3153 9bbd
00000010: cce7 95be 4b70 d0bc 16f6 04be 6eab 023d
00000020: b442 17be d801 e23c cd28 ecbd 30ff 7c3c
00000030: fe45 863d e310 c03d ef48 28bc 25a7 71bd
00000040: 7e78 10bf 0351 0ebe 3e84 813d 47e5 063e
00000050: c985 5c3e 2503 38be 3406 563d 5854 383d
00000060: 9a32 88bd 4044 e93c f5fd 8b3d 0243 823d
00000070: 3adc 18be 1c26 c3bc 2294 223d f2c1 04be
00000080: 73c6 293d 7585 17bd a0a8 853d f5e0 123d
00000090: 4d9e 54bd 31cb 383e 0f9d 443e 5f11 21be
000000a0: 851e 49be 2b8e 14be a225 06bf db3d d0bb
000000b0: c5a6 30be 0412 70be 492a cd3b fcbe 91be
000000c0: 5bd6 2bbe 1f49 673e cf42 e0bc 42c9 e0bc
000000d0: 57b5 2a3e 2cf2 bdbc 6221 653d 57e2 4abe
000000e0: 363e 393e 51cc c93d 41a4 4fbe 9b9d 8dbe
000000f0: d1c5 58be 9ede 5e3d 6da8 2bbd 2d0a 60be
00000100: 76e1 05bb 05d4 b2bd 5d62 db3c 860c a6bd
00000110: 6685 35bd d5af aa3e 870f c23c 0b48 df3d
00000120: e7af 2f3e c119 213e 5fb1 dd3d a506 f33d
00000130: caed a23d 92ed 66bc 4db1 3c3e 7154 a3bd
00000140: 4f62 2cbd ae6d cb3d 4e44 b13c 81bc e4bd
00000150: 331c 0fbe a897 00be 7755 033e 27e8 d63d
00000160: d57b f6bd 027c f33c e7d1 18bd 1c3f 52be
00000170: 387c 06be 50f7 16bc 1581 a03e 3167 f4bd
00000180: a301 923d f84e d83c 549a 04be f076 72bd
00000190: 88c1 6ebd 7913 a13d 8f65 2fbb e29e 013d
000001a0: 1ccb b43d 5c4d 08be c079 173c ea43 23bd
000001b0: afff 1ebd 6b20 853d 9361 543d 36f9 073e
000001c0: eee7 993d 4428 ce3d f61e 403e 3c08 8b3c
000001d0: 2490 e93d 102f aabd 13c6 f7bc 9fc0 5dbc
000001e0: da6e 663d b4eb a8bd 7105 62bd 3a7e 5b3e
000001f0: 0e88 2c3d a5e6 91bd aa4d c83d 372b 7d3c
00000200: e9cc 143d f0f9 ac3d 3558 bc3d 78e5 c1bd
00000210: a722 b83d c1c7 79bd a11a 27bc 4248 88bd
00000220: a96c 1dbe 7ed8 28bd 1d45 4b3e 6032 87bb
00000230: 36bf 5a3c cb67 173e e608 94bd 1637 3f3c
00000240: d9df 8b3e 4b46 3b3e d4b4 883c 57b1 babe
00000250: e162 41bd 1a49 b13e 88f0 8bbe 200e 663e
00000260: 61bc 773e 6ff0 5fbc 4aba 4e3a 183d 1b3e
00000270: adaf 793e 7d93 fe3b 2e11 46bd 4902 d8bd
00000280: 8ab5 05be 16dd 393d acad 0c3e f4ff 90bd
00000290: e29e cb3b c3ee 713d 6261 193d 5b28 edbc
000002a0: 09c5 d83d defa 943d b470 133e 8b35 313e
000002b0: fe16 02be 3101 a83d f264 88be 5eaa 383c
000002c0: b82c 353e cd4c d73e c384 42be 01c6 95bc
000002d0: bbf7 803c 4741 bbbd 0216 e4bc 290e 7b3d
000002e0: 0156 c33d c967 05be 3f4b b2bd a84e f53d
000002f0: eb12 fabc 0f33 b0bd b57c 9d3d a614 0bbe
00000300: db67 1d3e 4178 a6bd ef7e 293e 8e19 c93c
00000310: 2c97 613e 1b23 133e 577b 89bd c953 2e3e
00000320: 015a 90be ee6d 153e 3cdb 743e efba fe3b
00000330: bc07 b83c ca99 b6bc 13c9 933e 9f42 aebe
00000340: 35d5 abbc 2553 833e 1aa3 d13c ff03 d53c
00000350: 90cc 42bd 0925 cabd 88ea cfbe c13d e03d
00000360: d701 4a3e be5b a9bd 4720 853c 460e a23d
00000370: 04e6 a43c 5aad b4bd 0762 0e3d 2f9d 99bd
00000380: ea12 093e 52e7 7a3e 8293 883b 8736 d6bd
00000390: 65e1 34be 5c44 adbd de95 66be 4087 653c
000003a0: 8181 183e 3493 a0bd 326e 583d a0c8 0b3d
000003b0: db11 3c3d be1c 293c b585 a3bd 4cfa dfbb
000003c0: 3673 513c 4fc6 cd3d 0974 f53d 1a99 a53d
000003d0: 9a0c ffbd 36fd 6abd 5484 0c3d fc18 f83b
000003e0: 253e 94bd aba6 2d3d d47d 063d 25a6 90bc
000003f0: eb9a a6bd ac59 103d 0e90 83be 65d9 9f3c
0.016131585 0.06295197 -0.25146902 -0.07584227 -0.2927841 -0.02544417 -0.129845 0.03190177
-0.14771539 0.02758877 -0.1153122 0.015441701 0.06556319 0.09378221 -0.010271295 -0.058997292
-0.56433856 -0.13898091 0.06324051 0.131734 0.2153541 -0.1796995 0.05225201 0.04500231
-0.066502765 0.028474927 0.06835548 0.06360437 -0.1492776 -0.023821883 0.03969205 -0.1296461
0.04144902 -0.03699251 0.06526303 0.035859067 -0.05190878 0.18046261 0.19200538 -0.15729283
-0.19640549 -0.14507358 -0.52401173 -0.00635503 -0.17251118 -0.23444372 0.0062611443 -0.28466022
-0.16780989 0.22586487 -0.027375607 -0.027439717 0.16670738 -0.023186766 0.05594004 -0.19812904
0.18090138 0.098534234 -0.20277502 -0.27659306 -0.21169211 0.054411523 -0.04190867 -0.21878882
-0.0020428575 -0.08731846 0.026780302 -0.081078574 -0.04431667 0.33337274 0.023689045 0.10902413
0.17156945 0.1573248 0.108248465 0.11866502 0.07955511 -0.014094727 0.1842701 -0.0797509
-0.042085942 0.09933029 0.021639016 -0.11168767 -0.13975601 -0.12557852 0.12825571 0.10493498
-0.12035338 0.029722217 -0.037309553 -0.20531887 -0.13133323 -0.009214237 0.31348482 -0.11933745
0.071292184 0.026404843 -0.12949497 -0.05919546 -0.058290035 0.07865042 -0.0026763414 0.031645663
0.088278025 -0.1331076 0.009245336 -0.03985969 -0.038818058 0.06500324 0.051850867 0.1327866
0.0751494 0.10066274 0.1876181 0.0169717 0.11404446 -0.08309758 -0.030245816 -0.013534694
0.05625806 -0.08248082 -0.05518097 0.2143487 0.04212194 -0.0712407 0.09780438 0.015452198
0.03632823 0.08446109 0.09196512 -0.09467596 0.089909844 -0.060981516 -0.01019922 -0.06654407
-0.15373482 -0.041222088 0.19850583 -0.004125878 0.013351252 0.14785688 -0.0722826 0.011670848
0.2731922 0.18288533 0.016687788 -0.36463425 -0.04721344 0.34626085 -0.27331948 0.22466326
0.24192955 -0.013668164 0.00078860356 0.15160024 0.24383421 0.007769047 -0.048356228 -0.10547311
-0.13057533 0.04537686 0.13738126 -0.07080069 0.0062140087 0.05906559 0.037446387 -0.028949907
0.105844565 0.072744116 0.14398462 0.17305581 -0.12704083 0.08203352 -0.26639515 0.011271087
0.1769284 0.42050782 -0.18995957 -0.018282892 0.015743127 -0.0914331 -0.027842525 0.0612928
0.09537888 -0.13027872 -0.08705758 0.11977893 -0.030526599 -0.08603489 0.076898016 -0.13582096
0.15371649 -0.08128405 0.16552328 0.024548318 0.22030324 0.1436886 -0.06712978 0.17024149
-0.28193668 0.14592716 0.23911756 0.007773749 0.022464626 -0.02229013 0.28864345 -0.34035203
-0.020975688 0.25649372 0.025590468 0.026002882 -0.047558367 -0.09870345 -0.4060862 0.109492786
0.19727264 -0.082694516 0.016250743 0.07912879 0.020129211 -0.08822127 0.034761455 -0.075006835
0.13386121 0.24502304 0.004167975 -0.10459619 -0.17664106 -0.08460304 -0.22518107 0.014009297
0.14893152 -0.07840577 0.052839465 0.034126878 0.045915466 0.010321794 -0.07984487 -0.0068352576
0.012783816 0.1004759 0.119850226 0.080858424 -0.124535754 -0.057370387 0.034305885 0.0075713377
-0.07238416 0.042395275 0.032834843 -0.017657349 -0.08135017 0.035241768 -0.25695843 0.019512841

fc3.bias f4 [10]
00000000: ddf3 0bba e04c 77bd 2841 743d ee26 103d
00000010: aba2 55bd e411 29bd dc72 e73c 748f 43bd
00000020: 33f5 5abd d0ef ccbd
-0.00053387677 -0.060376048 0.05963245 0.035193376 -0.052157085 -0.041276827 0.028253011 -0.04774423
-0.053456496 -0.10006678
