models/trained_models/ConvNet2_31_12_lr_0001.pth (torch, 986503 bytes, 10 tensors)

conv1.weight f4 [128, 3, 3, 3]
0.046378896 -0.052006826 0.0044111907 0.106398 -0.0634992 0.13888143 -0.09453905 -0.07903814
0.13550635 0.08432214 0.042075768 0.15840735 0.14748089 0.03530106 -0.1227264 0.10355906
0.14931886 0.0171348 0.019239783 0.08634813 -0.073932804 -0.14476898 0.121746615 -0.14389645
-0.07407406 -0.07639639 -0.036855057 0.084033474 0.17758746 -0.15369767 0.093867555 -0.11816505
-0.06783965 -0.113241464 0.044135306 -0.16736852 -0.084766924 0.16080858 0.084220216 -0.021368757
-0.032995824 0.14605883 0.17090298 0.1743567 0.15777794 0.15170188 0.042519733 0.043817237
0.1409211 -0.19087915 -0.12990908 0.040914983 -0.07951654 -0.06977139 0.09038951 0.041682404
-0.012929134 0.05698956 0.0974669 0.07219015 -0.06878695 0.042152613 0.11791177 0.07106807
0.03238422 0.024918016 -0.068230085 -0.13995077 0.0023563907 0.12401916 -0.15603253 0.10515569
0.12146097 -0.12715907 -0.15646954 0.08538092 -0.025990607 -0.116006285 0.14470752 0.16806032
0.118168905 0.10374056 -0.14549953 0.094126016 -0.10159865 0.20694265 -0.18058375 0.12825254
-0.16231008 -0.05959837 0.17171197 0.0683841 -0.11195995 0.1027264 0.08197427 0.069126345
-0.020174798 0.15677372 -0.17334908 0.21097223 0.052204844 -0.18899888 -0.067778625 -0.118137844
-0.13143282 0.010001924 0.08430163 -0.13400733 0.16795482 -0.09076886 0.13101326 0.14887767
0.17303492 0.15359019 0.01810515 -0.0298976 -0.18237759 0.06094955 0.16172357 -0.18342958
0.09090252 0.16202007 0.1466795 0.03549999 0.017432705 0.044278204 -0.16707143 -0.06689365
0.18820171 -0.18742049 -0.041416377 0.18193261 0.13808142 0.111562684 0.03184651 0.017425535
-0.20820099 0.081191905 0.17158674 0.031593777 0.07178134 -0.08421952 -0.015734825 -0.010278869
0.15489154 0.072018325 0.13229527 0.065813415 -0.010545881 0.097283386 -0.096832514 0.020533098
-0.034574274 0.11994201 -0.14464128 0.22230512 -0.054216046 -0.062910944 0.0036840918 -0.15853238
-0.12685683 -0.001162485 -0.017604204 -0.027609449 0.17506461 0.10182666 0.0798147 0.049156982
0.078541175 -0.21964255 0.10581616 0.12753919 0.047077373 0.005614257 -0.16480829 -0.18571904
-0.034774076 -0.023491034 0.01034624 0.03439632 -0.14882463 -0.06574649 0.0028799777 0.06998453
0.045679387 -0.05469089 -0.11181475 0.03696811 0.16666344 0.21015581 -0.15140831 -0.14346227
0.1640053 0.1018517 0.12829928 0.20046623 -0.09068454 0.08956327 -0.034530632 0.027121145
-0.08450375 -0.13191174 -0.059733197 0.031504042 0.1406871 0.13863423 -0.1441893 -0.068550356
-0.09724866 -0.09472065 -0.014472531 -0.028621355 -0.053354748 0.111368865 -0.16229665 0.064406924
0.19940598 0.23926918 -0.0047504194 -0.09421768 -0.022612035 -0.21172021 0.20221618 -0.06960868
-0.17457622 0.03434324 0.2096905 -0.17590947 -0.049880747 0.06394413 -0.17876446 0.13877787
-0.083425425 0.11828447 0.042688217 0.25954178 -0.078137 -0.037364613 -0.10732355 -0.12616742
0.10467689 -0.13467686 -0.2312132 -0.25869912 0.5663672 -0.35311088 0.0922887 0.59522384
-0.56105393 0.20799772 0.35732305 -0.5156115 -0.19964507 0.60228306 -0.36299017 -0.09337007
00000000: ccf7 3d3d 1c05 55bd c08b 903b 32e7 d93d
00000010: de0b 82bd ef36 0e3e b09d c1bd c0de a1bd
00000020: 2dc2 0a3e 16b1 ac3d a457 2c3d 8935 223e
00000030: 3b05 173e d897 103d fb57 fbbd c616 d43d
00000040: 0be7 183e 485e 8c3c c09c 9d3c 4ad7 b03d
00000050: 156a 97bd 523e 14be 4a56 f93d 9759 13be
00000060: 24b4 97bd b675 9cbd 54f5 16bd be19 ac3d
00000070: 7dd9 353e ec62 1dbe a23d c03d 8500 f2bd
00000080: 84ef 8abd 24eb e7bd 39c7 343d a762 2bbe
00000090: 489a adbd 01ab 243e a67b ac3d 880d afbc
000000a0: a126 07bd 7290 153e 3101 2f3e 908a 323e
000000b0: 8a90 213e bd57 1b3e 2c29 2e3d b479 333d
000000c0: 9f4d 103e d375 43be e306 05be 7896 273d
000000d0: 91d9 a2bd 4de4 8ebd 231e b93d 2bbb 2a3d
000000e0: b8d4 53bc e36d 693d ba9c c73d 6ed8 933d
000000f0: 2ce0 8cbd 38a8 2c3d ba7b f13d 238c 913d
00000100: 51a5 043d de20 cc3c 37bc 8bbd 414f 0fbe
00000110: ad6d 1a3b c2fd fd3d fec6 1fbe de5b d73d
00000120: 87c0 f83d fd35 02be 8d39 20be 31dc ae3d
00000130: 41ea d4bc b494 edbd 352e 143e 0118 2c3e
00000140: 8a02 f23d ee75 d43d d4fd 14be 24c5 c03d
00000150: f412 d0bd c6e8 533e f2ea 38be a254 033e
00000160: 9d34 26be 6c1d 74bd 43d5 2f3e f70c 8c3d
00000170: 424b e5bd 3862 d23d 20e2 a73d 1d92 8d3d
00000180: 9e45 a5bc 4a89 203e 6c82 31be 1b09 583e
00000190: bfd4 553d ec88 41be 85cf 8abd 41f2 f1bd
000001a0: 5396 06be 1cdf 233c 55a6 ac3d 3839 09be
000001b0: 59fc 2b3e 06e5 b9bd 5728 063e 6373 183e
000001c0: 1130 313e bf46 1d3e 4051 943c d0eb f4bc
000001d0: 31c1 3abe 3ca6 793d dd9a 253e f7d4 3bbe
000001e0: 1a2b ba3d 97e8 253e 2733 163e 7068 113d
000001f0: 08cf 8e3c 105d 353d c614 2bbe 8aff 88bd
00000200: f3b7 403e 28eb 3fbe 38a4 29bd 8b4c 3a3e
00000210: 3765 0d3e fa7a e43d 7c71 023d ffbf 8e3c
00000220: a432 55be f147 a63d 6fb4 2f3e 7a68 013d
00000230: 1802 933d 497b acbd 52e6 80bc b468 28bc
00000240: e39b 1e3e 587e 933d 6978 073e 2fc9 863d
00000250: a2c8 2cbc 833c c73d 2050 c6bd 0735 a83c
00000260: c19d 0dbd 28a4 f53d d81c 14be f4a3 633e
00000270: a511 5ebd 74d7 80bd ce70 713b 5056 22be
00000280: c2e6 01be 865e 98ba b136 90bc 362d e2bc
00000290: 2344 333e 7f8a d03d e475 a33d d558 493d
000002a0: 32da a03d fae9 60be 25b6 d83d a299 023e
000002b0: 34d4 403d cdf7 b73b 81c3 28be 222d 3ebe
000002c0: 436f 0ebd 4570 c0bc 4783 293c 28e3 0c3d
000002d0: 7c65 18be 19a6 86bd 02be 3c3b 0d54 8f3d
000002e0: 4f1a 3b3d 8e03 60bd 22ff e4bd df6b 173d
000002f0: d2a9 2a3e 1633 573e c80a 1bbe c6e7 12be
00000300: 01f1 273e a097 d03d e360 033e 0547 4d3e
00000310: d1b8 b9bd f36c b73d fe6f 0dbd 2a2d de3c
00000320: 4d10 adbd df13 07be ccaa 74bd 620a 013d
00000330: 4710 103e 22f6 0d3e 5ca6 13be 2164 8cbd
00000340: 4e2a c7bd e6fc c1bd 321e 6dbc 5577 eabc
00000350: 828a 5abd 5c15 e43d 1831 26be c7e7 833d
00000360: 1531 4c3e fb02 753e 68a9 9bbb 33f5 c0bd
00000370: e03c b9bc 2fcd 58be c211 4f3e ff8e 8ebd
00000380: 1cc4 32be 7fab 0c3d 1bb9 563e 9d21 34be
00000390: c14f 4cbd 24f5 823d 080e 37be c91b 0e3e
000003a0: f3da aabd 213f f23d d7d9 2e3d a9e2 843e
000003b0: 4b06 a0bd a30b 19bd 73cc dbbd 0832 01be
000003c0: d660 d63d bbe8 09be 27c3 6cbe 3674 84be
000003d0: 71fd 103f f3ca b4be dc01 bd3d 9760 183f
000003e0: 3ba1 0fbf 5bfd 543e 0cf3 b63e 1eff 03bf
000003f0: c26f 4cbe 392f 1a3f d9d9 b9be cf38 bfbd

conv1.bias f4 [128]
0.05782996 -0.078643724 0.16491812 0.035153154 0.19090478 0.13380708 0.12886372 0.050676014
0.021434251 0.28326637 0.030438026 -0.13140804 0.097549714 0.033172138 -0.05967711 -0.061194558
-0.13705227 -0.14344265 0.11527703 -0.1562923 -0.16216041 -0.0032092596 -0.07332817 -0.00046523157
0.0053884876 -0.112406924 -0.049014527 -0.17578492 -0.19042696 0.21303467 0.013142638 0.013017997
0.018084534 -0.058421914 -0.12061975 0.02666302 -0.06115034 -0.079125226 0.08983002 0.087625764
-0.22816147 0.05446438 0.10280614 0.04569631 -0.066018075 0.053313002 0.12128595 0.077109486
0.053862173 0.1754972 -0.14753717 0.08812906 0.2016458 0.092943825 -0.15847404 -0.15959474
-0.13331027 0.06803452 -0.0029926265 0.12735361 -0.15631631 0.098836236 -0.08088919 -0.089562066
-0.07958924 0.030226916 -0.17960158 -0.057095174 -0.14354378 0.02897021 -0.17409821 -0.06855803
-0.1894434 -0.1734319 0.04267369 0.047101427 0.038002253 0.119425185 0.10882963 0.087481424
0.11561092 0.061568815 -0.07727271 -0.026020527 -0.19494246 0.12833816 -0.11985363 -0.13086946
-0.087389655 0.04585797 -0.063277006 0.09019125 0.1065218 -0.15153913 0.12947708 -0.05093381
-0.085987784 -0.0571109 0.04702141 -0.1468921 0.11939622 -0.07874065 0.21222277 0.15823027
-0.030020982 -0.024488106 0.005423402 -0.14724687 -0.15850915 0.10461732 -0.11246305 0.013368567
-0.1762025 -0.17483094 -0.023167746 0.10702888 0.10949893 0.14106084 -0.1359649 0.06413981
-0.20059295 -0.018248439 -0.03768205 0.03397448 0.146797 -0.00089448853 -0.099544264 -0.11364662
00000000: 1cdf 6c3d f60f a1bd 4ce0 283e c1fc 0f3d
00000010: 8b7c 433e b904 093e daf4 033e a791 4f3d
00000020: e296 af3c 4a08 913e 2b59 f93c d48f 06be
00000030: 25c8 c73d 82df 073d fc6f 74bd 25a7 7abd
00000040: 6e57 0cbe a1e2 12be 5d16 ec3d 170b 20be
00000050: 610d 26be 7152 52bb 142d 96bd 53ea f3b9
00000060: e991 b03b 9a35 e6bd 75c3 48bd f600 34be
00000070: 49ff 42be c325 5a3e 3854 573c 7049 553c
00000080: 0426 943c d14b 6fbd 7d07 f7bd 686c da3c
00000090: c778 7abd 680c a2bd cdf8 b73d 2375 b33d
000000a0: 29a3 69be 0b16 5f3d 078c d23d 0e2c 3b3d
000000b0: 7c34 87bd bc5e 5a3d c564 f83d 94eb 9d3d
000000c0: 959e 5c3d 8ab5 333e fc13 17be 027d b43d
000000d0: 3d7c 4e3e 5559 be3d 0547 22be ce6c 23be
000000e0: 7d82 08be af55 8b3d f11f 44bb fc68 023e
000000f0: 6211 20be a76a ca3d 3ba9 a5bd 516c b7bd
00000100: afff a2bd 709e f73c 7ae9 37be a1dc 69bd
00000110: 24fd 12be ef52 ed3c cd46 32be 2768 8cbd
00000120: 73fd 41be 2298 31be 9bca 2e3d 6ded 403d
00000130: 40a8 1b3d 3195 f43d 12e2 de3d 7629 b33d
00000140: 6bc5 ec3d 952f 7c3d 2841 9ebd 0029 d5bc
00000150: ff9e 47be 146b 033e d275 f5bd a502 06be
00000160: 59f9 b2bd 91d5 3b3d 6097 81bd 31b6 b83d
00000170: 1a28 da3d 132d 1bbe a495 043e f99f 50bd
00000180: 5d1a b0bd 1eed 69bd 8699 403d e26a 16be
00000190: 0186 f43d c742 a1bd ed50 593e 1e07 223e
000001a0: 90ee f5bc 489b c8bc cbb6 b13b e2c7 16be
000001b0: 3950 22be 9b41 d63d 0753 e6bd d607 5b3c
000001c0: 6e6e 34be e206 33be 49ca bdbc f531 db3d
000001d0: fa40 e03d 4172 103e 623a 0bbe bc5b 833d
000001e0: 3d68 4dbe c07d 95bc 7e58 1abd d328 0b3d
000001f0: f451 163e 1c7c 6aba dddd cbbd 8fbf e8bd

conv2.weight f4 [56, 128, 3, 3]
-0.011711249 -0.0075778943 -0.0051550344 -0.013895749 -0.0064372364 0.022623157 0.027001338 0.005645564
-0.003177289 0.0052339183 0.012462558 -0.01020842 -0.01191867 0.002145065 -0.017132245 0.000894662
-0.010216456 0.01857311 -0.0024407445 0.009757696 -0.025849333 -0.014716384 -0.024344154 0.0031712446
-0.00801469 0.019326199 -0.0025042545 0.020762704 0.01683349 0.018026292 0.015779484 -0.021628428
-0.009855852 0.0348664 -0.0070570633 0.026484728 0.005382085 -0.0050032176 0.0136841815 0.017648773
-0.01427938 0.006390879 0.021182576 0.015389906 0.022482688 -0.013617477 -0.029733822 0.0047827037
-0.026840126 0.012789554 0.02295803 -0.002579629 0.00307824 0.00041176885 0.011372433 -0.008640763
0.026054896 0.00023002842 -0.014059432 -0.019481245 0.013937402 -0.007297216 -0.0060304427 0.024951478
-0.027614279 0.008778347 0.032699447 -0.02336755 0.022516627 0.0120962635 -0.01949676 0.04459938
-0.0087776 -0.040159483 -0.02152162 0.026449515 -0.044444527 0.0021358791 0.02755859 -0.008165186
-0.0036504914 -0.11015467 0.07673672 0.03003528 -0.14955188 0.090265825 -0.016408877 -0.11932543
0.12768547 -0.0015567351 0.032691058 -0.025683014 0.0009307106 0.0040897806 -0.039570883 -0.0106657185
0.038159177 -0.020867806 -0.029798169 0.044549804 -0.05309211 0.011967768 0.08451947 -0.060798705
0.0026507066 0.096370645 -0.05526808 -0.016469268 -0.009969007 -0.010540035 0.001302436 -0.029464506
0.020449499 0.016971039 -0.014273455 0.028165674 -0.0044820723 0.026446294 -0.024358483 -0.008430287
0.023610083 -0.024441637 -0.016805002 -0.003686578 0.040356062 0.0038839658 0.022342147 -0.01722243
-0.024834126 0.019163718 0.0029175002 0.022452008 0.014303455 -0.015757322 -0.023597948 0.008078573
0.022342423 -0.007256517 0.023610836 0.008222843 0.026539883 -0.011289285 0.022548867 0.016902542
0.0005639661 -0.0147969015 0.026560279 0.004891759 -0.011487527 0.017571403 0.0059351306 -0.026911858
-0.013358412 0.04205466 -0.017014986 0.024578266 0.039812338 0.013676422 0.013523432 0.02213813
-0.028967394 -0.030332305 -0.0048363265 0.034271203 0.0067144246 -0.006102467 0.030146841 -0.013269529
-0.031118855 0.017639846 0.027616573 0.08346592 -0.010723335 -0.012044795 0.07353469 -0.053387575
-0.038322292 0.10080956 -0.04842955 -0.051191095 0.05653765 0.0049119275 -0.015755022 0.037557192
-0.019232817 -0.033114716 0.01429271 -0.026092868 -0.03055527 -0.03410421 0.016348274 -0.016471043
-0.0024899172 -0.010647534 0.01619957 -0.00043715545 0.007800764 0.008941864 -0.017716 -0.0030047074
0.017632222 -0.0060634753 -0.004808051 0.0146697685 0.0012237022 -0.0020771527 0.01352007 -0.041491434
0.042068224 -0.007499491 -0.040566485 0.076008946 0.0020132754 -0.035457578 0.031347103 0.030018218
0.02740875 -0.009762626 -0.012774499 -0.02001179 -0.023397075 0.015939603 -0.009460857 -0.011430822
-0.013452537 0.015610414 -0.024756942 -0.008532681 -0.0036428086 -0.022957912 0.0057917633 0.0002446079
0.027665662 0.01821049 0.005271403 -0.027508307 0.017494766 -0.010330014 0.020724064 -0.023587564
0.012311326 0.0040384363 0.0155051965 0.018381465 0.0257613 -0.003980549 0.0142254215 0.00080629066
0.015005549 0.024948945 0.024991522 0.004650051 0.012487618 0.011422256 0.018922532 -0.023058843
00000000: 8ae0 3fbc fc4f f8bb 90eb a8bb ffaa 63bc
00000010: 74ef d2bb 3354 b93c e931 dd3c 6cfe b83b
00000020: 103a 50bb 4a81 ab3b c22f 4c3c 3841 27bc
00000030: 8646 43bc 3894 0c3b ec58 8cbc c087 6a3a
00000040: ec62 27bc a326 983c e6f4 1fbb bede 1f3c
00000050: fbc1 d3bc fd1c 71bc 646d c7bc a8d4 4f3b
00000060: 0c50 03bc fa51 9e3c 6b1e 24bb 8c16 aa3c
00000070: 63e6 893c e0ab 933c fa43 813c 1a2e b1bc
00000080: 717a 21bc 12d0 0e3d f03e e7bb 80f6 d83c
00000090: 345c b03b 08f2 a3bb 9e33 603c 2994 903c
000000a0: 10f4 69bc 946a d13b 1587 ad3c f225 7c3c
000000b0: 9d2d b83c d71b 5fbc 5894 f3bc 3ab8 9c3b
000000c0: d3df dbbc 478b 513c 7b12 bc3c fe0e 29bb
000000d0: 4cbc 493b aee2 d739 7153 3a3c fd91 0dbc
000000e0: 1471 d53c c933 7139 8859 66bc 2297 9fbc
000000f0: b359 643c 7c1d efbb 059b c5bb 0b67 cc3c
00000100: 5737 e2bc 0ed3 0f3c dbef 053d 4e6d bfbc
00000110: ca74 b83c 682f 463c abb7 9fbc d7ad 363d
00000120: eccf 0fbc 457e 24bd 1c4e b0bc a7ac d83c
00000130: 770b 36bd 1bfa 0b3b 8dc2 e13c 46c7 05bc
00000140: 153d 6fbb c698 e1bd 2428 9d3d 8c0c f63c
00000150: 2124 19be 4add b83d e96b 86bc e460 f4bd
00000160: fbbf 023e 5d0b ccba 0fe7 053d 2f65 d2bc
00000170: eefa 733a 9103 863b 1415 22bd 44bf 2ebc
00000180: cc4c 1c3d f6f2 aabc 4a1b f4bc db79 363d
00000190: 1d77 59bd 7514 443c 8b18 ad3d 1008 79bd
000001a0: 7ab7 2d3b f95d c53d c860 62bd 8fea 86bc
000001b0: 0c55 23bc 1cb0 2cbc 80b6 aa3a 8c5f f1bc
000001c0: b585 a73c d906 8b3c 36db 69bc b3bb e63c
000001d0: 59de 92bb e6a5 d83c 718b c7bc 301f 0abc
000001e0: ef69 c13c d439 c8bc a5aa 89bc 849a 71bb
000001f0: 664c 253d 228a 7e3b e106 b73c 0e16 8dbc
00000200: f070 cbbc 3bfd 9c3c 8833 3f3b 46ed b73c
00000210: 0a59 6a3c 8015 81bc 7c50 c1bc fe5b 043c
00000220: 7507 b73c 14c8 edbb 836b c13c 1ab9 063c
00000230: 2b6a d93c b1f6 38bc 67b8 b83c 3377 8a3c
00000240: 20d7 133a b46e 72bc f194 d93c 0c4b a03b
00000250: 2e36 3cbc e7f1 8f3c 7c7b c23b 4276 dcbc
00000260: 3edd 5abc 8241 2c3d 0363 8bbc 5c58 c93c
00000270: 4312 233d 1213 603c 6391 5d3c 065b b53c
00000280: 074d edbc 747b f8bc 0c7a 9ebb f65f 0c3d
00000290: ad04 dc3b 34f7 c7bb 82f6 f63c 7068 59bc
000002a0: f8ec febc 7081 903c 273c e23c 2ef0 aa3d
000002b0: edb0 2fbc 8857 45bc 5b99 963d eeac 5abd
000002c0: d6f7 1cbd 3e75 ce3d 105e 46bd c1ad 51bd
000002d0: 0694 673d 3cf4 a03b ad10 81bc 92d5 193d
000002e0: 248e 9dbc 4ca3 07bd f92b 6a3c b6c0 d5bc
000002f0: 0c4f fabc dbb0 0bbd d1ec 853c 48ee 86bc
00000300: e12d 23bb ff72 2ebc f6b4 843c 0332 e5b9
00000310: 8d9d ff3b e580 123c 2521 91bc a0ea 44bb
00000320: 7371 903c 1eb0 c6bb db8c 9dbb 7859 703c
00000330: a264 a03a d720 08bb 4983 5d3c ecf2 29bd
00000340: bb4f 2c3d 4abe f5bb 0b29 26bd 94aa 9b3d
00000350: 28f1 033b f73b 11bd d265 003d c4e8 f53c
00000360: 5188 e03c 6cf3 1fbc 224c 51bc c4ef a3bc
00000370: 39ab bfbc c593 823c b601 1bbc 5848 3bbc
00000380: 0868 5cbc d2c2 7f3c 12cf cabc a8cc 0bbc
00000390: 30bc 6ebb 3b12 bcbc d5c8 bd3b b73e 8039
000003a0: 19a3 e23c 2a2e 953c bcbb ac3b 1a59 e1bc
000003b0: 2f51 8f3c 383f 29bc 83c5 a93c b53a c1bc
000003c0: 72b5 493c dc54 843b 8209 7e3c ba94 963c
000003d0: 5d09 d33c 446f 82bb be11 693c 405d 533a
000003e0: d6d9 753c bb61 cc3c 05bb cc3c 745f 983b
000003f0: de98 4c3c 6a24 3b3c 6d03 9b3c e6e5 bcbc

conv2.bias f4 [56]
0.0129952235 0.019037064 -0.024462681 -0.006605635 0.017928153 -0.017881297 0.019873306 0.015645571
-0.005641464 -0.016045148 -0.01904451 -0.0031218114 -0.027434092 -0.020478772 0.018631563 0.010556811
-0.029273797 0.038387217 0.006936182 0.0006237179 0.0009035021 -0.003013122 0.026548397 0.020374505
0.010659848 0.021104703 -0.003949845 0.028243713 0.0031049084 -0.008031198 0.016253036 -0.010773482
-0.007707485 -0.018100064 -0.01706886 -0.015069937 -0.018227592 -0.009511055 -0.019781912 0.008545197
0.0031977652 0.015328651 -0.008524589 -0.012745785 -0.00081850967 -0.022705236 -0.0038275158 -0.029131867
-0.0022906573 -0.022684649 -0.023176644 -0.0075771697 -0.025221013 -0.003025913 0.0085834 0.023031391
00000000: ebe9 543c 9ef3 9b3c f665 c8bc 1574 d8bb
00000010: 10de 923c cc7b 92bc 58cd a23c 242b 803c
00000020: 08dc b8bb 1d71 83bc 3b03 9cbc 4e97 4cbb
00000030: 76bd e0bc 19c3 a7bc 38a1 983c 79f6 2c3c
00000040: 9acf efbc ea3b 1d3d e948 e33b 0081 233a
00000050: 00d9 6c3a cc77 45bb 067c d93c 6fe8 a63c
00000060: a5a6 2e3c c5e3 ac3c b46d 81bb 5c5f e73c
00000070: b87b 4b3b 4995 03bc 1625 853c 4283 30bc
00000080: 128f fcbb 9646 94bc fed3 8bbc e6e7 76bc
00000090: 0852 95bc 42d4 1bbc ad0d a2bc 2701 0c3c
000000a0: 9991 513b 0625 7b3c b8aa 0bbc b2d3 50bc
000000b0: 4191 56ba 5500 babc 0fd7 7abb f4a5 eebc
000000c0: da1e 16bb 28d5 b9bc f2dc bdbc e849 f8bb
000000d0: 4c9c cebc 654e 46bb 64a1 0c3c 54ac bc3c

fc1.weight f4 [256, 560]
-0.04144902 0.026133597 -0.05379152 -0.01046791 -0.0041628825 0.0121107455 0.002205622 -0.01997897
-0.04662311 -0.03467305 -0.03518448 -0.017887628 0.0022243038 -0.010580443 0.033962972 -0.0295549
-0.012270577 0.013740484 -0.024645794 0.037024207 -0.041579526 0.022011481 0.007125102 -0.015382571
-0.027294096 -0.0034952834 0.009232599 -0.031040665 -0.027254727 0.0045250505 -0.046643563 -0.004438831
-0.04273721 -0.07803675 -0.025660597 0.025392838 -0.009107272 0.007388999 -0.05271362 -0.13416247
-0.010030741 -0.05475257 0.06600055 0.04779995 -0.015413759 0.06815795 0.10484286 0.054148663
0.03125654 0.059415553 0.01279687 0.0341985 -0.029898586 0.0020000953 0.03809542 0.009592578
0.011927747 0.03676555 0.012721721 0.0025022328 -0.012184503 -0.029264515 -0.027663264 0.034209855
-0.032906145 0.017554238 0.018753689 -0.0031896383 0.02460996 -0.0146075245 -0.0405087 -0.042053975
0.012416903 -0.020162966 -0.01954413 0.032830346 0.047905795 0.014637583 0.03217475 0.042519
-0.01892476 -0.041515533 0.04264363 0.024761023 -0.036196116 -0.014678111 -0.0330138 -0.040615093
0.03222822 0.022618916 -0.037879035 0.030514695 -0.019469198 0.022941805 -0.022716558 0.025058337
0.026546746 -0.004675843 -0.03087116 -0.01670773 -0.019237163 0.0012512816 -0.0094846105 0.059145678
0.03303228 0.059281286 0.054119598 -0.00038696875 0.024522688 0.068214014 -0.05356707 0.0011924751
-0.023151143 0.012999097 0.035981826 0.010048225 -0.025105882 0.031806253 -0.052177962 -0.03878953
0.009088753 -0.02909437 -0.006686706 0.03240415 0.030763052 -0.008189805 -0.032391723 0.020334154
0.017694484 0.02195685 0.029922724 0.03449755 -0.01375108 0.005166562 0.01617199 -0.013789068
0.008915372 0.025390176 -0.02739574 -0.0022381335 0.024124855 -0.030126866 0.020275757 0.039140675
-0.003376012 0.009564843 0.05750209 -0.0022843294 0.026466126 0.0038705599 -0.025874486 -0.013935604
0.025774147 0.042304713 0.008124103 0.020656066 -0.010760168 -0.004896335 0.025366029 -0.023261195
-0.028318282 0.018832412 0.018371787 2.2426248e-06 0.009700131 0.032203823 -0.040730767 0.030836046
-0.024691595 0.02559916 -0.029683657 -0.043931093 0.077285826 0.033460207 0.036957074 0.069356434
0.0044879783 0.05046041 0.035059836 0.016873965 -0.02909458 -0.0019005393 0.072281756 0.0010744778
0.015688803 0.08004162 0.06293989 0.006199436 0.008524272 0.03294082 -0.01097285 0.028963372
-0.0048985817 0.040720165 0.027650274 -0.008582413 0.03873408 -0.030490568 -0.013960799 -0.038163334
-0.033208527 -0.037007645 0.035990022 -0.005017236 -0.04112323 0.023268372 0.028411865 -0.031352904
-0.032187726 -0.0020745136 0.008673557 -0.048120573 0.030282676 0.01204958 0.048845477 0.091561064
0.08857707 0.02207954 0.051349487 0.06604999 0.03781861 -0.049335875 -0.011253549 0.047703993
-0.013733152 0.016673885 0.046428964 0.032968964 0.03237466 0.0255533 0.020192383 -0.02287121
0.08444354 0.030897064 0.032809373 0.08821082 0.059584063 0.0039386493 0.05004082 0.065247364
-0.03729743 0.00032436708 0.026701171 0.026272709 0.008109781 0.010256635 -0.0031800377 -0.021842683
-0.012821001 0.050625887 -0.00445712 0.006358452 -0.024399258 0.028527573 -0.0403559 -0.040642045
00000000: 73c6 29bd 2016 d63c 7f54 5cbd 9981 2bbc
00000010: ca68 88bb 266c 463c 328c 103b f0aa a3bc
00000020: e0f7 3ebd 5405 0ebd 9a1d 10bd 1389 92bc
00000030: a0c5 113b 9859 2dbc c21c 0b3d 1e1d f2bc
00000040: 880a 49bc c41f 613c fae5 c9bc b2a6 173d
00000050: 4b4f 2abd 6c51 b43c b079 e93b 2e07 7cbc
00000060: de97 dfbc 2011 65bb 5444 173c fe48 febc
00000070: 4e45 dfbc e046 943b 520d 3fbd 9d73 91bb
00000080: 360d 2fbd bbd1 9fbd 2c36 d2bc a404 d03c
00000090: ab36 15bc 6b1f f23b 3dea 57bd e361 09be
000000a0: fa57 24bc 3b44 60bd 4c2b 873d e1c9 433d
000000b0: fe89 7cbc 6596 8b3d dab7 d63d fdca 5d3d
000000c0: dc06 003d b95d 733d f7a9 513c ba13 0c3d
000000d0: e1ed f4bc 0814 033b f109 1c3d 302a 1d3c
000000e0: 996c 433c 7997 163d c46e 503c 80fc 233b
000000f0: 82a1 47bc 23bc efbc 129e e2bc a21f 0c3d
00000100: 98c8 06bd e8cd 8f3c 56a1 993c 4009 51bb
00000110: d49a c93c 6654 6fbc 73ec 25bd ca40 2cbd
00000120: 4470 4b3c ce2c a5bc 031b a0bc 1d79 063d
00000130: de38 443d 79d2 6f3c acc9 033d 6728 2e3d
00000140: 1908 9bbc 310c 2abd 16ab 2e3d a1d7 ca3c
00000150: 6142 14bd 767c 70bc 7a39 07bd 035c 26bd
00000160: bd01 043d 4e4b b93c 0c27 1bbd f4f9 f93c
00000170: de7d 9fbc 74f0 bb3c 1318 babc 2447 cd3c
00000180: 9078 d93c d037 99bb 84e5 fcbc a6de 88bc
00000190: 4197 9dbc 0b02 a43a 5765 1bbc bd42 723d
000001a0: db4c 073d efd0 723d 83ac 5d3d 11e2 cab9
000001b0: cee3 c83c cab3 8b3d 2569 5bbd d34c 9c3a
000001c0: 77a7 bdbc 2afa 543c ae61 133d 4fa1 243c
000001d0: daaa cdbc 4647 023d 8fb8 55bd c5e1 1ebd
000001e0: fee8 143c 5157 eebc 281c dbbb 37ba 043d
000001f0: cc02 fc3c 882e 06bc 2fad 04bd d093 a63c
00000200: 06f4 903c dade b33c 8020 f53c 4e4d 0d3d
00000210: 364c 61bc 434c a93b 1f7b 843c 8beb 61bc
00000220: c811 123c 0fff cf3c 086d e0bc a6ad 12bb
00000230: 7da1 c53c 9ecc f6bc 5819 a63c f951 203d
00000240: 1540 5dbb dcb5 1c3c 5087 6b3d b0b4 15bb
00000250: 7dcf d83c 38a9 7d3b bbf6 d3bc 2952 64bc
00000260: 4e24 d33c b547 2d3d f51a 053c e936 a93c
00000270: 6a4b 30bc 6f71 a0bb 6bcc cf3c 438e bebc
00000280: befb e7bc 6e46 9a3c 6e80 963c 0080 1636
00000290: 4ced 1e3c 28e8 033d 4ed5 26bd e09b fc3c
000002a0: 0746 cabc 54b5 d13c 242b f3bc 17f1 33bd
000002b0: 0848 9e3d 920d 093d 4d60 173d bf0a 8e3d
000002c0: e40f 933b 93af 4e3d e79a 0f3d 453b 8a3c
000002d0: c257 eebc 841b f9ba 7508 943d 7ed5 8c3a
000002e0: ce85 803c dcec a33d a1e6 803d a324 cb3b
000002f0: 63a9 0b3c f4ec 063d 78c7 33bc 9844 ed3c
00000300: 4884 a0bb 30ca 263d d482 e23c 409d 0cbc
00000310: a0a7 1e3d 5bc7 f9bc d6bb 64bc 2851 1cbd
00000320: aa05 08bd 5495 17bd 466a 133d a067 a4bb
00000330: d570 28bd 509d be3c 00c0 e83c e76b 00bd
00000340: 47d7 03bd 90f4 07bb 891b 0e3c 141a 45bd
00000350: 6013 f83c 9a6b 453c 3212 483d 5e84 bb3d
00000360: e567 b53d 27e0 b43c d753 523d 3845 873d
00000370: b0e7 1a3d 6a14 4abd ce60 38bc 4365 433d
00000380: 0401 61bc ac97 883c 4c2c 3e3d 770a 073d
00000390: 4b9b 043d 2755 d13c 7f6a a53c 675c bbbc
000003a0: bcf0 ac3d d71b fd3c 1f63 063d e0a7 b43d
000003b0: 6b0e 743d c90f 813b 9af7 4c3d 69a0 853d
000003c0: 31c5 18bd d00f aa39 6abc da3c dd39 d73c
000003d0: e3de 043c 720b 283c 2e68 50bb 6def b2bc
000003e0: 2d0f 52bc 175d 4f3d 080d 92bb 905a d03b
000003f0: f4e0 c7bc a8b2 e93c 3a4c 25bd 4678 26bd

fc1.bias f4 [256]
-0.011755588 -0.045487665 0.0029750648 0.023779765 -0.034107868 0.034158345 -0.0352502 0.008921097
-0.012774271 -0.018086547 -0.018841928 -0.019164378 -0.023576459 -0.030424133 -0.014635913 -0.02170067
0.023413854 -0.03924492 0.011569046 0.0018311243 -0.03041482 0.030179868 0.031279765 0.039132167
-0.004247038 0.020585356 0.040785544 0.0025218523 -0.013427332 0.008271494 0.013830147 -0.011191185
0.034576703 0.023412693 -0.009738 0.01873881 0.0023705969 -0.0006350501 0.051669303 -0.0074734893
-0.033189498 0.0077573694 0.04563866 0.00211237 0.010439955 0.037599433 -0.027304025 0.028525442
0.019404177 0.039028004 -0.004698105 0.02420596 -0.04151471 -0.03736631 -0.041476104 -0.015181205
-0.012398669 -0.027917068 -0.0029673018 -0.00029288884 -0.034471396 -0.03355949 -0.001594432 -0.022259396
0.028723514 0.010088861 -0.018748887 -0.020182967 0.023792595 0.045554344 0.015175944 0.021654056
0.0033818437 0.00062624365 0.021031287 -0.011616529 0.019896425 -0.040708773 0.024322921 -0.029222997
0.01454122 -0.042956993 0.013880318 0.024024514 -0.019998016 -0.031378806 -0.026047453 0.016050985
-0.026553359 0.016696136 0.041924488 -0.018758053 -0.03780696 -0.03776403 0.028396241 -0.014780588
0.016711937 0.0332925 -0.011909582 0.028676894 -0.022128927 -0.032121688 -0.008922336 0.041408777
0.032258186 0.006951987 0.02369523 0.03715968 -0.034517612 0.019084282 -0.020738924 -0.006928336
0.0059845867 -0.0030191306 -0.029490145 0.03246242 -0.017861573 0.022064611 0.010533091 -0.002293737
-0.040409397 0.04204948 -0.0047972486 0.009492756 0.01078238 0.019169563 -0.00574021 0.03776811
-0.042633485 -0.007146184 -0.008426758 0.010507838 -0.03807395 0.041659687 0.017283669 0.00033169083
0.021855555 0.014917505 -0.034051098 -0.00017094018 -0.018940983 -0.018401027 -0.020888636 0.010800325
-0.0130798975 0.018048683 0.03717927 0.006844851 -0.035129625 -0.010589505 0.026439494 0.015021406
0.02603724 -0.031396646 -0.010991797 -0.008720884 0.019062566 -0.0044620954 0.023467127 -0.031079007
-0.0136889275 0.056560744 0.03802521 0.030331543 0.02301411 0.004565697 0.012165832 0.023753578
-0.03653402 0.021196736 0.052675955 0.02620471 0.003810611 0.024988685 0.013320114 0.0071906657
0.019440655 0.015425726 0.030929185 -0.011852021 0.018792102 0.05609483 0.0055114646 -0.030134024
0.0070594386 0.00968498 0.026977606 -0.02737794 -0.025838064 0.044127077 0.036528494 -0.037414983
0.0386721 -0.009719025 -0.03584652 0.038264833 -0.016450394 0.023057437 -0.0131402705 -0.015647203
-0.015817864 0.03784528 0.015490923 0.01694023 0.022518348 0.03133667 -0.0046235365 -0.0050025308
0.053106543 0.0579264 -0.022311319 -0.010271488 -0.015227086 0.0003266317 -0.014816727 -0.041113682
0.01614537 -0.00818976 -0.007673304 -0.0046511344 -0.0009866864 0.030108804 0.016320601 -0.019839995
-0.025192717 -0.02989587 -0.014753486 0.0036734901 -0.0055641304 -0.026833497 -0.018527016 -0.02480648
-0.011553654 -0.0075573423 -0.0066056033 0.027990796 0.055465925 -0.013952012 0.009302632 -0.03169659
-0.03351589 0.02731131 -0.037677024 0.039250072 -0.024171848 -0.02311722 0.017829524 -0.023210065
-0.019514306 -0.017252432 -0.025985798 0.017570145 -0.03697789 0.036196746 0.0045060324 -0.032401122
00000000: 839a 40bc 4651 3abd 4ef9 423b c8cd c23c
00000010: b1b4 0bbd 9fe9 0b3d 8462 10bd cb29 123c
00000020: 2d4b 51bc 3d2a 94bc 635a 9abc 9dfe 9cbc
00000030: 6b23 c1bc 083c f9bc 78cb 6fbc 9ac5 b1bc
00000040: 69ce bf3c 48bf 20bd 198c 3d3c 5602 f03a
00000050: 8028 f9bc c53b f73c 361f 003d 0d49 203d
00000060: bd2a 8bbb 9fa2 a83c be0e 273d a945 253b
00000070: 50fe 5bbc 2985 073c d797 623c 3b5b 37bc
00000080: 4da0 0d3d facb bf3c 228c 1fbc 2282 993c
00000090: 045c 1b3b 7e79 26ba 31a3 533d 2ce4 f4bb
000000a0: b6f1 07bd 8831 fe3b 9bef 3a3d b06f 0a3b
000000b0: 580c 2b3c dd01 1a3d b1ac dfbc 30ae e93c
000000c0: 82f5 9e3c d4db 1f3d 90f2 99bb 944b c63c
000000d0: 540b 2abd 6a0d 19bd d9e2 29bd 97ba 78bc
000000e0: c923 4bbc 56b2 e4bc 1077 42bb e08e 99b9
000000f0: e131 0dbd ad75 09bd 43fc d0ba 5659 b6bc
00000100: 934d eb3c c04b 253c 4497 99bc c056 a5bc
00000110: b0e8 c23c 3197 3a3d 86a4 783c d963 b13c
00000120: eca1 5d3b 802a 243a ce49 ac3c 4153 3ebc
00000130: d4fd a23c 3ebe 26bd dd40 c73c 1165 efbc
00000140: 4c3e 6e3c acf3 2fbd 466a 633c 0fcf c43c
00000150: e1d2 a3bc 1087 00bd 7861 d5bc 5b7d 833c
00000160: 6e86 d9bc 56c6 883c 03b9 2b3d 7daa 99bc
00000170: 79db 1abd 75ae 1abd 3c9f e83c 482a 72bc
00000180: 79e7 883c b75d 083d 6820 43bc ceeb ea3c
00000190: b947 b5bc 0892 03bd fd2e 12bc 409c 293d
000001a0: 2921 043d 7ecd e33b 801c c23c c034 183d
000001b0: 5762 0dbd a456 9c3c ade4 a9bc 1807 e3bb
000001c0: 5a1a c43b 9bdc 45bb 5195 f1bc 51f7 043d
000001d0: 6f52 92bc d8c0 b43c fc92 2c3c 8552 16bb
000001e0: 5384 25bd 133c 2c3d 3d32 9dbb 8187 1b3c
000001f0: 94a8 303c 7d09 9d3c 5f18 bcbb bcb2 1a3d
00000200: 73a0 2ebd 892a eabb 6310 0abc 1129 2c3c
00000210: 6ef3 1bbd 59a3 2a3d 7b96 8d3c cae6 ad39
00000220: 6c0a b33c 8d68 743c 2a79 0bbd 683e 33b9
00000230: 1f2a 9bbc c0bd 96bc a51e abbc d9f3 303c
00000240: 114d 56bc d5da 933c 4a49 183d c64a e03b
00000250: 15e4 0fbd 9a7f 2dbc a397 d83c 581c 763c
00000260: 0d4c d53c c599 00bd f016 34bc 0ae2 0ebc
00000270: 1929 9c3c c536 92bb 223e c03c 6799 febc
00000280: 8647 60bc 3dac 673d 53c0 1b3d db79 f83c
00000290: 1688 bc3c d89b 953b 3353 473c dd96 c23c
000002a0: b2a4 15bd c7a4 ad3c bec2 573d 43ab d63c
000002b0: 72bb 793b 12b5 cc3c 9c3c 5a3c ad9f eb3b
000002c0: 0242 9f3c 2fbc 7c3c 345f fd3c fb2e 42bc
000002d0: e5f1 993c b1c3 653d 8499 b43b a1db f6bc
000002e0: dd52 e73b c0ad 1e3c 2400 dd3c b447 e0bc
000002f0: 59aa d3bc 98be 343d e79e 153d 7440 19bd
00000300: a366 1e3d 8c3c 1fbc cdd3 12bd 96bb 1c3d
00000310: fac2 86bc f3e2 bc3c 4a4a 57bc 902e 80bc
00000320: 7794 81bc a703 1b3d a4cd 7d3c 3dc6 8a3c
00000330: 6678 b83c e15a 003d 0981 97bb 45ec a3bb
00000340: 3f86 593d 3c44 6d3d 3ac6 b6bc be49 28bc
00000350: 077b 79bc c43f ab39 dbc1 72bc d266 28bd
00000360: 4c43 843c 582e 06bc 5770 fbbb 8b68 98bb
00000370: b453 81ba bda6 f63c c8b2 853c 7c87 a2bc
00000380: f560 cebc 2fe8 f4bc 9bb8 71bc f0be 703b
00000390: 4f53 b6bb ecd1 dbbc f8c5 97bc f636 cbbc
000003a0: 8a4b 3dbc 95a3 f7bb d173 d8bb f44c e53c
000003b0: 3d30 633d fb96 64bc 116a 183c 49d4 01bd
000003c0: f547 09bd f8bb df3c 3953 1abd afc4 203d
000003d0: 0a04 c6bc 5360 bdbc 390f 923c 0923 bebc
000003e0: 77dc 9fbc f954 8dbc 2be0 d4bc 44ef 8f3c
000003f0: 2176 17bd 0a43 143d 57a7 933b 0ab7 04bd

fc2.weight f4 [128, 256]
0.0446097 -0.013977117 0.051438995 -0.04649525 -0.052893817 0.04365676 -0.034496624 -0.013912654
-0.03402203 0.06730655 0.048428334 0.0003616807 0.054412913 0.026641652 -0.010726886 0.002786249
0.040802915 0.03131049 -0.054515485 0.041437846 -0.059398346 -0.053146187 0.054456744 0.020728694
0.014986007 -0.027595855 0.005567797 -0.013968275 0.022966646 0.047938816 0.051471844 0.03907763
0.019745404 -0.0044514337 -0.029447986 0.013199913 0.014251075 -0.062611304 0.0020449841 0.046298515
0.0381549 -0.044212215 -0.03819226 -0.02051676 0.0016318858 0.027086958 0.0532271 0.051640965
0.04659474 0.00025966862 0.0034669042 -0.057290114 -0.008154567 0.057625156 0.06604246 0.07400802
-0.0489006 0.009890623 -0.063859105 0.030695548 -0.0018902346 -0.039627593 -0.037244324 0.017965183
-0.04317694 0.036772035 -0.028730175 0.024039447 -0.057301853 0.064498134 -0.056504987 -0.033624582
-0.030926272 0.033523023 -0.043043166 0.041443158 -0.0020326253 0.046647724 0.0078227315 0.032607008
-0.049021624 -0.010266383 0.011944997 -0.015238512 0.023731785 -0.040719204 -0.0035174943 0.037684575
0.033437736 -0.015151315 0.035096653 -0.030868286 -0.03204485 0.01933511 -0.020228008 0.024829436
-0.0565837 -0.062447753 -0.052041296 0.020662323 0.033665475 0.00096716685 -0.053389885 0.052238535
0.0391845 0.043225635 -0.017035142 -0.030763071 -0.019991674 0.0023642292 -0.05394027 -0.016108103
0.04650814 -0.04263981 -0.06279273 0.042180818 -0.03491178 -0.022928566 0.040122457 -0.04189101
-0.0085160285 0.04322515 -0.07339198 0.025383033 0.027586482 0.054648113 3.7774444e-06 -0.051438022
-0.012436122 0.023813557 -0.040869333 0.017917808 -0.059171498 0.021763619 0.070279084 -0.08436255
-0.006506659 -0.017751653 -0.03313684 0.027406957 0.01855187 0.009797412 -0.05198198 -0.05826773
-0.014210315 -0.014005328 0.04555171 0.0075327903 0.00640809 0.002884907 0.03202309 0.07319122
-0.04076859 -0.043143924 -0.023424454 0.015509127 0.0644029 -0.03253949 -0.013965433 0.018725105
0.03134448 0.0036455065 0.030011779 0.020175636 -0.010682622 0.019234853 0.02404267 -0.041678775
0.042124297 -0.053732924 -0.03857215 -0.027886663 -0.054875936 -0.0010114157 0.05416909 -0.05798922
-0.016827904 0.044034 0.045801986 -0.04273498 0.039419517 -0.03846338 -0.028530555 -0.048796337
-0.03723584 0.038906183 -0.03470956 0.011439691 -0.060720578 -0.022490028 -0.03496882 0.004390235
-0.000559726 -0.04923605 0.05129306 -4.724628e-05 -0.0472626 -0.016106812 -0.045835327 0.012160913
0.0039387923 0.08276628 0.001329042 0.06436701 -0.0010636579 0.051462088 0.033655934 0.028322235
-0.042460687 -0.009171603 0.06820411 0.010334104 -0.022480914 -0.006023067 -0.03833069 0.02366021
-0.03603382 -0.0723337 0.02429731 -0.064727776 0.039567463 0.056025464 -0.07502104 0.050717995
0.04547333 0.008504357 0.06753712 -0.044817887 0.009137917 0.020161392 -0.01586812 0.0184739
-0.059841186 0.0068967566 -0.0023013398 -0.07161438 0.008134327 -0.027936164 -0.056862935 -0.041939616
-0.018082127 -0.03082572 -0.031618066 0.0211984 0.020424128 0.052016333 -0.0105853295 0.05296023
0.021896757 -0.042809326 -0.03025826 -0.011337229 -0.041630235 0.013096698 -0.047014073 0.035003953
00000000: a9b8 363d 4700 65bc b2b1 523d ce71 3ebd
00000010: 30a7 58bd 6ed1 323d 554c 0dbd e6f1 63bc
00000020: af5a 0bbd 04d8 893d ca5c 463d f69f bd39
00000030: 13e0 5e3d 983f da3c d2bf 2fbc 8099 363b
00000040: f520 273d 6e3f 003d a14b 5fbd bbba 293d
00000050: ae4b 73bd d1af 59bd 090e 5f3d 39cf a93c
00000060: de87 753c b410 e2bc 1172 b63b 31db 64bc
00000070: 8c24 bc3c 7e5b 443d 24d4 523d dd0f 203d
00000080: 1dc1 a13c 55dd 91bb e73c f1bc 7344 583c
00000090: 577d 693c 5b3a 80bd 2405 063b 83a3 3d3d
000000a0: 5048 1c3d de17 35bd 7d6f 1cbd c412 a8bc
000000b0: 00e5 d53a 78e5 dd3c a904 5a3d 7a85 533d
000000c0: 20da 3e3d 2224 8839 0035 633b 0aa9 6abd
000000d0: bc9a 05bc 5b08 6c3d 4541 873d 8491 973d
000000e0: ff4b 48bd 480c 223c 90c8 82bd 3b75 fb3c
000000f0: c0c1 f7ba 8b50 22bd 818d 18bd b82b 933c
00000100: 4eda 30bd 469e 163d 8b5b ebbc 60ee c43c
00000110: 59b5 6abd 9917 843d c671 67bd eeb9 09bd
00000120: 1859 fdbc 704f 093d 084e 30bd 4dc0 293d
00000130: cb35 05bb af11 3f3d ea2a 003c ed8e 053d
00000140: e6ca 48bd 5534 28bc f3b4 433c f4aa 79bc
00000150: 2969 c23c 2ec9 26bd c385 66bb 245b 1a3d
00000160: 02f6 083d 393d 78bc 82c1 0f3d 7ddf fcbc
00000170: 7641 03bd aa64 9e3c 35b5 a5bc 1a67 cb3c
00000180: 4fc4 67bd 37c9 7fbd 4129 55bd 0844 a93c
00000190: cfe4 093d 7889 7d3a 5aaf 5abd 13f8 553d
000001a0: ed7f 203d 5d0d 313d 488d 8bbc d602 fcbc
000001b0: 94c5 a3bc 2ff1 1a3b 79f0 5cbd 24f5 83bc
000001c0: 527f 3e3d 15a7 2ebd 7a99 80bd cbc5 2c3d
000001d0: a8ff 0ebd b0d4 bbbc 7257 243d e895 2bbd
000001e0: d086 0bbc db0c 313d 894e 96bd 14f0 cf3c
000001f0: 0cfd e13c b3d6 5f3d 0080 7d36 adb0 52bd
00000200: e0c0 4bbc a614 c33c 9a66 27bd 5ec8 923c
00000210: d05d 72bd 9e49 b23c 7bee 8f3d 46c6 acbd
00000220: d035 d5bb ea6b 91bc 7fba 07bd 8e84 e03c
00000230: 17fa 973c 5385 203c 0feb 54bd 25aa 6ebd
00000240: 62d2 68bc 9a76 65bc 6e94 3a3d a0d5 f63b
00000250: f4fa d13b b510 3d3b a52a 033d 47e5 953d
00000260: f7fc 26bd afb7 30bd a4e4 bfbc fe19 7e3c
00000270: abe5 833d 2148 05bd 46cf 64bc 6465 993c
00000280: 1263 003d 73e9 6e3b 43db f53c 6047 a53c
00000290: 2a06 2fbc 6992 9d3c 22f5 c43c 5db7 2abd
000002a0: 878a 2c3d 0e17 5cbd d5fd 1dbd 9272 e4bc
000002b0: 97c5 60bd 7b91 84ba 68e0 5d3d 1b86 6dbd
000002c0: acda 89bc ff5c 343d dd9a 3b3d e00a 2fbd
000002d0: 5c76 213d c78b 1dbd e9b8 e9bc abde 47bd
000002e0: 9c84 18bd 175c 1f3d 9d2b 0ebd 8b6d 3b3c
000002f0: 24b6 78bd 023d b8bc 773b 0fbd f6db 8f3b
00000300: 93ba 12ba beab 49bd ac18 523d 4f2a 46b8
00000310: 6e96 41bd 6ff2 83bc d3bd 3bbd 913e 473c
00000320: fc10 813b 5e81 a93d 4033 ae3a dad2 833d
00000330: 706a 8bba e9c9 523d ceda 093d 0804 e83c
00000340: 42eb 2dbd 7e44 16bc 99ae 8b3d 6050 293c
00000350: e529 b8bc 265d c5bb a400 1dbd 0fd3 c13c
00000360: 3398 13bd b123 94bd 270b c73c ff8f 84bd
00000370: 7e11 223d f57a 653d a2a4 99bd acbd 4f3d
00000380: 3e42 3a3d dc55 0b3c e750 8a3d f692 37bd
00000390: 34b7 153c 8129 a53c dcfd 81bc 9456 973c
000003a0: 081c 75bd 30fe e13b 13d2 16bb 8faa 92bd
000003b0: d745 053c 62da e4bc 1ce9 68bd e0c8 2bbd
000003c0: f820 94bc 3886 fcbc f281 01bd 44a8 ad3c
000003d0: 8050 a73c 140f 553d 176e 2dbc d3ec 583d
000003e0: d460 b33c d558 2fbd 2ce0 f7bc c9bf 39bc
000003f0: 7784 2abd 8893 563c d491 40bd 4e60 0f3d

fc2.bias f4 [128]
0.05292503 0.047241583 -0.046150904 0.04111392 0.06725687 0.0331683 0.048646644 -0.045395646
-0.061656475 0.016620418 0.0007974563 0.012087041 0.055076327 0.01989064 0.05810026 0.065338664
-0.026345655 -0.048995722 -0.002466845 -0.018077513 -0.030026378 -0.0009873457 -0.045211155 0.040701397
0.034786634 -0.014090318 0.014967978 0.050826225 -0.0471043 0.028000971 0.058518242 -0.040946558
0.017980758 -0.012220764 0.051089935 -0.026655627 0.04716695 0.032553777 0.0024960276 -0.004402348
-0.009082349 0.06632756 0.047014005 -0.015927112 0.022558317 0.026581362 -0.01721969 0.022945724
-0.025073746 0.04125866 -0.057893895 0.05403802 -0.049731746 -0.024606748 -0.012199232 0.034487166
0.046730265 0.0022395225 0.027662542 -0.039642654 -0.013266543 -0.045346297 -0.0150647415 -0.061330017
-0.01614109 0.038022205 -0.00813142 -0.03943705 -0.046979733 0.018113624 -0.010286754 0.038833447
0.032753468 0.049413662 -0.03842564 0.016572366 0.01805355 0.039453015 -0.044328123 0.078716055
-0.045527652 -0.050296128 0.054446556 0.018868295 -0.008062073 -0.058499135 -0.048762575 0.032463726
0.028985435 0.02263103 -0.04893702 0.04358585 -0.04840464 0.053445444 -0.053573422 -0.049388975
0.037759285 0.06290156 0.05592217 0.02488562 0.024230422 -0.03200142 -0.04453596 0.04454728
0.025299132 -0.00041105997 -0.017322062 -0.019893557 0.053473633 -0.024994463 0.08048086 -0.046758737
-0.04928647 0.010917834 -0.041031264 -0.059002608 0.058248285 0.0039191926 0.05496136 0.03980827
0.060990598 -0.05193967 0.07222953 0.01947307 -0.027841534 0.04618252 -0.015105231 0.04948514
00000000: ebc7 583d 6480 413d bb08 3dbd 1267 283d
00000010: f8bd 893d 7cdb 073d b441 473d c9f0 39bd
00000020: 808b 7cbd 8b27 883c 630c 513a b908 463c
00000030: b797 613d b2f1 a23c 8afa 6d3d 47d0 853d
00000040: d8d2 d7bc bdaf 48bd cbaa 21bb 4b17 94bc
00000050: e1f9 f5bc d369 81ba 552f 39bd 82b6 263d
00000060: 6e7c 0e3d 14db 66bc 403c 753c 292f 503d
00000070: 70f0 40bd 4b62 e53c d3b0 6f3d 94b7 27bd
00000080: 624c 933c 9939 48bc ae43 513d e75c dabc
00000090: 2232 413d 1c57 053d 6594 233b 9241 90bb
000000a0: 22ce 14bc bed6 873d c291 403d 9379 82bc
000000b0: 38cc b83c 28c1 d93c 4f10 8dbc acf8 bb3c
000000c0: 7567 cdbc d7fe 283d 2622 6dbd f956 5d3d
000000d0: 84b3 4bbd 1794 c9bc 4adf 47bc 6a42 0d3d
000000e0: 3c68 3f3d f4c4 123b 8e9c e23c 5660 22bd
000000f0: ea5b 59bc 0abd 39bd 1bd2 76bc 2f35 7bbd
00000100: 523a 84bc 2cbd 1b3d a639 05bc bf88 21bd
00000110: d26d 40bd 0663 943c c689 28bc d20f 1f3d
00000120: 8028 063d fb65 4a3d 3464 1dbd c5c2 873c
00000130: 0ae5 933c 7c99 213d 6891 35bd e235 a13d
00000140: 347b 3abd 5003 4ebd 5a03 5f3d af91 9a3c
00000150: c916 04bc ca9c 6fbd 44bb 47bd aff8 043d
00000160: dd72 ed3c b664 b93c 2f72 48bd 1487 323d
00000170: f243 46bd 9ce9 5a3d ce6f 5bbd 184c 4abd
00000180: 7ba9 1a3d 88d2 803d a50e 653d eedc cb3c
00000190: e17e c63c ec13 03bd 576b 36bd 3577 363d
000001a0: 2040 cf3c 8983 d7b9 ffe6 8dbc d0f7 a2bc
000001b0: 2b07 5b3d 30c1 ccbc 26d3 a43d 1786 3fbd
000001c0: 9ce0 49bd b7e0 323c 6610 28bd b8ac 71bd
000001d0: c195 6e3d 926c 803b 2a1f 613d ff0d 233d
000001e0: 47d1 793d b1be 54bd 13ed 933d fd85 9f3c
000001f0: ee13 e4bc e229 3d3d ee7b 77bc eeb0 4a3d

fc3.weight f4 [10, 128]
-0.017595317 -0.08005198 -0.15531355 -0.09956241 -0.15294778 0.15534979 -0.022489583 -0.011415774
0.03881092 -0.12980422 0.055602413 -0.021373192 0.0064485986 -0.008202297 -0.066965126 -0.5698843
-0.06841781 0.05653623 0.06510496 0.12087674 0.34071377 0.11468452 0.11930477 0.09807816
-0.017026408 0.25109658 0.0962692 0.24506085 0.103496954 0.0016313492 0.1451843 -0.027762508
0.01004824 0.3971897 -0.054790195 -0.054443225 -0.37267295 -0.08469677 0.19988094 0.013345811
-0.19884004 0.09173029 -0.07842568 0.08181858 -0.13780674 -0.054826137 -0.077220745 0.087633215
0.013034343 -0.0132885175 -0.038700595 -0.07552564 0.007752515 -0.036642235 0.055109605 -0.03679933
0.12926857 0.21858211 -0.015040867 0.1905704 0.11890645 0.08764558 -0.05207672 0.0009695513
0.044612657 0.09974086 0.052431956 0.037009377 -0.07835333 -0.30088505 -0.0047352915 -0.2033573
0.2519649 -0.0717152 -0.066095 0.21032164 0.3706618 -0.07978485 0.107968174 0.06947654
-0.0035260916 -0.02650234 -0.061816197 -0.044796783 0.08868889 -0.0688242 -0.0014919182 0.113335334
0.04280661 0.17513198 0.053739715 -0.35136366 0.07969792 -0.1571918 0.13456546 -0.13536757
-0.1876278 0.22646116 0.19190204 -0.05854159 -0.095061496 -0.11837795 0.043271694 0.11835006
0.08637804 -0.0059333127 -0.056253593 0.21228532 0.16246465 -0.06392792 0.2924398 -0.021017244
0.04574523 0.016862359 0.117302895 -0.14762317 -0.06164055 0.053537272 0.029172964 0.2383533
-0.055294715 0.21081428 0.16044672 -0.07312128 0.018670423 -0.055760805 0.05665745 0.30525464
-0.0664136 -0.30556896 0.016521012 -0.46286693 0.01320569 0.31346828 0.0987601 -0.21984336
0.2405609 0.005322314 0.06263143 -0.04234893 -0.03249527 0.16414699 0.069692664 0.2973673
-0.07811244 -0.071765475 -0.071572125 0.19841051 0.45165783 -0.58971405 0.09518411 0.055828817
-0.23936924 0.26625517 -0.12471623 0.23420969 0.13485433 0.23360103 0.13832387 -0.023304092
-0.08989155 -0.05854245 0.08506365 0.14831795 0.21154812 -0.043228384 -0.12143652 -0.34796697
-0.04767726 -0.25559092 -0.06103643 -0.02326089 -0.19708891 0.04500211 0.04784966 -0.05624379
-0.03983139 0.0013554799 0.07675048 -0.3002496 0.031757265 0.008936351 0.10585655 -0.0230738
0.3175995 0.22287194 0.05630076 0.34131294 0.07587906 0.019831704 -0.05002754 0.057715625
0.37639633 0.14082284 0.22078231 0.17181213 0.022332467 0.24679916 -0.04540564 0.14692032
0.09227733 -0.07404669 0.066466354 -0.019030953 0.32669884 0.25458273 -0.028437035 0.3254266
0.041304655 -0.12780313 0.020807473 -0.06051306 0.16681458 0.086540096 -0.023692712 -0.081153385
-0.08732678 0.018941505 -0.008123198 0.154456 0.051026326 0.0019895555 0.23774673 -0.16246334
0.15092334 -0.02687564 0.13977942 -0.056997888 -0.046881173 -0.1052091 0.08729131 0.31512496
-0.030177303 0.023307923 0.019741978 0.0062775286 0.24423595 -0.05115656 0.37050736 0.14375752
-0.061728127 -0.18818583 -0.08628482 0.056305338 0.019211445 -0.023901468 -0.037465923 0.24237943
-0.007595532 0.1786502 -0.5044255 -0.007566432 -0.08072032 0.1634002 -0.05688459 0.3878131
00000000: 0e24 90bc 4bf2 a3bd 840a 1fbe 60e7 cbbd
00000010: 589e 1cbe 0414 1f3e 133c b8bc 3a09 3bbc
00000020: 33f8 1e3d 66eb 04be 5bbf 633d d516 afbc
00000030: c44e d33b ed62 06bc 0325 89bd f0e3 11bf
00000040: a31e 8cbd 8992 673d c055 853d 398e f73d
00000050: 0972 ae3e b8df ea3d 0f56 f43d 34dd c83d
00000060: f77a 8bbc bb8f 803e c928 c53d 3bf1 7a3e
00000070: 36f6 d33d ffd2 d53a 31ab 143e 336e e3bc
00000080: 60a1 243c 735c cb3e af6b 60bd dcff 5ebd
00000090: fdce bebe 8075 adbd 97ad 4c3e 63a8 5a3c
000000a0: b99c 4bbe 17dd bb3d a59d a0bd 8090 a73d
000000b0: 361d 0dbe 5f91 60bd e925 9ebd 0b79 b33d
000000c0: ff8d 553c 15b8 59bc 8484 1ebd 30ad 9abd
000000d0: cf08 fe3b 2b16 16bd 9cba 613d e5ba 16bd
000000e0: fb5e 043e fdd3 5f3e f86d 76bc e324 433e
000000f0: 3a85 f33d 877f b33d 664e 55bd 7d29 7e3a
00000100: c3bb 363d f044 cc3d e4c2 563d 2597 173d
00000110: b677 a0bd 9b0d 9abe 812a 9bbb e53c 50be
00000120: 8b01 813e 6bdf 92bd d15c 87bd 8e5e 573e
00000130: 62c7 bd3e 3d66 a3bd 6b1e dd3d b749 8e3d
00000140: 0016 67bb 6f1b d9bc fb32 7dbd d57c 37bd
00000150: 85a2 b53d b4f3 8cbd 788c c3ba 5b1c e83d
00000160: fc55 2f3d cc55 333e 2d1e 5c3d f0e5 b3be
00000170: aa38 a33d e3f6 20be 87cb 093e cc9d 0abe
00000180: 8121 40be 6fe5 673e f881 443e 4ec9 6fbd
00000190: 9aaf c2bd 2370 f2bd a93d 313d 8461 f23d
000001a0: f8e6 b03d 3c6c c2bb 2b6a 66bd 5361 593e
000001b0: 225d 263e a4ec 82bd abba 953e 5b2c acbc
000001c0: 5a5f 3b3d ee22 8a3c 803c f03d 872a 17be
000001d0: cd7a 7cbd e649 5b3d 24fc ee3c e312 743e
000001e0: b67c 62bd b3df 573e 254c 243e 9cc0 95bd
000001f0: b7f2 983c 7165 64bd a411 683d 564a 9c3e
00000200: db03 88bd 8973 9cbe 1357 873c e5fc ecbe
00000210: ae5c 583c ea7e a03e bc42 ca3d 9e1e 61be
00000220: 9955 763e ce66 ae3b e844 803d 1276 2dbd
00000230: c319 05bd 2616 283e 07bb 8e3d 8740 983e
00000240: 6af9 9fbd c7f9 92bd 6894 92bd 202c 4b3e
00000250: b23f e73e 80f7 16bf e3ef c23d c2ac 643d
00000260: 361d 75be 9952 883e 396b ffbd aad4 6f3e
00000270: 4117 0a3e 1c35 6f3e c6a4 0d3e 39e8 bebc
00000280: 1019 b8bd 35ca 6fbd da35 ae3d a9e0 173e
00000290: 12a0 583e 3f10 31bd b6b3 f8bd ba28 b2be
000002a0: 3b49 43bd d0dc 82be 5601 7abd 9f8d bebc
000002b0: add1 49be 2254 383d 01fe 433d e35f 66bd
000002c0: 3d26 23bd 5caa b13a 5b2f 9d3d 51ba 99be
000002d0: e813 023d c669 123c 52cb d83d 4405 bdbc
000002e0: 679c a23e 8b38 643e a09b 663d 92c0 ae3e
000002f0: 7b66 9b3d 1976 a23c aee9 4cbd 3867 6c3d
00000300: 05b7 c03e dd33 103e c214 623e 85ef 2f3e
00000310: 94f2 b63c ebb8 7c3e 44fb 39bd 4872 163e
00000320: e6fb bc3d caa5 97bd 831f 883d cde6 9bbc
00000330: 1245 a73e ab58 823e c9f4 e8bc 519e a63e
00000340: 122f 293d d3de 02be 6f74 aa3c 8bdc 77bd
00000350: 71d1 2a3e ef3b b13d 3817 c2bc bf33 a6bd
00000360: 62d8 b2bd 372b 9b3c 2917 05bc b729 1e3e
00000370: fb00 513d 3463 023b e173 733e ca5c 26be
00000380: a68b 1a3e 4d2a dcbc 5622 0f3e 9e76 69bd
00000390: 7906 40bd de77 d7bd c9c5 b23d 0f58 a13e
000003a0: 6436 f7bc 42f0 be3c eeb9 a13c bab3 cd3b
000003b0: fd18 7a3e 8b89 51bd 24b3 bd3e 2c35 133e
000003c0: a2d6 7cbd c9b3 40be 19b6 b0bd 6da0 663d
000003d0: 5261 9d3c 03cd c3bc de75 19bd 5032 783e
000003e0: f1e3 f8bb 14f0 363e 0822 01bf d5ef f7bb
000003f0: b250 a5bd 6252 273e d1ff 68bd 708f c63e

fc3.bias f4 [10]
-0.0692289 -0.000963059 -0.029327434 0.07311981 -0.098438695 -0.0047330786 -0.009223338 -0.015475942
-0.09536402 -0.06829925
00000000: e2c7 8dbd cc75 7cba 1640 f0bc d7bf 953d
00000010: 3a9a c9bd f117 9bbb 7c1d 17bc ce8e 7dbc
00000020: 364e c3bd 7ae0 8bbd
