models/trained_models/ConvNet_29_12.pth (torch, 185479 bytes, 10 tensors)

conv1.weight f4 [6, 3, 3, 3]
0	0x3e1b64d6	0.15175185
1	0x3d768ef0	0.06019491
2	0xbcaef206	-0.02135564
3	0x3e27944f	0.16365169
4	0x3cb8da21	0.02256495
5	0xbe217419	-0.15766944
6	0xbdba9393	-0.09110179
7	0x3d936b98	0.07198256
8	0x3da22729	0.079176255
9	0xbd27559c	-0.040853128
10	0x3e0eabe6	0.13932762
11	0x3e2d1ef1	0.16906334
12	0x3dc3d0e8	0.0956133
13	0xbd918512	-0.07105459
14	0x3e0ab975	0.13547309
15	0x3e2ee3f3	0.17079143
16	0x3d0ba92f	0.034096893
17	0xbd324214	-0.04352005
18	0x3e1bbd80	0.15209007
19	0x3cf212ce	0.029549982
20	0xbd9d43b5	-0.0767893
21	0xbb95d6c4	-0.004572721
22	0x3b39f726	0.0028376072
23	0x3cc7a614	0.024371184
24	0xbe3a5d92	-0.18199757
25	0xbd0b392e	-0.033990078
26	0x3d825aba	0.06364961
27	0x3fac9232	1.3482115
28	0xbef2749e	-0.47354597
29	0xbf8ae5b9	-1.0851356
30	0x3fb0b416	1.3804958
31	0xbed5ee39	-0.41783312
32	0xbf868edd	-1.0512348
33	0x3fd10475	1.6329485
34	0xbf06bfe8	-0.52636576
35	0xbf7a3f43	-0.9775278
36	0x3fc0c4fb	1.5060114
37	0xbeabda9c	-0.33565223
38	0xbf926b8a	-1.1439068
39	0x3fd5ca7f	1.6702422
40	0xbead9d6f	-0.33909175
41	0xbf70f387	-0.94121593
42	0x3fc93722	1.571995
43	0xbf2d189c	-0.67615676
44	0xbf861b5a	-1.0477097
45	0x3fc932e4	1.5718656
46	0xbf014eae	-0.5051068
47	0xbf95fa5c	-1.1717029
48	0x3fd36dae	1.6517847
49	0xbe7b006e	-0.24511883
50	0xbf905e56	-1.1278789
51	0x3fdbb496	1.7164485
52	0xbf404144	-0.7509959
53	0xbf793399	-0.97344357
54	0xbefdfc98	-0.49606776
55	0xbea0c019	-0.3139656
56	0x3f4c7c38	0.7987704
57	0xbf1c27b4	-0.6099808
58	0xbde40ecf	-0.11135637
59	0x3f2b659f	0.66951936
60	0xbf021b12	-0.50822556
61	0xbef57481	-0.47940448
62	0x3f24a1a2	0.6430913
63	0xbf3a1f0c	-0.72703624
64	0xbe45ff0c	-0.19335574
65	0x3f1202ec	0.5703571
66	0xbf13b11a	-0.5769211
67	0xbeee3735	-0.46526495
68	0x3f2c3b43	0.67277926
69	0xbf191d97	-0.59810776
70	0xbe92dd66	-0.2868454
71	0x3f3a9f4c	0.7289932
72	0xbf24bd9f	-0.6435184
73	0xbe2647b0	-0.16238284
74	0x3f3fee29	0.7497278
75	0xbf467fc9	-0.77538735
76	0xbe3dd579	-0.18538465
77	0x3f04c0f8	0.51856947
78	0xbf1e575c	-0.6185205
79	0xbebb5bb9	-0.36593416
80	0x3f4eb386	0.8074268
81	0x3e41674f	0.18887065
82	0xbdc0aa34	-0.09407464
83	0x3e412b39	0.18864144
84	0xbd4742a1	-0.048647527
85	0xbdacf224	-0.08444622
86	0xbcc1e510	-0.023668796
87	0xbcdc76ed	-0.026912177
88	0x3e16655b	0.14687102
89	0x3d60ed17	0.054913606
90	0xbdbfc46b	-0.09363636
91	0xbe281927	-0.16415845
92	0x3b4eb414	0.003154044
93	0xbe0f152a	-0.13972917
94	0x3c9bab1f	0.019002495
95	0x3c69c3b4	0.014267851
96	0x3dd529b7	0.10408347
97	0x3dfbeab9	0.12300629
98	0xbdbe9fa7	-0.09307795
99	0xbc275d11	-0.01021506
100	0xbe0263cb	-0.1273338
101	0x3da77284	0.08176139
102	0x3e1a9d95	0.15099175
103	0xbdf6773e	-0.120344624
104	0x3e1c17b8	0.15243423
105	0x3e1a8b56	0.15092215
106	0xbd0187fe	-0.031623833
107	0xbd24b086	-0.04020741
108	0xbe58b518	-0.21162832
109	0x3e3da383	0.18519406
110	0x3e8af01d	0.27136317
111	0x3c921f85	0.017837295
112	0xbda3675f	-0.07978701
113	0x3e221f07	0.15832148
114	0x3e022d81	0.12712671
115	0xbe4fca88	-0.20292103
116	0xbcb58830	-0.022159666
117	0xbdc40b43	-0.095724605
118	0xbd654653	-0.05597527
119	0x3dd03101	0.10165597
120	0xbe356967	-0.17715989
121	0x3c6090b3	0.013706374
122	0x3e0e242e	0.13880989
123	0xbe34f2d9	-0.17670764
124	0xbcf7dbde	-0.030256208
125	0xbd9d5bdb	-0.07683536
126	0xbe843974	-0.25825083
127	0x3df53a74	0.1197404
128	0x3e1bbffc	0.15209955
129	0x3d91170a	0.070844725
130	0xbdd20c76	-0.10256283
131	0xbd1f582a	-0.03890244
132	0xbb16d22d	-0.0023013458
133	0xbe80aae4	-0.2513038
134	0x3e0858a7	0.13315068
135	0xbe8523d9	-0.26003912
136	0x3e1d463e	0.15358827
137	0x3c487d8e	0.012236966
138	0xbdbf156d	-0.093302585
139	0x3e0235ac	0.12715787
140	0xbd013b6f	-0.03155082
141	0xbe8e25ba	-0.27763158
142	0xbdadb808	-0.08482367
143	0xbe1a02de	-0.15040156
144	0xbdfae899	-0.12251396
145	0xbdc3771a	-0.09544201
146	0xbcdd9191	-0.02704695
147	0xbe7713dc	-0.2412867
148	0xbca9b137	-0.020714385
149	0xbd1ce061	-0.038299922
150	0xbd94d603	-0.07267382
151	0xbdc280c5	-0.09497217
152	0x3d77eaba	0.060526587
153	0x3b76c4e7	0.0037653984
154	0x3e14ae2e	0.1451957
155	0x3d5369a2	0.05161441
156	0xbe6e291d	-0.23257871
157	0xbe30f0e9	-0.172794
158	0xbd60ddcd	-0.054899026
159	0xbe8ca0b3	-0.27466354
160	0xbd921b53	-0.07134118
161	0xbdf1ec47	-0.118126445

conv1.bias f4 [6]
0	0x3e12bfc4	0.14330965
1	0x3f172352	0.5903827
2	0x3e12fb5c	0.14353698
3	0xbddc878f	-0.10768043
4	0x3e2a0887	0.16604815
5	0xbc8cab83	-0.017171627

conv2.weight f4 [16, 6, 2, 2]
0	0x3e2c24f5	0.16810973
1	0x3e362ced	0.17790575
2	0x3c0a2b3f	0.008433162
3	0x3a59407c	0.0008287502
4	0xbee1c2a9	-0.44093826
5	0xbe0c2b3a	-0.13688365
6	0xbecd0a67	-0.40047
7	0xbed42651	-0.41435483
8	0x3efce36b	0.49392256
9	0x3e9e73ef	0.30947825
10	0x3f00bd88	0.502892
11	0x3dffb4aa	0.12485631
12	0x3ced64a9	0.028978663
13	0x3e2cac15	0.16862519
14	0xbc13f19b	-0.009029771
15	0x3db069d1	0.08613933
16	0x3e19f74d	0.15035744
17	0xbdfe95d8	-0.12430924
18	0xbd2f8d5d	-0.042859424
19	0x3e0dcc68	0.13847506
20	0xbcf6fde4	-0.030150361
21	0xbd8284c7	-0.063729815
22	0xbdc47388	-0.09592348
23	0x3d84853d	0.06470726
24	0xbc653a05	-0.013990884
25	0x3e4364e9	0.19081463
26	0xbcaf2406	-0.021379482
27	0x3cab5c45	0.020918021
28	0xbd4afbf6	-0.049556695
29	0x3e44b090	0.19207978
30	0xbdef9c06	-0.11699681
31	0xbe15cbca	-0.1462852
32	0xbd22b270	-0.039720953
33	0xbbb96b70	-0.0056585595
34	0xbd0a7347	-0.033801343
35	0x3e1bcb9d	0.15214391
36	0x3e04cdcd	0.12969132
37	0xbcb6a445	-0.022295127
38	0xbd67bcce	-0.056576543
39	0x3d9845c8	0.07435185
40	0x3e421140	0.18951893
41	0xbe070c8a	-0.13188377
42	0x3c01a55d	0.007912961
43	0x3dd35ed3	0.10320821
44	0x3cc08bb2	0.023504112
45	0xbcdc89e2	-0.026921216
46	0xbe081825	-0.1329046
47	0xbe144d2f	-0.14482568
48	0x3d48f175	0.049058396
49	0x3e3b8fa5	0.18316515
50	0x3c52f901	0.01287675
51	0x3cf5094b	0.029911658
52	0xbf7253a6	-0.9465889
53	0xbf450389	-0.7695852
54	0xbf572482	-0.8404008
55	0xbf729ec4	-0.9477351
56	0x3e60762d	0.2192008
57	0x3ef141e3	0.4712058
58	0x3e9f5e5d	0.3112668
59	0x3ecd9467	0.40152285
60	0x3d3c4f50	0.045974076
61	0x3e4034b0	0.18770099
62	0xbe20c487	-0.15699969
63	0x3e142ccd	0.14470215
64	0x3e681806	0.22665414
65	0x3dee714e	0.11642705
66	0x3ddfbde4	0.10924891
67	0x3cb7def0	0.022445172
68	0xbd0b36bd	-0.03398775
69	0x3dcdbe38	0.10046047
70	0x3ea96f31	0.33092645
71	0xbe097ef3	-0.13427334
72	0x3e279312	0.16364697
73	0x3dfe76fc	0.12425038
74	0x3d876eef	0.06612956
75	0xbe33d990	-0.17563462
76	0x3f2cc0d5	0.6748174
77	0x3f650286	0.89456975
78	0x3f19dee5	0.60105735
79	0x3f0de934	0.55433965
80	0x3b8020b4	0.0039101485
81	0xbe85e884	-0.26153958
82	0x3c91e5cd	0.017809773
83	0x3d5d7e60	0.0540756
84	0xbd21a83c	-0.03946708
85	0xbcce65ff	-0.02519512
86	0x3e029ec8	0.12755883
87	0x3d0a7a86	0.033808254
88	0x3de7167f	0.11283588
89	0xbe4007d2	-0.18752983
90	0x3e659c3e	0.22422883
91	0x3b921369	0.0044578803
92	0x3b73e6e0	0.003721647
93	0xbe2a9db3	-0.1666172
94	0xbe521265	-0.2051483
95	0x3d21d7c9	0.03951243
96	0xbdc72f94	-0.09725872
97	0x3e503534	0.20332795
98	0xbde0e389	-0.10980899
99	0xbd713e74	-0.05889745
100	0x3c46ea7d	0.012140867
101	0xbf6249b3	-0.88393706
102	0x3ea183bd	0.3154582
103	0xbe97eb47	-0.2967169
104	0xbd99018f	-0.074710004
105	0xbd2ae790	-0.04172474
106	0xbdfdab3d	-0.12386177
107	0x3dba1c27	0.09087401
108	0xbe185065	-0.14874418
109	0x3e0d7f54	0.13818103
110	0x3e2752d6	0.16340193
111	0xbe018c17	-0.12651096
112	0xbe6ba2f3	-0.23011379
113	0x3e427bb2	0.18992499
114	0x3dfa68b4	0.12227002
115	0xbce9990c	-0.028515361
116	0x3e3a26d2	0.18178871
117	0x3e92884e	0.28619617
118	0x3e8e2247	0.27760527
119	0x3e0b6d7f	0.13615988
120	0x3d4934f2	0.04912276
121	0xbdefdaee	-0.117116794
122	0x3d2ef385	0.042712707
123	0x3df42a08	0.11922079
124	0x3ca4eef8	0.02013348
125	0xbd5d8f8c	-0.054091975
126	0x3d0de77a	0.03464458
127	0x3df8ed91	0.12154687
128	0x3e1765db	0.14784949
129	0xbe3b285a	-0.18277112
130	0x3da95a20	0.08269143
131	0xbc959046	-0.018257271
132	0xbbd37727	-0.006453413
133	0xbe19dce0	-0.15025663
134	0x3e2cf1d2	0.16889122
135	0xbdc5eb5e	-0.09664033
136	0xbdd2253e	-0.1026101
137	0xbcd0a940	-0.02547133
138	0x3de50d51	0.111841805
139	0x3e2fa9b7	0.17154585
140	0x3cecf6e1	0.028926315
141	0x3adffe77	0.0017089386
142	0x3c8d55ff	0.01725292
143	0xbe1b96ea	-0.15194288
144	0x3cf06d74	0.029349066
145	0xbc923be9	-0.017850833
146	0xbe40db84	-0.18833739
147	0x3cf5bae1	0.029996337
148	0x3d2b9fc9	0.04190043
149	0xbd778a24	-0.060434476
150	0x3d4c8d94	0.049939707
151	0x3e3c256c	0.1837365
152	0x3cf4f9e1	0.029904308
153	0x3d0cc4c4	0.034367338
154	0x3e2f9435	0.1714638
155	0xbdfdd89f	-0.12394833
156	0xbe46e3c9	-0.1942283
157	0xbdef70a5	-0.11691407
158	0xbdaba9e7	-0.08382016
159	0x3d3baf82	0.045821674
160	0x3de13686	0.10996728
161	0x3dfc258b	0.12311848
162	0x3e436891	0.19082858
163	0xbe4e70e4	-0.20160252
164	0x3c11ee17	0.008906863
165	0xbe246c92	-0.16057041
166	0xbe4febb3	-0.20304756
167	0xbc61f465	-0.013791178
168	0xbe2d04fd	-0.16896434
169	0x3d81b048	0.06332451
170	0xbe313c61	-0.17308189
171	0x3cd46cc4	0.02593077
172	0x3e47aafc	0.19498819
173	0x3ce5e8a6	0.028065037
174	0xbe326270	-0.17420363
175	0xbde2cb11	-0.11073888
176	0x3e362dbc	0.17790884
177	0xbd9ef7d0	-0.0776211
178	0x3dd6945c	0.10477516
179	0x3e3b4eed	0.18291827
180	0x3e04dbaf	0.12974428
181	0x3d7968a2	0.0608908
182	0x3e2f0aef	0.17094015
183	0x3d74c115	0.05975445
184	0xbc52d8c0	-0.01286906
185	0x3d9e4de4	0.077297
186	0x38794e50	5.943916e-05
187	0x3d54337f	0.051806923
188	0xbd3412f5	-0.04396339
189	0xbd6e88ec	-0.058236048
190	0xbe29c6df	-0.1657977
191	0xbd7e4f7a	-0.062087514
192	0xbdd09c88	-0.10186106
193	0xbd9265ef	-0.071483485
194	0x3ccb0680	0.024783373
195	0xbe0519fc	-0.12998194
196	0x3e1f5e80	0.15563393
197	0x3d88a1f0	0.06671512
198	0x3d3bf53e	0.045888178
199	0xbc17b79f	-0.009260087
200	0xbe00caad	-0.12577315
201	0xbe1c0fea	-0.15240446
202	0x3e300c92	0.17192295
203	0xbe400a81	-0.18754007
204	0x3c9a7c7e	0.01885819
205	0x3e4e1efd	0.20129009
206	0x3cd35d14	0.025801219
207	0x3e146049	0.14489855
208	0x3d67058e	0.05640178
209	0xbe1e904d	-0.15484734
210	0xbddc6d75	-0.10763065
211	0xbe0591a2	-0.13043836
212	0x3e18f04b	0.14935414
213	0xbde52a9c	-0.11189768
214	0xbdff7e4e	-0.124752626
215	0xbe14bd77	-0.145254
216	0xbdc8a02d	-0.09796176
217	0x3d3e20be	0.046417944
218	0xbd4eb454	-0.050464943
219	0x3e265f74	0.1624735
220	0x3f3cd80f	0.7376718
221	0xbf6a4a7c	-0.91519904
222	0x3f93c6f8	1.1545095
223	0xbf2ebf85	-0.68260986
224	0xbe7923aa	-0.24330011
225	0x3f0e31de	0.5554484
226	0xbe727021	-0.23675586
227	0x3eebe4df	0.46073052
228	0x3e12b61b	0.1432728
229	0xbc5741f8	-0.013138287
230	0xbdf67beb	-0.12035354
231	0x3cf86593	0.030321872
232	0xbe77ee6f	-0.24212049
233	0x3e46a1dd	0.19397683
234	0xbe24801e	-0.16064498
235	0x3e106291	0.141001
236	0xbe06dce6	-0.13170204
237	0x3e5ac784	0.21365172
238	0x3df22074	0.11822596
239	0x3dd385d9	0.10328264
240	0xbbb1bd51	-0.0054241796
241	0xbdaf978f	-0.085738294
242	0x3db03c12	0.086052075
243	0xbd395bed	-0.045253683
244	0xbfda88c5	-1.7072989
245	0x3fbe3dc1	1.4862596
246	0xbffb5be0	-1.9637413
247	0x3fb2110a	1.391145
248	0x3f7dd2b2	0.9914962
249	0xbf1442b9	-0.5791431
250	0x3fa1edc0	1.265068
251	0xbe3abeaf	-0.18236803
252	0xbd4bdce8	-0.04977122
253	0xbd8d39be	-0.06895779
254	0x3e1aaa71	0.1510408
255	0xbe050b3a	-0.12992564

conv2.bias f4 [16]
0	0xbdc64740	-0.096815586
1	0xbdaa6e4d	-0.083218195
2	0x3cf01150	0.02930513
3	0xbca64fce	-0.020301726
4	0x3dcfb43a	0.10141797
5	0xbe1934f7	-0.1496161
6	0xbdead29d	-0.114659525
7	0xbe3a62a4	-0.18201691
8	0x3d9326ce	0.07185136
9	0x3e3d4278	0.18482387
10	0x3ea384fb	0.31937394
11	0xbd97a3c7	-0.07404285
12	0x3dd18cf6	0.10231964
13	0xbc87a9dd	-0.01656049
14	0xbda76e4c	-0.08175334
15	0xbe296086	-0.16540727

fc1.weight f4 [120, 320]
0	0xbd4ddf35	-0.050261695
1	0xbd60fdf6	-0.054929696
2	0xbd570c75	-0.052502114
3	0x3cf0c0be	0.029388782
4	0x3c98883e	0.018619653
5	0x3bb813ec	0.0056176092
6	0xbce2f5f0	-0.027705163
7	0x3d223e91	0.03961045
8	0xbc943d53	-0.018095648
9	0x3d0409ec	0.032236025
10	0x3d3ba7eb	0.045814436
11	0xbb8d12e6	-0.0043052314
12	0x3cccd47a	0.02500366
13	0xbd42ddd6	-0.04757484
14	0xbcbfeb6d	-0.02342769
15	0x3d176e40	0.036970377
16	0xbc878a5b	-0.016545465
17	0xbb86d6de	-0.0041149696
18	0xbc8becf6	-0.017080765
19	0x3d2eb565	0.04265346
20	0x3d560c96	0.052258097
21	0x3c2c09ca	0.010500381
22	0xbcb53d67	-0.022124005
23	0xbc1a7618	-0.00942757
24	0xbd35a431	-0.04434604
25	0xbcb48327	-0.022035195
26	0xbbe185c4	-0.006882401
27	0xbba5bd47	-0.005057964
28	0xbc6e1aae	-0.014532728
29	0xbc3734e9	-0.011182048
30	0x3bc9c6bc	0.006157724
31	0x3d5e4f53	0.05427487
32	0x3d02d008	0.031936675
33	0xbc5e1d0e	-0.013556732
34	0xbccd9ace	-0.02509823
35	0x3a8982dd	0.0010491271
36	0x3b90d6d0	0.004420139
37	0xbc8beaaa	-0.01707967
38	0xbce5efc3	-0.028068429
39	0x3c98eea8	0.018668488
40	0xbcc15bd6	-0.023603361
41	0xbc8db5c9	-0.017298596
42	0x3d300f40	0.042983294
43	0x3d68bbc7	0.056819703
44	0x3cd8ed8a	0.026480455
45	0xbd1de2f7	-0.03854653
46	0x3bdaf5a7	0.006682116
47	0xbcd41910	-0.025890857
48	0xbd274a7a	-0.04084251
49	0x3d846e69	0.064663716
50	0xbca2ad4a	-0.019858021
51	0x3a5026c9	0.000794035
52	0xbba75d40	-0.005107552
53	0xbbaeb8f9	-0.005332109
54	0xbc478b15	-0.012179156
55	0xbd354e32	-0.044264026
56	0xbcb5b031	-0.022178741
57	0xbcb4fe0f	-0.0220938
58	0xbcbb71b6	-0.02288137
59	0x3d06c41b	0.032901864
60	0x3bbda321	0.0057872687
61	0xbd6218c4	-0.0551994
62	0xbd20d686	-0.039267085
63	0xbd4b9afc	-0.04970835
64	0x3d1b91d9	0.037980888
65	0x3d132d1c	0.03593169
66	0x3bdc880c	0.0067300852
67	0xbd393cb3	-0.045223903
68	0xbd271dda	-0.040799953
69	0x3cd31640	0.025767446
70	0xbadbc74d	-0.001676777
71	0xbbe48378	-0.00697368
72	0xbd11a6d8	-0.035559505
73	0xbc603826	-0.013685262
74	0xbc8b648e	-0.017015722
75	0x3d20124d	0.039079953
76	0x3b7dd12f	0.003872942
77	0x3c9ecfee	0.019386258
78	0x3b0f8b15	0.0021902968
79	0xbc2ec720	-0.010667592
80	0x3ca006dc	0.01953452
81	0xbd115c57	-0.035488453
82	0xbd0e8615	-0.03479584
83	0xbcc7aae0	-0.024373472
84	0x3ca1a600	0.019732475
85	0x3cc1221a	0.023575831
86	0xbd151c9c	-0.036404237
87	0xbd49c945	-0.04926421
88	0x3cd9609a	0.026535321
89	0x3d18e625	0.037328858
90	0xb999bfa5	-0.0002932522
91	0xbca4bcdf	-0.020109592
92	0xbd2f4e5b	-0.042799335
93	0xbd7694c4	-0.060200468
94	0x3cb92f2e	0.022605505
95	0x3d0e6e90	0.03477341
96	0xbd354957	-0.044259395
97	0x3bc6604c	0.00605396
98	0x3d44673a	0.047950007
99	0x3b436e12	0.0029820246
100	0xbc18cb5c	-0.009325828
101	0xbd2eb3b2	-0.04265184
102	0x3cec0606	0.028811466
103	0xbc6f5332	-0.014607238
104	0xbd13f9a3	-0.036126744
105	0x3d284ba9	0.04108778
106	0xbd2bc6bc	-0.041937575
107	0x3bc80b56	0.006104867
108	0xbca4eedc	-0.020133428
109	0xbd1f2153	-0.03885014
110	0xbca7ec88	-0.02049853
111	0xbd0841ca	-0.033265866
112	0xbd142f9a	-0.03617821
113	0xbcce73ce	-0.025201704
114	0x3c78abb0	0.015177652
115	0x3cd4ad43	0.025961524
116	0x3ce491a2	0.027901474
117	0xbc0086d2	-0.007844644
118	0x3cdead1d	0.027182156
119	0xbd2dac60	-0.042400718
120	0xbac9861d	-0.0015375052
121	0xbcd4824a	-0.025941033
122	0x3c311a92	0.0108095575
123	0xbce54b69	-0.02799006
124	0xbd1f5b11	-0.038905207
125	0x3d35c3f9	0.044376347
126	0xbd249627	-0.04018226
127	0x3cb9e23d	0.022690887
128	0xbd4dae62	-0.050215133
129	0x3d634a31	0.055490676
130	0x3d60649a	0.05478344
131	0x3bb3787d	0.00547701
132	0xbd13e555	-0.03610738
133	0x3d4a0817	0.04932412
134	0xbd618e69	-0.055067454
135	0x3d5fbad9	0.05462155
136	0x3d57e4a4	0.052708283
137	0x3c941afa	0.01807927
138	0x3d016ab9	0.03159592
139	0x3d49504f	0.049148854
140	0x3ca4bad1	0.020108612
141	0x3d17cc80	0.03706026
142	0x3d60cc29	0.054882202
143	0xbd5ba0a4	-0.053619996
144	0xbcfb9025	-0.030708382
145	0x3ceebbb5	0.02914224
146	0x3d507019	0.050888155
147	0xbd192e8b	-0.037397902
148	0x3d3146b2	0.04328031
149	0xbcbbbc9b	-0.022917083
150	0xbd4a922f	-0.049455818
151	0x3c119bca	0.008887241
152	0x3cf458c5	0.029827485
153	0x3d30d714	0.043173864
154	0xbd38b241	-0.04509187
155	0x3d36f7b7	0.044669833
156	0xbd0a91a5	-0.033830304
157	0xbc04e2bd	-0.008110699
158	0x3b9bcf51	0.0047549387
159	0xbd519591	-0.05116803
160	0xbd2ee664	-0.042700186
161	0x3c78e7f8	0.015192024
162	0x3d5ea31c	0.054354772
163	0xbca785cc	-0.020449542
164	0x3b2d0adb	0.0026404175
165	0xbd337744	-0.043814912
166	0x3d3afcab	0.04565112
167	0xbcc013c0	-0.023446918
168	0x3cfb573f	0.03068125
169	0x3d0cbf3b	0.03436206
170	0x3ce270f9	0.02764176
171	0x3c3adf4e	0.011405779
172	0x3b72d7f2	0.0037054983
173	0x3a739cd4	0.00092930836
174	0xbd4c1301	-0.04982281
175	0x3bb5c970	0.005547695
176	0x3c90ff5b	0.017699888
177	0x3c84a87e	0.016193625
178	0x3c19aa2a	0.009378949
179	0x3c9aa6bb	0.018878331
180	0x3da25576	0.07926457
181	0xbbe6b1ca	-0.007040237
182	0x3d0c422a	0.034242786
183	0xbca66364	-0.020311065
184	0x3b906c0a	0.0044074105
185	0xbcf13fd5	-0.029449383
186	0x3cc5fd4a	0.02416863
187	0x3b470020	0.0030365065
188	0x3ccd2efd	0.02504682
189	0xbd10f93e	-0.035393946
190	0xbcdf3297	-0.027245803
191	0xbd8624af	-0.065499656
192	0xbd4af15e	-0.049546592
193	0xbb9e262c	-0.004826328
194	0xbd82e613	-0.063915394
195	0xbd028abf	-0.0318706
196	0x3c26135f	0.010136454
197	0x3d0a14aa	0.033711113
198	0x3d30f5ff	0.04320335
199	0x3ccece12	0.025244746
200	0xbdb16695	-0.08662144
201	0xbdc91a89	-0.09819514
202	0xbd92f902	-0.07176401
203	0x3d87368a	0.066021994
204	0x3da97d74	0.082758814
205	0x3c9d8ea1	0.01923305
206	0xbc98f295	-0.01867036
207	0x3d818c58	0.063255966
208	0x3d85f370	0.06540573
209	0x3d91c855	0.071182884
210	0x3d05d998	0.032678217
211	0x3d30c55b	0.043156963
212	0x3d6d5e65	0.05795135
213	0x3b9bfec2	0.004760594
214	0xbc0ef3aa	-0.008725086
215	0x3d8b7e1a	0.06811161
216	0xbba394a1	-0.004992083
217	0x3cc3a7f6	0.023883801
218	0x3c2babf8	0.010478012
219	0x3cc25677	0.02372287
220	0x3d4820c0	0.048859358
221	0xbd2c6867	-0.042091753
222	0xbd56e396	-0.052463137
223	0x3d31dfde	0.043426387
224	0xbcb293e5	-0.021799037
225	0x3c51a160	0.012794822
226	0xbd52c753	-0.05145962
227	0xbb9fea85	-0.004880252
228	0xbd2c52f0	-0.042071283
229	0x3cecd235	0.028908828
230	0xbc97c140	-0.018524766
231	0x3d3802f3	0.044924688
232	0xbcdb5e02	-0.026778225
233	0xbc1126c2	-0.008859338
234	0xbc622c3b	-0.013804491
235	0x3d0f6832	0.035011478
236	0xbd0ffab9	-0.035151217
237	0x3c19b9a4	0.009382639
238	0xbd281f62	-0.041045554
239	0x3c9de66d	0.019274915
240	0x3cdf85f1	0.027285548
241	0x3d393d19	0.045224283
242	0x3d18ea09	0.03733257
243	0xbbda0f49	-0.006654654
244	0xbba08869	-0.004899074
245	0xbd571d4b	-0.05251817
246	0xbbd4cbe5	-0.0064940327
247	0xbd0e269e	-0.034704797
248	0xbcd715da	-0.026255537
249	0xbc653f7f	-0.013992189
250	0xbc38f366	-0.011288499
251	0xbd6fc26b	-0.05853502
252	0xbd55338f	-0.052051123
253	0xba215393	-0.0006154116
254	0xbd7cb2be	-0.0616939
255	0x3be9e9b4	0.0071384553

fc1.bias f4 [120]
0	0xbd07d10a	-0.03315834
1	0x3bc9805e	0.0061493358
2	0x3a8a0bb6	0.0010532055
3	0xbcbd7f15	-0.023131886
4	0xbd044144	-0.032288805
5	0xbd27906b	-0.040909212
6	0xbd5e6c94	-0.054302767
7	0xbcce6d3b	-0.02519857
8	0x3c1821f9	0.009285443
9	0xbd107d83	-0.035275947
10	0x3d51dcf1	0.051236097
11	0x3cefd425	0.029275963
12	0x3c31cc0c	0.010851871
13	0xbcb96cf3	-0.022634959
14	0x3c853be7	0.016263915
15	0xbc19d26c	-0.009388547
16	0xbccbac8c	-0.02486255
17	0x3a2ca285	0.00065854966
18	0x3ce66f05	0.02812911
19	0x3cba0fa5	0.022712538
20	0x3d06a8d9	0.03287587
21	0xbcd9fb85	-0.026609192
22	0xbd5d3684	-0.05400707
23	0x3d9c6a15	0.07637421
24	0xbc8b9ca1	-0.01704246
25	0x3ce9958c	0.028513692
26	0xbd262928	-0.040566593
27	0xbc8b8144	-0.017029412
28	0x3cd6d04c	0.02622237
29	0x3d8189d9	0.063251205
30	0xbc804664	-0.015658565
31	0xbbad6fe9	-0.0052928817
32	0xbbedd99b	-0.0072586066
33	0x3cd7573b	0.026286712
34	0xbd422df3	-0.0474071
35	0x3d7915ec	0.060811922
36	0xbd704fca	-0.058669843
37	0xbd0632a0	-0.032763124
38	0x3d5536db	0.052054267
39	0xbd482cfb	-0.04887102
40	0x3d3e09d3	0.046396088
41	0xbc971e58	-0.018447086
42	0xbaa81b8f	-0.0012825596
43	0x3dc7ba6f	0.09752356
44	0x3b967e91	0.0045927246
45	0xbbc826ef	-0.006108157
46	0x3cd67e52	0.026183281
47	0xbb98b4d7	-0.0046602297
48	0x3b30ad9d	0.002695895
49	0x3d414272	0.047182508
50	0x3cc9d7fe	0.024639126
51	0xbcff9872	-0.031200621
52	0x3b85284f	0.004063643
53	0xbccf6c4b	-0.025320193
54	0x3d71b0ac	0.059006378
55	0x3d23a619	0.039953325
56	0x3d5a73b5	0.053333003
57	0x3d417000	0.047225952
58	0xbb939af9	-0.004504558
59	0x3d593187	0.05302575
60	0x3cde48b1	0.027134271
61	0x3c351a55	0.011053641
62	0x3d0543e5	0.032535452
63	0xbd507c6e	-0.050899915
64	0x3d01b371	0.03166527
65	0xbc45f007	-0.012081153
66	0x3da7c8f9	0.08192629
67	0xbd1c60b1	-0.03817815
68	0xbb9fbbd0	-0.004874684
69	0xbcae0190	-0.02124098
70	0x3d2ce29d	0.042208303
71	0x3d84e714	0.06489387
72	0x3bcf087f	0.0063181515
73	0xbb5d3a97	-0.0033756846
74	0x3cc97466	0.024591636
75	0x3ccdb120	0.025108874
76	0xbcaae2a5	-0.020860026
77	0x3cd8eae6	0.026479196
78	0xbcc1a3c2	-0.023637656
79	0x3c147e8a	0.009063372
80	0x3bb315e3	0.0054652556
81	0xbb8ce0a6	-0.004299241
82	0x3d1b3534	0.037892535
83	0xbd39bc61	-0.045345668
84	0x3ba357ef	0.0049848477
85	0xbc8cc156	-0.017182034
86	0xbbbc8749	-0.005753432
87	0x3d53b783	0.051688682
88	0x3c74e815	0.014947911
89	0x3b2a8648	0.002601998
90	0x3dd4da95	0.10393254
91	0x3d56fec1	0.052489046
92	0x3d1b6d81	0.037946228
93	0x3dba95c7	0.09110599
94	0x3b7aefce	0.0038289907
95	0x3d89c7b4	0.067275435
96	0x3d4979b7	0.049188342
97	0x3d62d003	0.055374157
98	0x3c59f1c1	0.0133022675
99	0x3d461902	0.048363693
100	0x3da14dce	0.07876168
101	0x3d46c501	0.04852772
102	0xbc62c976	-0.013841977
103	0xbd172b0b	-0.036906283
104	0x3d20f16c	0.039292738
105	0x3d3f39bf	0.04668593
106	0x3d40576e	0.04695838
107	0xbd2079c6	-0.039178632
108	0x3cac260e	0.02101424
109	0x3da7f45a	0.08200903
110	0x3d4ec184	0.05047752
111	0xbd8706db	-0.065931045
112	0x3d994cca	0.074853495
113	0xbb8ec5ee	-0.004357091
114	0x3c91e955	0.017811457
115	0x3ce5839d	0.02801686
116	0xbd2954e6	-0.04134073
117	0x3d57bf63	0.052672755
118	0xbcafb795	-0.021449843
119	0x3cca7dd0	0.024718195

fc2.weight f4 [50, 120]
0	0x3c1b3af1	0.009474502
1	0x3b9571a6	0.004560667
2	0x3b0c9aaf	0.0021454503
3	0x3d9da1ac	0.07696852
4	0xbc7ecf79	-0.015552395
5	0xbda32198	-0.07965392
6	0x3c5aa81a	0.013345743
7	0xbd09e893	-0.033669066
8	0xbe281ce5	-0.16417272
9	0xbe7926cd	-0.24331208
10	0x3d86b0a6	0.06576662
11	0x3db0a44d	0.08625088
12	0x3e41c08f	0.18921112
13	0x3d87b73b	0.06626745
14	0x3e235211	0.15949275
15	0xbd987819	-0.07444782
16	0x3d9d3fbe	0.076781735
17	0x3db20d80	0.08693981
18	0xbecd395a	-0.40082818
19	0xbdf81c9c	-0.12114832
20	0x3db31142	0.08743526
21	0xbcdeffe9	-0.027221637
22	0xbe5acd1d	-0.21367307
23	0xbdd24aee	-0.10268198
24	0x3c9ff150	0.019524246
25	0x3da5b0c1	0.08090354
26	0x3da19f57	0.0789172
27	0xbe11b74e	-0.14230081
28	0xbda50267	-0.08057099
29	0x3cce9526	0.025217604
30	0x3cb2cf2f	0.021827308
31	0x3bcbb0b5	0.0062161335
32	0x3e09f8b7	0.13473783
33	0xbe372279	-0.17884244
34	0xbd84efcb	-0.064910494
35	0xbd9d4c7c	-0.07680604
36	0xbe14d821	-0.14535572
37	0x3e428bda	0.18998662
38	0x3e2cbf10	0.1686976
39	0x3bbd4aa8	0.005776722
40	0xbd251195	-0.04029997
41	0x3d6136bb	0.054983836
42	0x3e1bb391	0.15205218
43	0x3e53542b	0.20637576
44	0x3e0a65d3	0.13515405
45	0x3d8910c3	0.0669265
46	0x3e947ee5	0.29003063
47	0x3ab6424e	0.0013905258
48	0xbe856ac2	-0.26058012
49	0xbd7d22ce	-0.06180077
50	0x3e8327f2	0.25616413
51	0xbe6c4b50	-0.23075604
52	0xbdc58a9c	-0.09645578
53	0x3da68df5	0.08132545
54	0xbcc50b6f	-0.024053304
55	0xbcf369ef	-0.029713599
56	0xbd0829ce	-0.033242993
57	0x3df750a2	0.12075926
58	0x3d9f0c63	0.077660345
59	0x3e20e11c	0.15710872
60	0xbd27e787	-0.040992286
61	0xbd8ed75f	-0.069746725
62	0xbee9f242	-0.4569264
63	0xbd5659a9	-0.0523316
64	0x3e21f3a4	0.15815598
65	0xbd4ce5fc	-0.050024018
66	0x3df3a61f	0.118969195
67	0xbd8e89a5	-0.06959847
68	0x3cc57516	0.024103682
69	0x3d8eaa41	0.06966067
70	0x3da60155	0.08105723
71	0xbe22aea0	-0.15886927
72	0xbd8cb7d6	-0.068710014
73	0x3c087078	0.008327596
74	0xbd86b5a4	-0.06577614
75	0xbd13d029	-0.03608719
76	0x3e3a5854	0.18197757
77	0x3d58d067	0.052933123
78	0xbd9406e3	-0.07227876
79	0x3e81bb6b	0.253383
80	0xbe814311	-0.2524648
81	0x3d654956	0.05597814
82	0xbe9b04ec	-0.30277193
83	0x3d2165c8	0.039403707
84	0xbd20b3fd	-0.03923415
85	0xbd740d1b	-0.05958281
86	0xbc23e2e4	-0.010002825
87	0x3da1c6a6	0.07899217
88	0xbd09a087	-0.033600356
89	0xbd8ba147	-0.068178706
90	0x3e0c560d	0.13704701
91	0x3cc7ecb8	0.024404868
92	0xbe2db76a	-0.16964498
93	0xbd0cd5c1	-0.03438354
94	0xbd9e4c48	-0.07729393
95	0x3d0f2eb5	0.034956653
96	0x3a44ca0f	0.0007506916
97	0xbe4eb5ed	-0.20186587
98	0xbd77de78	-0.060514897
99	0x3cceb6a1	0.025233569
100	0xbc5d51b1	-0.013508246
101	0xbc8528d6	-0.016254824
102	0x3d7eed76	0.06223818
103	0x3dff166c	0.124554485
104	0xbdc23930	-0.09483564
105	0xbc88f473	-0.016718125
106	0x3db0f8da	0.08641215
107	0x3b0cdc0c	0.0021493463
108	0x3d7d73e7	0.06187811
109	0x3cce247d	0.025163883
110	0xbcbbf15e	-0.022942241
111	0xbe1287b9	-0.14309587
112	0x3bceedf4	0.0063149873
113	0x3d8c270f	0.06843387
114	0xbbf08af5	-0.0073407837
115	0xbcf8b8b8	-0.030361518
116	0x3ca1f3e4	0.019769616
117	0x3d31c657	0.043402042
118	0x3d50eac9	0.05100516
119	0x3e2aa4a7	0.16664372
120	0xbd6af29f	-0.057360288
121	0x3ba2b4ee	0.004965416
122	0x3ca651d4	0.02030269
123	0x3d98e09d	0.074647166
124	0x3be55bdb	0.0069994754
125	0x3d69a114	0.05703838
126	0xbd8ea0f3	-0.069642924
127	0xbda4eeef	-0.080533855
128	0x3db20b48	0.08693558
129	0x3d82899f	0.063739054
130	0x3d835cb7	0.06414168
131	0x3db2118e	0.086947545
132	0xbc818de1	-0.015814723
133	0xbd0876e3	-0.033316504
134	0xbd77ba3a	-0.060480334
135	0xbcded9d2	-0.027203474
136	0x3d43062d	0.04761331
137	0xbd3e5872	-0.046471067
138	0xbc810b68	-0.01575251
139	0xbc4ef742	-0.012632193
140	0x3d96be18	0.07360476
141	0xbd63ebcd	-0.0556448
142	0x3d971adb	0.07378169
143	0xbd9be199	-0.07611389
144	0xbd8810ff	-0.06643867
145	0xbdad2dde	-0.08456014
146	0x3da0b774	0.07847491
147	0xbd91c228	-0.071171105
148	0xbd846a4e	-0.064655885
149	0xbd8ac36d	-0.06775556
150	0xbd9956b6	-0.07487242
151	0x3da63868	0.081162274
152	0x3c3ccf77	0.011524073
153	0xbc7480d2	-0.014923291
154	0x3d579411	0.05263144
155	0x3b294457	0.0025828087
156	0xbd6fe056	-0.058563553
157	0xbbca77b7	-0.006178822
158	0xbd449ea4	-0.048002854
159	0xbcc7acaa	-0.024374325
160	0x3d2ca901	0.042153362
161	0xbd2f3133	-0.04277153
162	0xbd86fb83	-0.06590941
163	0xbd8d06b6	-0.06886046
164	0xbc73443c	-0.014847811
165	0x3b6dc699	0.0036281704
166	0xbda742f4	-0.08167067
167	0xbd8198a8	-0.06327945
168	0x3d637e7c	0.055540547
169	0xbc8341fb	-0.016022673
170	0xbda9584b	-0.08268794
171	0xbcda6b94	-0.026662625
172	0x3d6eae6c	0.05827181
173	0x3da5e752	0.081007615
174	0xbc4e511d	-0.012592581
175	0x3ca393fe	0.01996803
176	0x3d2dfdca	0.04247836
177	0xbda7d0b1	-0.081941016
178	0xbdb0e7aa	-0.086379364
179	0x3d94e412	0.072700635
180	0x3d28cc29	0.041210327
181	0xbd85013e	-0.064943776
182	0x3c84bd24	0.01620347
183	0x3d5d3aa0	0.054010987
184	0x3ca6270f	0.020282296
185	0xbc72966d	-0.014806372
186	0xbce1d547	-0.027567519
187	0xbc98baa6	-0.018643688
188	0xbc8dfe05	-0.01733304
189	0xbd2ca355	-0.042147953
190	0xbd952f39	-0.07284398
191	0xbd3ca21b	-0.046053033
192	0x3d418884	0.047249332
193	0xbda0a605	-0.07844166
194	0xbdb85d20	-0.09002137
195	0xbb264ded	-0.0025376037
196	0xbd202260	-0.039095283
197	0x3d7b0a2b	0.061288994
198	0x3d2bf7fa	0.041984536
199	0x3d4b9b6f	0.04970878
200	0xbd42a602	-0.0475216
201	0x3ca18e8d	0.019721294
202	0xbd63bf6f	-0.055602487
203	0x3d010487	0.03149846
204	0xba92d690	-0.0011202861
205	0x3ce0f56c	0.027460776
206	0xbc6447b7	-0.013933114
207	0x3c5ff651	0.013669566
208	0x3cb2e0d9	0.021835731
209	0x3d466e50	0.048445046
210	0x3b98b555	0.0046602883
211	0x3cbc453c	0.022982232
212	0x3c774512	0.015092151
213	0x3d7d0ad6	0.061777912
214	0x3da0f78a	0.07859714
215	0x3d44245a	0.04788623
216	0xbc0a851c	-0.008454587
217	0x3d6543d6	0.055972897
218	0xbd01f0f3	-0.031723928
219	0xbd97ba9e	-0.07408641
220	0xbc8df9b4	-0.017330982
221	0xbd95de05	-0.073177375
222	0xbd34b62a	-0.044119038
223	0x3d683ad8	0.056696743
224	0xbd98c355	-0.07459132
225	0x3ce2ec12	0.027700458
226	0x3cbca2b0	0.023026794
227	0xbcf9c48f	-0.030489234
228	0x3d7fc619	0.06244478
229	0xbd7dfca5	-0.06200852
230	0xbc620c93	-0.013796943
231	0x3c67eb87	0.014155275
232	0x3d08d3f1	0.033405248
233	0x3c71a813	0.014749545
234	0x3d276b2d	0.040873695
235	0xbccb858f	-0.02484396
236	0xbc6cc37b	-0.014450903
237	0xbcd7312e	-0.026268568
238	0xbd2f06b8	-0.042731017
239	0xbd47d5fb	-0.048788052
240	0xbcca3ae0	-0.024686277
241	0xbd506e92	-0.050886698
242	0x3bc8bb0e	0.0061258143
243	0x3de087a4	0.109633714
244	0x3d829d8b	0.06377705
245	0x3cfbdba4	0.030744381
246	0xbbee5af0	-0.007274024
247	0x3d83cce5	0.06435565
248	0x3eba4456	0.3638026
249	0x3e9f99e8	0.3117211
250	0xbe2d7b7e	-0.1694164
251	0x3e230864	0.1592117
252	0x3d4affdb	0.04956041
253	0xbd9d4f8b	-0.07681187
254	0x3d9f8ade	0.07790159
255	0x3d007950	0.031365693

fc2.bias f4 [50]
0	0xbd810b97	-0.06301039
1	0x3a7e47bb	0.000970002
2	0x3dcdcc74	0.10048762
3	0xbd9e6a79	-0.07735152
4	0x3e3a2169	0.18176807
5	0x3c162701	0.009164573
6	0xbd174601	-0.036931995
7	0x3cfd0984	0.030888326
8	0x3d95944a	0.073036745
9	0x3ce61cb0	0.028089851
10	0x3d072ad0	0.032999814
11	0xbd7ef1ee	-0.06224244
12	0xbda329d4	-0.079669625
13	0xbdbf78ed	-0.09349237
14	0xbd6e9ea6	-0.058256768
15	0xbd911b5c	-0.070852965
16	0x3d981fae	0.074279174
17	0xbc06dd0d	-0.008231414
18	0xbcbf8cee	-0.02338263
19	0xbd14cb68	-0.036326796
20	0x3e2bbe7e	0.16771886
21	0xbbd3c2d7	-0.0064624357
22	0xbd88dafe	-0.066823944
23	0xbcd126ea	-0.025531251
24	0x3e0c240b	0.13685624
25	0x3c62f965	0.013853406
26	0xbdb347e6	-0.08753948
27	0x3e2fff1e	0.17187163
28	0xbc8dbc87	-0.01730181
29	0xbd09984d	-0.03359251
30	0x3e361d30	0.17784572
31	0xbdb02950	-0.0860163
32	0x3d6c82d7	0.057741966
33	0x3def7d84	0.11693862
34	0x3dc0f050	0.09420836
35	0x3cca4df5	0.024695376
36	0x3b60c5f7	0.0034297684
37	0x3dccd6ed	0.10001931
38	0x3e0bf66a	0.13668218
39	0xbd4e8151	-0.050416294
40	0x3e49892f	0.19681238
41	0xbc83d9da	-0.01609509
42	0xbc8e3342	-0.017358426
43	0xbdba169b	-0.09086343
44	0x3d4aa498	0.049473375
45	0x3e15444b	0.14576833
46	0xbd75f6dd	-0.06004988
47	0xbdc75572	-0.09733094
48	0x3d99d7e7	0.07511883
49	0x3e3140e2	0.17309907

fc3.weight f4 [10, 50]
0	0x3e0fef26	0.14056072
1	0x3d828f62	0.06375004
2	0xbe9f462c	-0.31108224
3	0xbcd671da	-0.026177336
4	0x3e95feca	0.2929595
5	0x3dcf76af	0.10130059
6	0xbd96373c	-0.07334754
7	0x3f057bb2	0.5214187
8	0xbee4339b	-0.44570622
9	0x3e927e9f	0.2861223
10	0xbeba4c45	-0.36386314
11	0x3e04e140	0.12976551
12	0xbc2ca2af	-0.010536834
13	0x3dc59b72	0.096487895
14	0xbf04fa88	-0.5194478
15	0xbdf1a01b	-0.11798116
16	0x3ebe9fbc	0.37231243
17	0xbcd5ad9b	-0.026083758
18	0x3d4bc729	0.04975048
19	0x3e3a842f	0.18214487
20	0x3ec5e562	0.38651568
21	0xbe560e39	-0.20903863
22	0xbe1fc1b3	-0.15601234
23	0xbdbf79f0	-0.093494296
24	0xbf8b3408	-1.0875254
25	0xbde75196	-0.11294858
26	0x3d4ba2a5	0.049715657
27	0x3e8f1a39	0.27949694
28	0xbe0d1a15	-0.13779481
29	0xbd344a39	-0.044016097
30	0x3e5b5d12	0.21422222
31	0x3d2a5966	0.041589163
32	0xbf141aee	-0.5785359
33	0x3ec3146b	0.38101515
34	0x3cb1568d	0.021647716
35	0x3f07cc83	0.53046435
36	0xbde077b7	-0.10960334
37	0xbf8bf980	-1.0935516
38	0x3e369744	0.17831141
39	0x3d9c41a8	0.076297104
40	0xbed0e9ac	-0.40803277
41	0xbec51ac3	-0.3849698
42	0xbdc070bc	-0.093965024
43	0xbe06dd04	-0.13170248
44	0x3ed52198	0.41627192
45	0x3f06eebb	0.52708024
46	0xbdb7526c	-0.089512676
47	0xbd9eb3a5	-0.07749108
48	0x3dbfe14f	0.09369146
49	0xbf1cba0c	-0.61221385
50	0xbee642e4	-0.44972908
51	0xbcfa82a1	-0.030579867
52	0x3ef80d5e	0.48447698
53	0x3dd84fd5	0.10562102
54	0x3f7afbe0	0.9804058
55	0xbeb114e4	-0.3458625
56	0x3eadc5df	0.33940026
57	0x3e85a945	0.26105705
58	0x3e930628	0.28715634
59	0x3ec10a15	0.37703004
60	0xbd33d6ef	-0.04390615
61	0xba62e877	-0.0008655856
62	0x3e9894dc	0.2980107
63	0xbe19bfb4	-0.15014535
64	0xbeb5fbcc	-0.35543668
65	0x3dab0b4b	0.08351763
66	0xbf026dc5	-0.50948745
67	0x3dcc1ec9	0.09966809
68	0xbe3382f1	-0.17530419
69	0xbe39fa96	-0.18161997
70	0x3e968f28	0.29406095
71	0xbe85cb12	-0.26131493
72	0x3ab65ee0	0.0013913773
73	0x3e92bc33	0.2865921
74	0x3f0493bf	0.5178794
75	0xbbb60cb0	-0.0055557117
76	0x3dd822ea	0.10553534
77	0xbf579aa4	-0.8422034
78	0x3e401db5	0.18761332
79	0x3d333cac	0.043759033
80	0x3ec8b42f	0.3919997
81	0xbe0b8ddd	-0.13628335
82	0xbe269d53	-0.16270952
83	0xbde680db	-0.11255046
84	0xbf78f8f6	-0.97254884
85	0x3e4ff628	0.20308745
86	0x3dff9bd4	0.12480894
87	0x3db46701	0.08808709
88	0xbee8009f	-0.45312974
89	0x3dd56c14	0.10421005
90	0x3f2f91a1	0.6858159
91	0xbeab2d4b	-0.33432993
92	0xbd3cc6f9	-0.046088193
93	0xbdb4693f	-0.088091366
94	0xbd83c100	-0.06433296
95	0xbee271d7	-0.44227478
96	0x3d22c490	0.039738238
97	0x3ca56146	0.020187985
98	0xbe750f87	-0.23931704
99	0x3ee16c50	0.44027948
100	0xbe9af3cd	-0.3026413
101	0xbd951617	-0.07279604
102	0xbe01a2c7	-0.12659751
103	0xbec72e9c	-0.38902748
104	0x3d6a501d	0.05720531
105	0xbeceaaed	-0.4036478
106	0xbe277cd8	-0.16356218
107	0x3f265dfa	0.64987147
108	0xbcfc613e	-0.030808087
109	0x3ed2195a	0.41034967
110	0x3e270f85	0.16314514
111	0x3ce31940	0.027722001
112	0xbeb8980b	-0.360535
113	0x3d1551a1	0.0364548
114	0xbce76931	-0.028248401
115	0x3b7aa87f	0.0038247404
116	0xbf3faab0	-0.74869823
117	0xbcf398f4	-0.02973602
118	0xbdf7919e	-0.12088321
119	0xbd264463	-0.040592562
120	0x3de410fd	0.11136053
121	0x3dc15f1a	0.09441967
122	0xbe252a20	-0.1612935
123	0xbddfc266	-0.109257504
124	0x3e895a06	0.26826495
125	0xbdb653a5	-0.08902673
126	0x3dadc1eb	0.084842525
127	0x3e59f637	0.2128533
128	0xbcafb553	-0.021448767
129	0x3dc690eb	0.0969561
130	0xbddc0ca5	-0.10744599
131	0x3d15d680	0.036581516
132	0xbe0aa35d	-0.1353888
133	0x3f65068f	0.8946313
134	0xbd83ef0d	-0.0644208
135	0xbcdb87fd	-0.026798243
136	0x3d021d29	0.03176609
137	0x3dade662	0.08491208
138	0x3e892ff5	0.267944
139	0x3cf7375a	0.03017776
140	0x3e461ba7	0.19346486
141	0x3dfb00e1	0.12256027
142	0xbc6c0a4e	-0.014406754
143	0x3e076703	0.1322289
144	0x3e5a0c82	0.21293834
145	0x3da96d2f	0.08272778
146	0x3d8489e7	0.06471615
147	0x3e41ca4d	0.18924828
148	0xbe8646c4	-0.26225865
149	0xbe09e401	-0.13465883
150	0x3f144865	0.57922965
151	0x3d5148e6	0.051094912
152	0xbe94ee18	-0.290879
153	0xbe31ebee	-0.17375156
154	0x3f065039	0.5246616
155	0x3debe614	0.11518493
156	0x3f415151	0.75514704
157	0x3ed27b1a	0.41109544
158	0xbe860e1a	-0.26182634
159	0xbe3fb43e	-0.187211
160	0x3e064dc8	0.13115609
161	0x3dcf84c7	0.10132747
162	0x3f21e6c0	0.6324272
163	0x3e8d5479	0.2760351
164	0xbd205129	-0.0391399
165	0x3da630e1	0.08114792
166	0x3ea6f4af	0.32608554
167	0xbdbcf80f	-0.09227001
168	0xbd40eb88	-0.04709962
169	0xbd5a34cf	-0.05327302
170	0xbe7f3624	-0.24922997
171	0x3e908d49	0.28232792
172	0xbb90f1d7	-0.004423361
173	0x3cffb9f7	0.031216605
174	0x3ebc7084	0.36804593
175	0xbcc2cfa1	-0.023780646
176	0x3d6a8464	0.057255164
177	0x3d976b98	0.07393569
178	0x3dcdca87	0.10048395
179	0xbd4e51a9	-0.050370846
180	0xbdf579bb	-0.11986109
181	0xbce3f2bb	-0.027825704
182	0x3d957763	0.07298162
183	0xbe129f6e	-0.1431863
184	0xbcc269dd	-0.02373212
185	0xbe1a2a74	-0.15055257
186	0xbc5891f2	-0.01321839
187	0x3e4f6ba1	0.20255901
188	0x3e0354e7	0.12825356
189	0x3db308ac	0.087418884
190	0xbd0610f8	-0.032731026
191	0xbce0c3c7	-0.027437104
192	0xbc3150a3	-0.010822448
193	0x3b236b52	0.0024935794
194	0x3e2584b1	0.16163899
195	0xbd7540e8	-0.059876353
196	0x3ed5d811	0.41766408
197	0xbf6b881d	-0.9200457
198	0xbe0e5760	-0.13900518
199	0x3d0c2fd0	0.034225285
200	0x3eee62bd	0.46559706
201	0x3d8b0ad0	0.06789172
202	0xbdea7083	-0.11447241
203	0x3dce2f45	0.1006761
204	0x3d92877a	0.07154746
205	0x3e763542	0.24043754
206	0xbeb7d3a6	-0.35903662
207	0xbe82afd5	-0.25524774
208	0x3e967014	0.29382384
209	0x3d78e246	0.060762666
210	0x3df17e98	0.11791724
211	0x3d01dd2d	0.03170507
212	0x3df7d36b	0.12100872
213	0xbd8bc349	-0.06824357
214	0x3da626d9	0.08112878
215	0xbe095702	-0.13412097
216	0x3f081500	0.53157043
217	0x3dd462e7	0.103704266
218	0xbe05e14c	-0.13074225
219	0x3d33138f	0.043719824
220	0x3c8f8b2a	0.017522413
221	0xbc812b5a	-0.015767742
222	0x3d91cd8c	0.07119283
223	0x3ef97d5d	0.48728457
224	0x3f479561	0.7796231
225	0xbdd05a29	-0.10173447
226	0xbd8203a5	-0.063483514
227	0xbef58802	-0.47955328
228	0xbdc9792b	-0.09837564
229	0xbd83b313	-0.0643064
230	0x3cf6b95e	0.030117687
231	0xbd9d84bb	-0.07691332
232	0x3e5f89ab	0.2182986
233	0xbece3fee	-0.4028315
234	0x3cf530fd	0.029930586
235	0xbe6b52ed	-0.22980852
236	0x3dc600f9	0.09668154
237	0xbe0b14a8	-0.13582098
238	0x3ee6900f	0.45031783
239	0x3d32d6f4	0.043662027
240	0xbeff9d6e	-0.49924797
241	0xbd9f2368	-0.07770425
242	0xbdd0e2d1	-0.10199512
243	0x3daf0400	0.08545685
244	0xbf80dd9b	-1.0067629
245	0xbec253f0	-0.37954664
246	0xbd290039	-0.041259978
247	0xbd2ab68d	-0.041678
248	0x3e21010a	0.15723053
249	0x3e36b8cc	0.17843932
250	0xbe1946ff	-0.14968489
251	0x3d22f33c	0.039782748
252	0x3df268f0	0.118364215
253	0xbef194cd	-0.47183838
254	0xbe31574a	-0.17318454
255	0xbdaebed8	-0.08532494

fc3.bias f4 [10]
0	0x3e8fd17b	0.28089508
1	0xbdb0cb3d	-0.086325146
2	0xbc382008	-0.011238106
3	0x3c21b569	0.009869912
4	0xbd934212	-0.07190336
5	0x3d629a57	0.05532297
6	0x3d54aafa	0.05192087
7	0xbd7d9e26	-0.0619184
8	0x3d64a3eb	0.055820387
9	0x3b564466	0.0032694577
