models/trained_models/ConvNet_30_12.pth (torch, 185479 bytes, 10 tensors)

conv1.weight f4 [6, 3, 3, 3]
0	0x3e1b64d6	0.15175185
1	0x3d768ef0	0.06019491
2	0xbcaef206	-0.02135564
3	0x3e27944f	0.16365169
4	0x3cb8da21	0.02256495
5	0xbe217419	-0.15766944
6	0xbdba9393	-0.09110179
7	0x3d936b98	0.07198256
8	0x3da22729	0.079176255
9	0xbd27559c	-0.040853128
10	0x3e0eabe6	0.13932762
11	0x3e2d1ef1	0.16906334
12	0x3dc3d0e8	0.0956133
13	0xbd918512	-0.07105459
14	0x3e0ab975	0.13547309
15	0x3e2ee3f3	0.17079143
16	0x3d0ba92f	0.034096893
17	0xbd324214	-0.04352005
18	0x3e1bbd80	0.15209007
19	0x3cf212ce	0.029549982
20	0xbd9d43b5	-0.0767893
21	0xbb95d6c4	-0.004572721
22	0x3b39f726	0.0028376072
23	0x3cc7a614	0.024371184
24	0xbe3a5d92	-0.18199757
25	0xbd0b392e	-0.033990078
26	0x3d825aba	0.06364961
27	0x3fae298b	1.3606428
28	0xbebf232c	-0.37331522
29	0xbf891790	-1.0710316
30	0x3fb1e9ef	1.3899516
31	0xbeafd5eb	-0.34342894
32	0xbf8d5134	-1.1040406
33	0x3fc64185	1.5488745
34	0xbefebbab	-0.49752554
35	0xbf8ab5f0	-1.0836773
36	0x3fc25c21	1.5184366
37	0xbe711254	-0.23542148
38	0xbf909d85	-1.1298071
39	0x3fd7007a	1.679702
40	0xbe87847d	-0.26468268
41	0xbf7e7869	-0.9940248
42	0x3fbe7432	1.487921
43	0xbf25b73b	-0.6473271
44	0xbf93b1b6	-1.1538608
45	0x3fcaca0a	1.5842907
46	0xbecf4c12	-0.40487725
47	0xbf942c98	-1.1576109
48	0x3fd4a3a9	1.6612445
49	0xbe2ecd9b	-0.1707062
50	0xbf972102	-1.1806948
51	0x3fd0f1a6	1.6323745
52	0xbf38e028	-0.72217035
53	0xbf8a302e	-1.0795953
54	0xbed7b6ad	-0.42131558
55	0xbee6b7cd	-0.45062104
56	0x3f40b24b	0.75272053
57	0xbefc1b0d	-0.49239388
58	0xbe8562f6	-0.26052064
59	0x3f283c5e	0.65717113
60	0xbeb4584d	-0.35223618
61	0xbf17b0dd	-0.59254247
62	0x3f29bc2b	0.66302747
63	0xbf26fbcf	-0.6522798
64	0xbea8f5a1	-0.329999
65	0x3f0638d0	0.5243044
66	0xbeeb2e03	-0.45933542
67	0xbf1d4ab4	-0.6144211
68	0x3f291202	0.660431
69	0xbee25bc4	-0.44210637
70	0xbeccca36	-0.39998025
71	0x3f3fb9d5	0.7489293
72	0xbf119a38	-0.56875944
73	0xbe9919a4	-0.29902375
74	0x3f34243c	0.7036779
75	0xbf2863eb	-0.6577746
76	0xbeab493f	-0.3345432
77	0x3f0196ed	0.5062092
78	0xbeeccfa0	-0.46252155
79	0xbef54889	-0.47906902
80	0x3f53ce0f	0.82736295
81	0x3e41674f	0.18887065
82	0xbdc0aa34	-0.09407464
83	0x3e412b39	0.18864144
84	0xbd4742a1	-0.048647527
85	0xbdacf224	-0.08444622
86	0xbcc1e510	-0.023668796
87	0xbcdc76ed	-0.026912177
88	0x3e16655b	0.14687102
89	0x3d60ed17	0.054913606
90	0xbdbfc46b	-0.09363636
91	0xbe281927	-0.16415845
92	0x3b4eb414	0.003154044
93	0xbe0f152a	-0.13972917
94	0x3c9bab1f	0.019002495
95	0x3c69c3b4	0.014267851
96	0x3dd529b7	0.10408347
97	0x3dfbeab9	0.12300629
98	0xbdbe9fa7	-0.09307795
99	0xbc275d11	-0.01021506
100	0xbe0263cb	-0.1273338
101	0x3da77284	0.08176139
102	0x3e1a9d95	0.15099175
103	0xbdf6773e	-0.120344624
104	0x3e1c17b8	0.15243423
105	0x3e1a8b56	0.15092215
106	0xbd0187fe	-0.031623833
107	0xbd24b086	-0.04020741
108	0xbe4b1769	-0.19833149
109	0x3e3a5796	0.18197474
110	0x3e8ec713	0.27886257
111	0x3d161829	0.036644135
112	0xbdbce20a	-0.09222801
113	0x3e2b2d83	0.1671658
114	0x3e18b566	0.14912948
115	0xbe54b539	-0.20772256
116	0xbc194aac	-0.009356182
117	0xbda8ce8a	-0.08242519
118	0xbd7278e4	-0.05919732
119	0x3ddf86b9	0.10914368
120	0xbe2227bd	-0.15835471
121	0x3aa5d385	0.0012651539
122	0x3e173281	0.1476536
123	0xbe1e6af4	-0.15470487
124	0xbd0f9c99	-0.035061453
125	0xbd83228e	-0.06403075
126	0xbe7ad32f	-0.24494623
127	0x3deea0e3	0.116517805
128	0x3e236adb	0.15958731
129	0x3db79b38	0.089651525
130	0xbdeb8721	-0.11500383
131	0xbcf64b8c	-0.03006532
132	0x3ca15de3	0.019698089
133	0xbe8320b6	-0.25610894
134	0x3e1575c5	0.14595707
135	0xbe823407	-0.2543032
136	0x3e1f76cf	0.15572666
137	0x3c2c0425	0.010499035
138	0xbda7334c	-0.08164081
139	0x3e07e53c	0.1327104
140	0xbce220bc	-0.0276035
141	0xbe88104e	-0.2657494
142	0xbd7b2116	-0.06131085
143	0xbe127cd8	-0.14305437
144	0xbdef2cce	-0.11678468
145	0xbdbf195f	-0.09331011
146	0xbcebcdfb	-0.028784743
147	0xbe6b22e7	-0.22962533
148	0xbc788225	-0.015167748
149	0xbd0cb418	-0.03435144
150	0xbd790164	-0.06079234
151	0xbd9258bb	-0.0714583
152	0x3d8b0420	0.06787896
153	0x3c1b87d4	0.009492833
154	0x3e16debf	0.14733408
155	0x3d4c4ba5	0.049876828
156	0xbe623828	-0.22091734
157	0xbe2b4159	-0.16724147
158	0xbd50b19d	-0.050950635
159	0xbe868bb5	-0.26278463
160	0xbd43e724	-0.047827855
161	0xbde2dd88	-0.1107741

conv1.bias f4 [6]
0	0x3e12bfc4	0.14330965
1	0x3f05e398	0.52300406
2	0x3dc843fe	0.097785935
3	0xbddc878f	-0.10768043
4	0x3e1ee42b	0.15516727
5	0xbc8031a5	-0.015648672

conv2.weight f4 [16, 6, 2, 2]
0	0x3e2c24f5	0.16810973
1	0x3e362ced	0.17790575
2	0x3c0a2b3f	0.008433162
3	0x3a59407c	0.0008287502
4	0xbf0deeec	-0.5544269
5	0xbe613d22	-0.21995977
6	0xbef77c54	-0.48337042
7	0xbef1e120	-0.4724207
8	0x3ef8fe5e	0.48631567
9	0x3eb18252	0.3466974
10	0x3ef9bdb6	0.4877755
11	0x3de9d88f	0.114182584
12	0x3ced64a9	0.028978663
13	0x3e2cac15	0.16862519
14	0xbc13f19b	-0.009029771
15	0x3db069d1	0.08613933
16	0x3e266398	0.1624893
17	0xbde18ea4	-0.11013535
18	0xbd1b7e92	-0.037962504
19	0x3e1a63ca	0.15077129
20	0xbd7d06a2	-0.061773904
21	0xbd75da7b	-0.060022812
22	0xbe06c1cc	-0.13159865
23	0x3d77fa52	0.06054146
24	0xbc653a05	-0.013990884
25	0x3e4364e9	0.19081463
26	0xbcaf2406	-0.021379482
27	0x3cab5c45	0.020918021
28	0xbd4afbf6	-0.049556695
29	0x3e44b090	0.19207978
30	0xbdef9c06	-0.11699681
31	0xbe15cbca	-0.1462852
32	0xbd22b270	-0.039720953
33	0xbbb96b70	-0.0056585595
34	0xbd0a7347	-0.033801343
35	0x3e1bcb9d	0.15214391
36	0x3e04cdcd	0.12969132
37	0xbcb6a445	-0.022295127
38	0xbd67bcce	-0.056576543
39	0x3d9845c8	0.07435185
40	0x3e421140	0.18951893
41	0xbe070c8a	-0.13188377
42	0x3c01a55d	0.007912961
43	0x3dd35ed3	0.10320821
44	0x3cc08bb2	0.023504112
45	0xbcdc89e2	-0.026921216
46	0xbe081825	-0.1329046
47	0xbe144d2f	-0.14482568
48	0x3d48f175	0.049058396
49	0x3e3b8fa5	0.18316515
50	0x3c52f901	0.01287675
51	0x3cf5094b	0.029911658
52	0xbf874c03	-1.0570072
53	0xbf120637	-0.57040733
54	0xbf5987e2	-0.84972966
55	0xbf3823f2	-0.7192985
56	0x3e9c08d7	0.30475494
57	0x3ebd5ddf	0.3698568
58	0x3ec2cbd5	0.38046136
59	0x3e97ef29	0.29674652
60	0x3d3c4f50	0.045974076
61	0x3e4034b0	0.18770099
62	0xbe20c487	-0.15699969
63	0x3e142ccd	0.14470215
64	0x3e6c14b1	0.23054768
65	0x3dca9801	0.09892274
66	0x3ddc1843	0.10746815
67	0x3bfc0e39	0.007692125
68	0xbdc7a520	-0.09748292
69	0x3d6da5e1	0.058019523
70	0x3e851390	0.25991488
71	0xbe38fff4	-0.18066388
72	0x3e279312	0.16364697
73	0x3dfe76fc	0.12425038
74	0x3d876eef	0.06612956
75	0xbe33d990	-0.17563462
76	0x3f3a1702	0.7269136
77	0x3f802658	1.0011702
78	0x3f013c6b	0.50482816
79	0x3f0f3076	0.5593332
80	0xbdc28a6d	-0.09499059
81	0xbe826aa1	-0.25471976
82	0xbd53167c	-0.051535115
83	0x3d6ac898	0.057320207
84	0xbd21a83c	-0.03946708
85	0xbcce65ff	-0.02519512
86	0x3e029ec8	0.12755883
87	0x3d0a7a86	0.033808254
88	0x3dca921c	0.098911494
89	0xbe46825a	-0.19385663
90	0x3e657c33	0.2241066
91	0xbb1dd456	-0.002408286
92	0x3cc293ea	0.023752172
93	0xbe2558a3	-0.16147093
94	0xbe32507c	-0.17413515
95	0x3d54665e	0.051855437
96	0xbdc72f94	-0.09725872
97	0x3e503534	0.20332795
98	0xbde0e389	-0.10980899
99	0xbd713e74	-0.05889745
100	0x3c772417	0.015084288
101	0xbf57e9db	-0.8434121
102	0x3eb5db7f	0.35519025
103	0xbe77e504	-0.24208456
104	0xbd6dc6c0	-0.05805087
105	0xbda58b96	-0.080832645
106	0xbde854ed	-0.11344323
107	0x3db29757	0.08720272
108	0xbe185065	-0.14874418
109	0x3e0d7f54	0.13818103
110	0x3e2752d6	0.16340193
111	0xbe018c17	-0.12651096
112	0xbe70e529	-0.23524918
113	0x3e3e31fa	0.18573752
114	0x3df08612	0.11744322
115	0xbd04c304	-0.032412544
116	0x3e3705dc	0.17873329
117	0x3e96ddbf	0.29466054
118	0x3e8dcacd	0.27693787
119	0x3e1736ee	0.14767048
120	0x3d4934f2	0.04912276
121	0xbdefdaee	-0.117116794
122	0x3d2ef385	0.042712707
123	0x3df42a08	0.11922079
124	0x3ca76bc5	0.02043713
125	0xbd5a0d10	-0.053235114
126	0x3d09a7cc	0.03360729
127	0x3df8faad	0.121571876
128	0x3e17b58b	0.14815347
129	0xbe3b1173	-0.18268375
130	0x3daa3c96	0.08312337
131	0xbc9531fa	-0.018212307
132	0xbbd37727	-0.006453413
133	0xbe19dce0	-0.15025663
134	0x3e2cf1d2	0.16889122
135	0xbdc5eb5e	-0.09664033
136	0xbdd198ff	-0.1023426
137	0xbcce63f3	-0.025194144
138	0x3de5e00d	0.11224375
139	0x3e2ff3c6	0.17182836
140	0x3ceea445	0.029131064
141	0x3afb5ea9	0.0019177991
142	0x3c8f7f49	0.017516749
143	0xbe1b6273	-0.15174274
144	0x3cf06d74	0.029349066
145	0xbc923be9	-0.017850833
146	0xbe40db84	-0.18833739
147	0x3cf5bae1	0.029996337
148	0x3d2b9fc8	0.041900426
149	0xbd778a25	-0.06043448
150	0x3d4c8d92	0.0499397
151	0x3e3c256c	0.1837365
152	0x3cf4f9db	0.029904297
153	0x3d0cc4c1	0.034367327
154	0x3e2f9435	0.1714638
155	0xbdfdd8a0	-0.123948336
156	0xbe46e3c9	-0.1942283
157	0xbdef70a5	-0.11691407
158	0xbdaba9e7	-0.08382016
159	0x3d3baf82	0.045821674
160	0x3de13686	0.10996728
161	0x3dfc258b	0.12311848
162	0x3e436891	0.19082858
163	0xbe4e70e4	-0.20160252
164	0x3c11ee10	0.008906856
165	0xbe246c92	-0.16057041
166	0xbe4febb3	-0.20304756
167	0xbc61f46c	-0.013791185
168	0xbe2d04fd	-0.16896434
169	0x3d81b048	0.06332451
170	0xbe313c61	-0.17308189
171	0x3cd46cc4	0.02593077
172	0x3e6a7c7a	0.22899047
173	0x3d84554b	0.06461581
174	0xbe3666b1	-0.17812611
175	0xbe16ee9b	-0.14739458
176	0x3e2e78c5	0.17038257
177	0xbdbf0d1e	-0.09328674
178	0x3db1b46f	0.08676993
179	0x3e3653d0	0.1780541
180	0x3e04dbaf	0.12974428
181	0x3d7968a2	0.0608908
182	0x3e2f0aef	0.17094015
183	0x3d74c115	0.05975445
184	0xbc34bf5f	-0.011031955
185	0x3d9804e8	0.07422811
186	0x38665ac0	5.492079e-05
187	0x3d4b757b	0.049672585
188	0xbd4d538e	-0.050128512
189	0xbd85659d	-0.06513522
190	0xbe2f53d0	-0.17121816
191	0xbd8be54f	-0.068308465
192	0xbdd09c88	-0.10186106
193	0xbd9265ef	-0.071483485
194	0x3ccb0680	0.024783373
195	0xbe0519fc	-0.12998194
196	0x3e1f5e80	0.15563393
197	0x3d88a1f0	0.06671512
198	0x3d3bf53e	0.045888178
199	0xbc17b79f	-0.009260087
200	0xbe00caad	-0.12577315
201	0xbe1c0fea	-0.15240446
202	0x3e300c92	0.17192295
203	0xbe400a81	-0.18754007
204	0x3c9a7c7e	0.01885819
205	0x3e4e1efd	0.20129009
206	0x3cd35d14	0.025801219
207	0x3e146049	0.14489855
208	0x3d67058e	0.05640178
209	0xbe1e904d	-0.15484734
210	0xbddc6d75	-0.10763065
211	0xbe0591a2	-0.13043836
212	0x3e18f04b	0.14935414
213	0xbde52a9c	-0.11189768
214	0xbdff7e4e	-0.124752626
215	0xbe14bd77	-0.145254
216	0xbdc8a02d	-0.09796176
217	0x3d3e20be	0.046417944
218	0xbd4eb454	-0.050464943
219	0x3e265f74	0.1624735
220	0x3f416812	0.75549424
221	0xbf58ed3d	-0.84736997
222	0x3f91f28d	1.1402146
223	0xbf2dd8e9	-0.67909104
224	0xbe8036c5	-0.25041786
225	0x3eff13f6	0.49819916
226	0xbe668754	-0.22512561
227	0x3ed294a0	0.41129017
228	0x3e12b61b	0.1432728
229	0xbc5741f8	-0.013138287
230	0xbdf67beb	-0.12035354
231	0x3cf86593	0.030321872
232	0xbe76b639	-0.2409295
233	0x3e40cf56	0.18829092
234	0xbe24f393	-0.16108541
235	0x3e0bd9b3	0.13657264
236	0xbe136ef7	-0.14397798
237	0x3e47154c	0.19441718
238	0x3de9dba5	0.11418847
239	0x3daab77e	0.083357796
240	0xbbb1bd51	-0.0054241796
241	0xbdaf978f	-0.085738294
242	0x3db03c12	0.086052075
243	0xbd395bed	-0.045253683
244	0xbfe33e56	-1.7753398
245	0x3fc79476	1.5592182
246	0xc001ec3c	-2.0300436
247	0x3fcc8a99	1.5979797
248	0x3f6c2f43	0.92259616
249	0xbf114b3c	-0.56755424
250	0x3f97205b	1.1806749
251	0xbe83e60d	-0.25761452
252	0xbd4bdce8	-0.04977122
253	0xbd8d39be	-0.06895779
254	0x3e1aaa71	0.1510408
255	0xbe050b3a	-0.12992564

conv2.bias f4 [16]
0	0xbe007011	-0.1254275
1	0xbdaa6e4d	-0.083218195
2	0x3c43f640	0.011960566
3	0xbbd4795f	-0.006484195
4	0x3dda7928	0.1066764
5	0xbe193d30	-0.14964747
6	0xbdead29d	-0.114659525
7	0xbe3b8493	-0.18312292
8	0x3d9326ce	0.07185136
9	0x3e326fd4	0.17425472
10	0x3eacd459	0.33755758
11	0xbd98d8ab	-0.07463201
12	0x3db0459c	0.08607027
13	0xbc750270	-0.014954194
14	0xbd882504	-0.06647685
15	0xbe296086	-0.16540727

fc1.weight f4 [120, 320]
0	0xbd589eae	-0.052885704
1	0xbd673d7e	-0.056455128
2	0xbd40982c	-0.047020122
3	0x3d2efe3b	0.04272292
4	0x3cf0e5ed	0.029406512
5	0x3bddfc61	0.0067744707
6	0xbd01db44	-0.03170325
7	0x3cf99105	0.030464659
8	0xbd0a0513	-0.033696245
9	0x3c874592	0.016512666
10	0x3d0fad7b	0.035077553
11	0xbc180dc5	-0.009280627
12	0x3cef2eb9	0.029197084
13	0xbd274a1c	-0.04084216
14	0xbcbcc210	-0.023041755
15	0x3d1008f2	0.03516478
16	0xbc6e489f	-0.014543681
17	0x3a8cbb43	0.0010736961
18	0xbc4c7397	-0.012478731
19	0x3d4200b4	0.04736395
20	0x3d560c96	0.052258097
21	0x3c2c09ca	0.010500381
22	0xbcb53d67	-0.022124005
23	0xbc1a7618	-0.00942757
24	0xbd35a431	-0.04434604
25	0xbcb48327	-0.022035195
26	0xbbe185c4	-0.006882401
27	0xbba5bd47	-0.005057964
28	0xbc6e1aae	-0.014532728
29	0xbc3734e9	-0.011182048
30	0x3bc9c6bc	0.006157724
31	0x3d5e4f53	0.05427487
32	0x3d02d008	0.031936675
33	0xbc5e1d0e	-0.013556732
34	0xbccd9ace	-0.02509823
35	0x3a8982dd	0.0010491271
36	0x3b90d6d0	0.004420139
37	0xbc8beaaa	-0.01707967
38	0xbce5efc3	-0.028068429
39	0x3c98eea8	0.018668488
40	0xbd23d365	-0.039996523
41	0xbd04c503	-0.032414448
42	0x3d2adecd	0.041716386
43	0x3d8b405b	0.06799384
44	0x3d419a8f	0.04726654
45	0xbd27be3f	-0.040952917
46	0xbc08c338	-0.008347325
47	0xbd457514	-0.048207358
48	0xbd95eb9e	-0.07320331
49	0x3ccf5bc0	0.025312304
50	0xbd4e9557	-0.05043539
51	0xbc87540e	-0.016519573
52	0xbbe01bfc	-0.0068392735
53	0xbb01e919	-0.0019822775
54	0xbcb6cef1	-0.022315474
55	0xbd64ebd1	-0.055888955
56	0xbcecdb91	-0.028913291
57	0xbcc149a1	-0.02359468
58	0xbcc26a73	-0.0237324
59	0x3d03ab7a	0.032145955
60	0x3ccecde8	0.025244668
61	0xbd30a6e5	-0.043127913
62	0xbd11663b	-0.035497885
63	0xbd8650c5	-0.06558374
64	0x3ca9e8b6	0.020740848
65	0x3d19acb9	0.037518237
66	0x3cafaa31	0.021443458
67	0xbd051b65	-0.03249683
68	0xbce6e02a	-0.028183062
69	0x3d422a69	0.047403727
70	0x3c9a94cd	0.018869782
71	0x3c39b1a2	0.011333855
72	0xbce8e56e	-0.028429713
73	0xbc5c9844	-0.013464037
74	0xbc2b2d69	-0.010447838
75	0x3d47538e	0.04866367
76	0x3c284a5b	0.010271634
77	0x3cc3d6a2	0.023906056
78	0x3c04bd81	0.008101822
79	0xbbc81f8c	-0.0061072763
80	0x3c3b4799	0.011430644
81	0xbd24e3dc	-0.040256366
82	0xbd152eda	-0.036421634
83	0xbc98d672	-0.018656943
84	0x3cc66bf6	0.024221402
85	0x3ca05739	0.019572841
86	0xbd1da244	-0.038484827
87	0xbd0d6a48	-0.034525186
88	0x3d3de266	0.04635849
89	0x3d44d897	0.04805812
90	0x3badde0b	0.0053060106
91	0xbca0dc6e	-0.019636359
92	0xbd36dd9e	-0.044644944
93	0xbd68879c	-0.056769952
94	0x3cd3b5a5	0.02584345
95	0x3d14ff0a	0.036376037
96	0xbd41471e	-0.047186963
97	0xba3a9b3c	-0.00071184686
98	0x3d2ce0d7	0.04220661
99	0x3a022f98	0.00049661985
100	0xbc18fb5a	-0.009337271
101	0xbd2ec8c5	-0.042671937
102	0x3cec07bb	0.02881228
103	0xbc6f1d1c	-0.014594343
104	0xbd13f9e6	-0.036126994
105	0x3d284963	0.041085612
106	0xbd2bc37d	-0.04193448
107	0x3bc82acf	0.006108619
108	0xbca4ef53	-0.02013365
109	0xbd1f219c	-0.03885041
110	0xbca7ecd6	-0.020498674
111	0xbd08428e	-0.033266596
112	0xbd1432b4	-0.036181167
113	0xbcce7d1c	-0.025206141
114	0x3c78959f	0.015172391
115	0x3cd4aa8d	0.025960231
116	0x3ce49149	0.027901309
117	0xbc00871c	-0.007844713
118	0x3cdead36	0.027182203
119	0xbd2dac9e	-0.04240095
120	0xbac9861d	-0.0015375052
121	0xbcd4824a	-0.025941033
122	0x3c311a92	0.0108095575
123	0xbce54b69	-0.02799006
124	0xbd1f5b11	-0.038905207
125	0x3d35c3f9	0.044376347
126	0xbd249627	-0.04018226
127	0x3cb9e23d	0.022690887
128	0xbd4dae62	-0.050215133
129	0x3d634a31	0.055490676
130	0x3d60649a	0.05478344
131	0x3bb3787d	0.00547701
132	0xbd13e555	-0.03610738
133	0x3d4a0817	0.04932412
134	0xbd618e69	-0.055067454
135	0x3d5fbad9	0.05462155
136	0x3d57e4a4	0.052708283
137	0x3c941afa	0.01807927
138	0x3d016ab9	0.03159592
139	0x3d49504f	0.049148854
140	0x3ca53e40	0.020171285
141	0x3d195d34	0.0374424
142	0x3d5ccf2e	0.05390852
143	0xbd572f4b	-0.052535336
144	0xbd0a94ea	-0.03383342
145	0x3ce3df55	0.027816454
146	0x3d51cd55	0.05122121
147	0xbd17bddf	-0.03704631
148	0x3d3291a0	0.04359591
149	0xbcb6469b	-0.022250464
150	0xbd4ac9ea	-0.049508967
151	0x3c224235	0.00990348
152	0x3d00a2e5	0.03140535
153	0x3d30e3c1	0.043185953
154	0xbd3a5d13	-0.04549892
155	0x3d352dc1	0.044233087
156	0xbd08ffa3	-0.03344692
157	0xbc061b07	-0.008185155
158	0x3b999f61	0.004688189
159	0xbd5183ae	-0.05115097
160	0xbd2ee664	-0.042700186
161	0x3c78e7f8	0.015192024
162	0x3d5ea31c	0.054354772
163	0xbca785cc	-0.020449542
164	0x3b2d0adb	0.0026404175
165	0xbd337744	-0.043814912
166	0x3d3afcab	0.04565112
167	0xbcc013c0	-0.023446918
168	0x3cfb573f	0.03068125
169	0x3d0cbf3b	0.03436206
170	0x3ce270f9	0.02764176
171	0x3c3adf4e	0.011405779
172	0x3b72d7f2	0.0037054983
173	0x3a739cd4	0.00092930836
174	0xbd4c1301	-0.04982281
175	0x3bb5c970	0.005547695
176	0x3c90ff5b	0.017699888
177	0x3c84a87e	0.016193625
178	0x3c19aa2a	0.009378949
179	0x3c9aa6bb	0.018878331
180	0x3da4bdc2	0.08044006
181	0xbbac2eab	-0.0052545867
182	0x3d2f4ece	0.042799763
183	0xbc51e5cf	-0.012811138
184	0xbbd90228	-0.0066225715
185	0xbd4f6cef	-0.050640997
186	0x3cfb6280	0.030686617
187	0x3d4bb3ec	0.049732134
188	0x3da7da3c	0.08195922
189	0x3bfcc914	0.0077144
190	0x3a8f051b	0.0010911556
191	0xbd4d22fd	-0.050082196
192	0xbd40bd6e	-0.047055654
193	0x3a9b932c	0.0011869422
194	0xbd5584ee	-0.052128725
195	0xbcb1ffe4	-0.021728463
196	0x3bbea798	0.0058183186
197	0x3c90c3db	0.017671516
198	0x3d04b3f5	0.032398183
199	0x3cb87981	0.022518875
200	0xbd8e6523	-0.06952884
201	0xbdaa5772	-0.0831746
202	0xbd8b4011	-0.06799329
203	0x3d8cdf6f	0.06878554
204	0x3ddd2b27	0.10799246
205	0x3d6a0507	0.0571337
206	0xbd0a730d	-0.033801127
207	0xbc65ae8b	-0.014018665
208	0xbcf68da4	-0.030096836
209	0xbbf03366	-0.007330346
210	0xbc82951d	-0.015940243
211	0x3ccfd0fe	0.02536821
212	0x3d8a006e	0.06738363
213	0xbaa5a235	-0.0012636842
214	0xbce0abe5	-0.027425716
215	0x3d89302b	0.066986404
216	0x3b59a211	0.0033208171
217	0x3d58453a	0.052800395
218	0x3d3d8a77	0.04627463
219	0x3d1ccd0c	0.038281485
220	0x3d487aca	0.048945226
221	0xbd2b7533	-0.041859817
222	0xbd54157a	-0.051778294
223	0x3d341ede	0.04397475
224	0xbcb86cbf	-0.022512792
225	0x3c49f911	0.012327448
226	0xbd526f3d	-0.051375616
227	0xbb840ef3	-0.0040301024
228	0xbd2b6df4	-0.041852906
229	0x3cecfefc	0.02893018
230	0xbc99b33a	-0.01876222
231	0x3d378cd5	0.044812042
232	0xbcdd2664	-0.026995845
233	0xbc1c5314	-0.009541292
234	0xbc6514d9	-0.013982021
235	0x3d11705d	0.03550755
236	0xbd1337e8	-0.03594199
237	0x3c1adddc	0.009452309
238	0xbd26db3f	-0.040736433
239	0x3c9e0e5d	0.019293958
240	0x3cfe92fe	0.03107595
241	0x3d4796b6	0.048727714
242	0x3d5c1ded	0.053739477
243	0x3bf19932	0.0073729986
244	0xbcbb75bf	-0.022883294
245	0xbdabed07	-0.08394819
246	0x3bb55b21	0.005534545
247	0x3ce36136	0.027756315
248	0x3d3b70ac	0.04576175
249	0x3d33ac04	0.04386522
250	0x3ce12b07	0.027486337
251	0xbd0e0f80	-0.03468275
252	0xbd3305f9	-0.043706868
253	0x3be9363c	0.007117061
254	0xbd3b2646	-0.045690797
255	0x3cb13645	0.021632323

fc1.bias f4 [120]
0	0xbd038965	-0.03211345
1	0x399bd0df	0.00029719525
2	0x3a8a0bb6	0.0010532055
3	0xbcbaede5	-0.022818515
4	0xbcef4b7f	-0.029210804
5	0xbd39590a	-0.04525093
6	0xbd5c9f9e	-0.05386316
7	0xbcce6d3b	-0.02519857
8	0x3cbc86f6	0.023013573
9	0xbd1a5196	-0.037675463
10	0x3d44063d	0.04785751
11	0x3cd5ceb7	0.026099546
12	0x3c2bca1c	0.010485198
13	0xbcb9acf4	-0.022665478
14	0x3c96d919	0.018414067
15	0xbb0d145f	-0.0021527035
16	0xbccc311d	-0.024925763
17	0xb76542e1	-1.3665035e-05
18	0x3d17640a	0.03696064
19	0x3cdb4d0a	0.026770134
20	0x3cf12aaf	0.029439298
21	0xbcdd830a	-0.027040023
22	0xbd554a5c	-0.052072868
23	0x3d9ba6bc	0.076001614
24	0xbc94131c	-0.018075518
25	0x3c841c44	0.01612676
26	0xbd270df8	-0.040784806
27	0xbaa664ef	-0.0012694875
28	0x3cf0129d	0.02930575
29	0x3d65ec2c	0.056133434
30	0xbc804664	-0.015658565
31	0xbbbc9f07	-0.005756262
32	0xbbf43cb2	-0.0074535245
33	0x3d024409	0.031803165
34	0xbd42f53c	-0.047597155
35	0x3d72b140	0.05925107
36	0xbd814295	-0.06311528
37	0xbd0eff3e	-0.034911387
38	0x3d473a24	0.04863943
39	0xbd432548	-0.047642976
40	0x3d3f0c9e	0.046642892
41	0xbc62b2e6	-0.013836598
42	0xbb1a2098	-0.0023517963
43	0x3dae061b	0.08497258
44	0x3a8962d2	0.0010481721
45	0xbbf50471	-0.007477336
46	0x3cd98a59	0.026555227
47	0xbbb75db3	-0.0055958866
48	0x3a9d11fa	0.0011983507
49	0x3d63798d	0.05553584
50	0x3c75d7a0	0.015005022
51	0xbcba8449	-0.022768157
52	0x3ae4faba	0.0017469742
53	0xbcc5574f	-0.024089484
54	0x3d7fc91c	0.062447652
55	0x3d23a00a	0.039947547
56	0x3d547173	0.051866006
57	0x3d0a3b33	0.033747863
58	0xbb925004	-0.004465105
59	0x3d4f0caf	0.050549205
60	0x3cdc11a8	0.026863888
61	0x3c11bd86	0.008895284
62	0x3d0c4969	0.034249697
63	0xbd4bf0ea	-0.0497903
64	0x3cdbd4e1	0.026834907
65	0xbc4d487a	-0.012529487
66	0x3d9e9d5c	0.07744858
67	0xbd077b82	-0.03307677
68	0xbb9fbbd0	-0.004874684
69	0xbcae2f78	-0.02126287
70	0x3d2c3d01	0.042050365
71	0x3d77247c	0.06033753
72	0x3ade32c9	0.0016952391
73	0xbb6b824e	-0.0035935822
74	0x3cda60ff	0.02665758
75	0x3cd104aa	0.02551492
76	0xbc90d2f0	-0.017678708
77	0x3cd97752	0.026546154
78	0xbcbabf8d	-0.022796417
79	0x3bf350fa	0.0074254246
80	0x3c121ad6	0.008917531
81	0xbb780cee	-0.0037849504
82	0x3d29a0d5	0.041413147
83	0xbd3a75a8	-0.045522362
84	0x3b936e35	0.0044992217
85	0xbca08939	-0.019596683
86	0xbbbe2c5a	-0.005803627
87	0x3d35fed0	0.04443246
88	0x3c82a17c	0.015946142
89	0x3bd022e1	0.006351814
90	0x3dcddddc	0.10052082
91	0x3d5aa396	0.053378664
92	0x3d1ee79d	0.038795102
93	0x3da9a5fe	0.082836136
94	0x3afcb4ac	0.0019279919
95	0x3d7ce951	0.061745945
96	0x3d4979b7	0.049188342
97	0x3d657d0c	0.056027457
98	0x3c59f1c1	0.0133022675
99	0x3d48c018	0.04901132
100	0x3d9fc449	0.0780111
101	0x3d3d04cd	0.046147157
102	0xbc688c7d	-0.014193651
103	0xbd157137	-0.036484923
104	0x3d15d3b7	0.03657886
105	0x3d59e060	0.053192496
106	0x3d419ca8	0.04726854
107	0xbd21e19c	-0.0395218
108	0x3c8d27d5	0.017230907
109	0x3dad2ca4	0.0845578
110	0x3d2cdb22	0.04220117
111	0xbd826956	-0.063677475
112	0x3da97e54	0.08276048
113	0xbbc95349	-0.0061439616
114	0x3c80800f	0.015686063
115	0x3ce41f68	0.027847007
116	0xbd2cf41b	-0.042224985
117	0x3d5a7cd2	0.053341694
118	0xbcb2cac9	-0.021825211
119	0x3c9553de	0.018228468

fc2.weight f4 [50, 120]
0	0x3d8e95be	0.06962155
1	0x3dba43e1	0.09094978
2	0x3b0c9aaf	0.0021454503
3	0x3e06db0d	0.13169499
4	0xbdd09397	-0.101844005
5	0xbd6d432c	-0.05792539
6	0x3c5aa81a	0.013345743
7	0xbd09e893	-0.033669066
8	0xbe074ac2	-0.13212112
9	0xbe65b57b	-0.2243251
10	0xbe2667e6	-0.16250572
11	0x3dc1ad8f	0.09456932
12	0x3e397f0c	0.18114871
13	0x3d87b73b	0.06626745
14	0x3db24ee3	0.08706453
15	0xbdd51624	-0.104046136
16	0x3d8e063e	0.06934784
17	0x3e4a353b	0.19746868
18	0xbefe6717	-0.49688026
19	0x3a1aecef	0.00059099396
20	0x3e6b7418	0.22993505
21	0xbcdfe04f	-0.027328638
22	0xbe3c5de1	-0.18395187
23	0xbe1da039	-0.15393151
24	0x3d4231cb	0.047410768
25	0x3e3cbde2	0.1843181
26	0x3da19dd6	0.07891433
27	0xbcfb7afa	-0.030698288
28	0xbc0033de	-0.007824866
29	0xbd27576b	-0.040854853
30	0x3cb2cf2f	0.021827308
31	0xbbae241c	-0.005314363
32	0x3e8603c8	0.2617476
33	0xbe0b6c60	-0.1361556
34	0xbd7f2d63	-0.062299144
35	0x3ca4bfef	0.020111052
36	0xbe5bc86d	-0.21463175
37	0x3e0ce43e	0.13758942
38	0x3e08c47d	0.13356204
39	0xbb612193	-0.0034352287
40	0xbd69ed75	-0.057111222
41	0x3ddf432f	0.10901486
42	0x3e060f3e	0.13091752
43	0x3e11d788	0.14242375
44	0x3d507dd3	0.050901245
45	0x3d899945	0.06718687
46	0x3e836d03	0.25669107
47	0x3d76ee4e	0.06028586
48	0xbe9bea7b	-0.30452332
49	0x3cd4ac24	0.02596099
50	0x3e4240f5	0.18970092
51	0xbea0a98b	-0.3137935
52	0xbe0e628e	-0.13904783
53	0x3dbf86cd	0.09351883
54	0xbb1b93d6	-0.002373924
55	0x3dabae14	0.08382812
56	0x3d77fa74	0.060541585
57	0x3e52da5d	0.20591111
58	0x3dcc3818	0.099716365
59	0x3dd378dc	0.103257865
60	0xbd3746b0	-0.044745147
61	0xbc075401	-0.008259774
62	0xbedb446c	-0.4282564
63	0xbca925e1	-0.020647945
64	0x3e275948	0.16342652
65	0x3dbb8679	0.09156508
66	0x3d9d052a	0.076670006
67	0xbdebabd4	-0.11507383
68	0x3cc57516	0.024103682
69	0x3d8eaa41	0.06966067
70	0x3da516f9	0.08061022
71	0xbe129d31	-0.14317776
72	0xbd78b4ee	-0.060719423
73	0x3c087346	0.008328265
74	0xbda841da	-0.08215685
75	0xbcc2dd3e	-0.023787137
76	0x3e30e8a9	0.17276253
77	0x3d813ac9	0.063100405
78	0xbdaac4df	-0.083383314
79	0x3e8389e3	0.25691137
80	0xbea376d3	-0.31926593
81	0xbe11394d	-0.14182015
82	0xbecd2eda	-0.40074807
83	0x3d2165c8	0.039403707
84	0xbd1a031f	-0.037600633
85	0xbc09cd90	-0.008410826
86	0xbc24dd13	-0.010062474
87	0x3e52125c	0.20514816
88	0x3cff6e5c	0.031180553
89	0xbde5c7da	-0.11219759
90	0x3df5e064	0.1200569
91	0xba6bac6f	-0.0008990233
92	0xbdaa2aa8	-0.08308917
93	0x3be269bb	0.0069095767
94	0xbe55af61	-0.20867683
95	0xbdade3c1	-0.08490706
96	0x3a44ca0f	0.0007506916
97	0xbdefa9b5	-0.11702291
98	0xbd77de78	-0.060514897
99	0x3cbe7b26	0.023252081
100	0x3b88c870	0.0041742846
101	0xbcf098fd	-0.029369825
102	0x3d79dae2	0.06099976
103	0x3e09307e	0.13397405
104	0xbe03c584	-0.12868315
105	0x3bc108cc	0.0058909412
106	0x3e97aa4d	0.29622117
107	0x3b0cdc0c	0.0021493463
108	0x3cd94aa5	0.026524851
109	0xbbff58da	-0.0077925744
110	0x3c66de15	0.014091034
111	0xbe3b1e34	-0.1827324
112	0xbd2dc39f	-0.042422887
113	0x3e1622b3	0.14661674
114	0x3e110b0e	0.14164373
115	0xbd09141d	-0.033466447
116	0x3c969851	0.018383177
117	0xbae55922	-0.0017497877
118	0x3d510f39	0.051039908
119	0x3de18a0b	0.11012658
120	0xbd6af29f	-0.057360288
121	0x3ba2b4ee	0.004965416
122	0x3ca651d4	0.02030269
123	0x3d98e09d	0.074647166
124	0x3be55bdb	0.0069994754
125	0x3d69a114	0.05703838
126	0xbd8ea0f3	-0.069642924
127	0xbda4eeef	-0.080533855
128	0x3db20b48	0.08693558
129	0x3d82899f	0.063739054
130	0x3d835cb7	0.06414168
131	0x3db2118e	0.086947545
132	0xbc818de1	-0.015814723
133	0xbd0876e3	-0.033316504
134	0xbd77ba3a	-0.060480334
135	0xbcded9d2	-0.027203474
136	0x3d43062d	0.04761331
137	0xbd3e5872	-0.046471067
138	0xbc810b68	-0.01575251
139	0xbc4ef742	-0.012632193
140	0x3d96be18	0.07360476
141	0xbd63ebcd	-0.0556448
142	0x3d971adb	0.07378169
143	0xbd9be199	-0.07611389
144	0xbd8810ff	-0.06643867
145	0xbdad2dde	-0.08456014
146	0x3da0b774	0.07847491
147	0xbd91c228	-0.071171105
148	0xbd846a4e	-0.064655885
149	0xbd8ac36d	-0.06775556
150	0xbd9956b6	-0.07487242
151	0x3da63868	0.081162274
152	0x3c3ccf77	0.011524073
153	0xbc7480d2	-0.014923291
154	0x3d579411	0.05263144
155	0x3b294457	0.0025828087
156	0xbd6fe056	-0.058563553
157	0xbbca77b7	-0.006178822
158	0xbd449ea4	-0.048002854
159	0xbcc7acaa	-0.024374325
160	0x3d2ca901	0.042153362
161	0xbd2f3133	-0.04277153
162	0xbd86fb83	-0.06590941
163	0xbd8d06b6	-0.06886046
164	0xbc73443c	-0.014847811
165	0x3b6dc699	0.0036281704
166	0xbda742f4	-0.08167067
167	0xbd8198a8	-0.06327945
168	0x3d637e7c	0.055540547
169	0xbc8341fb	-0.016022673
170	0xbda9584b	-0.08268794
171	0xbcda6b94	-0.026662625
172	0x3d6eae6c	0.05827181
173	0x3da5e752	0.081007615
174	0xbc4e511d	-0.012592581
175	0x3ca393fe	0.01996803
176	0x3d2dfdca	0.04247836
177	0xbda7d0b1	-0.081941016
178	0xbdb0e7aa	-0.086379364
179	0x3d94e412	0.072700635
180	0x3d28cc29	0.041210327
181	0xbd85013e	-0.064943776
182	0x3c84bd24	0.01620347
183	0x3d5d3aa0	0.054010987
184	0x3ca6270f	0.020282296
185	0xbc72966d	-0.014806372
186	0xbce1d547	-0.027567519
187	0xbc98baa6	-0.018643688
188	0xbc8dfe05	-0.01733304
189	0xbd2ca355	-0.042147953
190	0xbd952f39	-0.07284398
191	0xbd3ca21b	-0.046053033
192	0x3d418884	0.047249332
193	0xbda0a605	-0.07844166
194	0xbdb85d20	-0.09002137
195	0xbb264ded	-0.0025376037
196	0xbd202260	-0.039095283
197	0x3d7b0a2b	0.061288994
198	0x3d2bf7fa	0.041984536
199	0x3d4b9b6f	0.04970878
200	0xbd42a602	-0.0475216
201	0x3ca18e8d	0.019721294
202	0xbd63bf6f	-0.055602487
203	0x3d010487	0.03149846
204	0xba92d690	-0.0011202861
205	0x3ce0f56c	0.027460776
206	0xbc6447b7	-0.013933114
207	0x3c5ff651	0.013669566
208	0x3cb2e0d9	0.021835731
209	0x3d466e50	0.048445046
210	0x3b98b555	0.0046602883
211	0x3cbc453c	0.022982232
212	0x3c774512	0.015092151
213	0x3d7d0ad6	0.061777912
214	0x3da0f78a	0.07859714
215	0x3d44245a	0.04788623
216	0xbc0a851c	-0.008454587
217	0x3d6543d6	0.055972897
218	0xbd01f0f3	-0.031723928
219	0xbd97ba9e	-0.07408641
220	0xbc8df9b4	-0.017330982
221	0xbd95de05	-0.073177375
222	0xbd34b62a	-0.044119038
223	0x3d683ad8	0.056696743
224	0xbd98c355	-0.07459132
225	0x3ce2ec12	0.027700458
226	0x3cbca2b0	0.023026794
227	0xbcf9c48f	-0.030489234
228	0x3d7fc619	0.06244478
229	0xbd7dfca5	-0.06200852
230	0xbc620c93	-0.013796943
231	0x3c67eb87	0.014155275
232	0x3d08d3f1	0.033405248
233	0x3c71a813	0.014749545
234	0x3d276b2d	0.040873695
235	0xbccb858f	-0.02484396
236	0xbc6cc37b	-0.014450903
237	0xbcd7312e	-0.026268568
238	0xbd2f06b8	-0.042731017
239	0xbd47d5fb	-0.048788052
240	0xbd63ae4b	-0.05558614
241	0xbdcbc638	-0.099499166
242	0x3bc8bb0e	0.0061258143
243	0x3dc1a0fa	0.09454532
244	0x3dc14c13	0.09438338
245	0x3d5d2d7f	0.053998467
246	0xbbee1d94	-0.0072667096
247	0x3d83cce5	0.06435565
248	0x3eb58377	0.35451862
249	0x3e93530c	0.28774297
250	0xbd693ec6	-0.05694463
251	0x3e1243e0	0.14283705
252	0x3d38ce31	0.045118514
253	0xbd9d4f73	-0.07681169
254	0x3da43d7c	0.0801954
255	0x3d628c92	0.05530984

fc2.bias f4 [50]
0	0xbd9a0f56	-0.07522456
1	0x3a7e47bb	0.000970002
2	0x3dd1552d	0.10221324
3	0xbd92170f	-0.07133304
4	0x3e45fb15	0.19334061
5	0x3bfe064c	0.0077522155
6	0xbd05e042	-0.032684572
7	0x3cbc34b7	0.022974355
8	0x3d8ebe05	0.06969837
9	0x3d03dba8	0.032191902
10	0x3c999ebc	0.018752448
11	0xbd7d7f5e	-0.061889045
12	0xbda64cca	-0.08120115
13	0xbdbc14da	-0.091836646
14	0xbd690b5b	-0.056895595
15	0xbd916897	-0.07100027
16	0x3d71ca13	0.059030604
17	0xbc06dd0d	-0.008231414
18	0xbc98ca94	-0.018651284
19	0xbd17a123	-0.037018906
20	0x3e313e7d	0.17308994
21	0xba49e45a	-0.00077015685
22	0xbd8760a0	-0.06610227
23	0xbc987ac1	-0.018613221
24	0x3e0b9e0d	0.1363451
25	0x3c66df64	0.014091346
26	0xbdb28973	-0.087176226
27	0x3e27c648	0.16384232
28	0xbc97fa7e	-0.018552061
29	0xbd09984d	-0.03359251
30	0x3e4213d0	0.1895287
31	0xbdb09b65	-0.08623389
32	0x3d8f629f	0.07001232
33	0x3df41f33	0.11920013
34	0x3db077ca	0.08616598
35	0x3cc6deb1	0.02427611
36	0x3c05ef0e	0.008174671
37	0x3dc42064	0.095764905
38	0x3e0adadc	0.1356005
39	0xbd4e2087	-0.05032399
40	0x3e4d2664	0.20034176
41	0xbc93905f	-0.018013177
42	0xbc8e4d46	-0.017370831
43	0xbdb05191	-0.086093076
44	0x3d499e84	0.049223438
45	0x3e0c2014	0.13684112
46	0xbd78812c	-0.060670063
47	0xbdbf0faa	-0.093291596
48	0x3d940bee	0.07228838
49	0x3e36233e	0.17786881

fc3.weight f4 [10, 50]
0	0x3dcc7e7c	0.099850625
1	0x3d828f62	0.06375004
2	0xbecdaa2e	-0.401689
3	0xbddbef03	-0.10738947
4	0x3e93d0a2	0.28870112
5	0x3dcb3666	0.09922485
6	0xbda59c7d	-0.080864884
7	0x3ee5a8a7	0.44855234
8	0xbec4a30b	-0.38405642
9	0x3e8cbb6a	0.27486736
10	0xbee8af2e	-0.45446151
11	0x3e04e140	0.12976551
12	0xbc48b4b9	-0.012250119
13	0x3dc7dff5	0.09759513
14	0xbed6d242	-0.4195729
15	0xbdf35c7f	-0.118828766
16	0x3ebfed3b	0.3748568
17	0xbcd5ad9b	-0.026083758
18	0x3dca5a3f	0.09880494
19	0x3e45829a	0.19288102
20	0x3ec11725	0.3771297
21	0xbe44830a	-0.19190612
22	0xbe3678b4	-0.17819482
23	0xbdd7ee2c	-0.105434746
24	0xbf7b4ed9	-0.98167187
25	0xbde98e9e	-0.11404155
26	0x3d77de1a	0.060514547
27	0x3e9e945a	0.30972558
28	0xbe0e2654	-0.13881809
29	0xbd344a39	-0.044016097
30	0x3e4a13bf	0.19734095
31	0x3d2a6f25	0.041609902
32	0xbee93d4f	-0.45554587
33	0x3e99a032	0.30005032
34	0x3da22305	0.07916836
35	0x3efba56e	0.4914965
36	0xbdebb9af	-0.11510026
37	0xbf7f94b8	-0.998363
38	0x3e7220b0	0.23645282
39	0x3d9f3755	0.077742256
40	0xbee3306e	-0.44372886
41	0xbeac96dc	-0.33708847
42	0xbdc070bc	-0.093965024
43	0xbe0fad26	-0.14030895
44	0x3ea32842	0.31866652
45	0x3ee7f20e	0.4530186
46	0xbda2a9e3	-0.079425596
47	0xbdbae097	-0.09124868
48	0x3e0280ae	0.127444
49	0xbf1325a7	-0.5747933
50	0xbf15196f	-0.58241934
51	0xbcfa82a1	-0.030579867
52	0x3f0b3a1d	0.5438555
53	0x3dcbf607	0.09959035
54	0x3f7903e1	0.97271544
55	0xbeb49635	-0.3527085
56	0x3e823f42	0.25438887
57	0x3e5577d5	0.20846494
58	0x3e76c474	0.24098378
59	0x3ef4b078	0.47790885
60	0xbbaf0f19	-0.005342376
61	0xbc3b07ff	-0.011415481
62	0x3e5fdd01	0.2186165
63	0xbe0feeed	-0.14055987
64	0xbe7887d9	-0.24270572
65	0x3dab0e6d	0.08352361
66	0xbf1d767e	-0.6150893
67	0x3dcc1ec9	0.09966809
68	0xbe3e19a5	-0.1856447
69	0xbe15f56f	-0.14644407
70	0x3ea0da9a	0.3141678
71	0xbe859489	-0.26089886
72	0xbd6165a7	-0.055028584
73	0x3e9af1cf	0.3026261
74	0x3ed81a4f	0.42207572
75	0xbc4164f5	-0.011803855
76	0x3dd82293	0.105534695
77	0xbf69a74e	-0.9127091
78	0x3e040734	0.12893373
79	0x3d333cac	0.043759033
80	0x3efc939f	0.49331376
81	0xbe0b3a5a	-0.13596478
82	0xbe49bfc2	-0.19702056
83	0x3b64d819	0.0034918843
84	0xbf90b2ce	-1.1304567
85	0x3e8076ed	0.25090733
86	0x3e25a2d9	0.16175403
87	0xbcb7008a	-0.022339124
88	0xbf24ee8c	-0.64426494
89	0x3dcff115	0.101534046
90	0x3f1d5e5c	0.61472106
91	0xbe963224	-0.2933513
92	0xbd3cc6fa	-0.046088196
93	0xbdded27c	-0.108799905
94	0xbd925c98	-0.07146567
95	0xbe774888	-0.24148762
96	0x3dd78ded	0.10525117
97	0x3d57d22b	0.052690666
98	0xbe5bc4b7	-0.2146176
99	0x3edfd320	0.43715763
100	0xbe432339	-0.19056405
101	0xbd951617	-0.07279604
102	0xbe0f8336	-0.14014897
103	0xbeab3172	-0.3343616
104	0x3db84be9	0.08998854
105	0xbebff5fe	-0.37492365
106	0xbe20cdc6	-0.15703496
107	0x3f2938d9	0.6610237
108	0xbd9dc205	-0.07703022
109	0x3eb067f3	0.34454307
110	0x3e3eaf22	0.18621495
111	0x3ce41c49	0.027845519
112	0xbea32deb	-0.3187097
113	0x3d4116e7	0.047140982
114	0xbca5928d	-0.020211482
115	0x3b7aaa66	0.0038248538
116	0xbee5fc23	-0.44918928
117	0xbcf398f4	-0.02973602
118	0xbdd564b9	-0.10419602
119	0xbc888944	-0.016667016
120	0x3dc0c660	0.09412837
121	0x3d9788bb	0.07399126
122	0xbe2d158c	-0.1690275
123	0xbe3ce781	-0.18447687
124	0x3dd7d611	0.10538877
125	0xbd9e6086	-0.07733254
126	0x3dac7c94	0.08422199
127	0x3e29d7e4	0.16586262
128	0xbca4f6bb	-0.020137182
129	0x3dc690eb	0.0969561
130	0xbc9ae40d	-0.018907571
131	0x3d15c2f4	0.036562875
132	0xbdd02eeb	-0.10165199
133	0x3f591074	0.8479073
134	0xbe1c2cbd	-0.15251441
135	0xbc0e97d9	-0.0087031955
136	0x3d0e3bd3	0.03472502
137	0x3dbb9594	0.09159389
138	0x3e04ead6	0.12980208
139	0x3cffc500	0.031221867
140	0x3ea6dc59	0.32589987
141	0x3e283666	0.16427001
142	0xbc6c3951	-0.014417962
143	0x3e01f66f	0.12691663
144	0x3e694213	0.22779112
145	0x3dca0990	0.09865105
146	0x3d7257bd	0.059165705
147	0x3e1d4a4e	0.15360376
148	0xbe8f5b85	-0.2799951
149	0xbe20868d	-0.15676327
150	0x3f5968b1	0.8492537
151	0x3d5148e6	0.051094912
152	0xbeb6b294	-0.3568312
153	0xbe0d1ee1	-0.1378131
154	0x3eebc04d	0.4604515
155	0x3e6e3c52	0.23265198
156	0x3f58a558	0.84627295
157	0x3e7f6691	0.2494147
158	0xbe4324f1	-0.19057061
159	0xbed0bb45	-0.40767875
160	0xbe184093	-0.14868383
161	0x3de59442	0.112099186
162	0x3f370402	0.7149049
163	0x3e8598ff	0.2609329
164	0xbe36e0d1	-0.17859198
165	0x3da630dc	0.08114788
166	0x3e03f4df	0.1288638
167	0xbdbcf80f	-0.09227001
168	0x3d2a9727	0.041648056
169	0xbd80966c	-0.06278691
170	0xbe4e808f	-0.20166229
171	0x3e60f825	0.2196966
172	0xbd5258e0	-0.05135429
173	0x3df91ffb	0.12164303
174	0x3f07e15a	0.53078234
175	0xbce70635	-0.028201202
176	0x3d6c3a4c	0.057672784
177	0x3e27f647	0.16402541
178	0x3e6f67ff	0.23379515
179	0xbd4e51a9	-0.050370846
180	0xbeaa5958	-0.3327129
181	0xbce4dd9d	-0.027937705
182	0x3e6f0635	0.23342212
183	0xbe5d20a1	-0.21594478
184	0x3dcc4942	0.0997491
185	0xbe73588c	-0.23764247
186	0xbda19818	-0.07890338
187	0x3e9b6386	0.30349368
188	0x3dbc900b	0.092071615
189	0x3db39908	0.08769423
190	0x3dc65d4c	0.09685764
191	0x3d37d3aa	0.044879593
192	0xbc3150a3	-0.010822448
193	0xbd70322a	-0.05864159
194	0x3e544f9f	0.20733498
195	0xbe97f587	-0.2967951
196	0x3ea0bd0f	0.3139424
197	0xbf85be69	-1.0448734
198	0xbe0dbde8	-0.13841975
199	0x3da7489a	0.081681445
200	0x3ed9dcb0	0.42551184
201	0x3d8b0ad0	0.06789172
202	0xbe109f92	-0.14123371
203	0x3da4894d	0.080340005
204	0x3ce969c4	0.028492816
205	0x3e718713	0.23586683
206	0xbe8508b6	-0.25983208
207	0xbe85daf2	-0.26143605
208	0x3e93af17	0.2884452
209	0x3cc57e51	0.024108084
210	0x3e1ad205	0.15119179
211	0x3d01dd2c	0.031705067
212	0x3e10c801	0.14138795
213	0xbd931acb	-0.07182845
214	0x3e17f9c7	0.14841376
215	0xbe095702	-0.13412097
216	0x3f1610f9	0.5861965
217	0x3dd462e7	0.103704266
218	0xbdf94cb5	-0.12172834
219	0x3d3312a8	0.043718964
220	0xbd59480a	-0.053047217
221	0x3bebf685	0.0072010183
222	0x3d91240d	0.07086954
223	0x3ef4ffca	0.47851402
224	0x3f4897fd	0.78356916
225	0xbdd05a29	-0.10173447
226	0xbd7ef6e4	-0.062247172
227	0xbef38e96	-0.47569722
228	0xbdd34d31	-0.103174575
229	0xbd83b313	-0.0643064
230	0xbba14d8c	-0.0049225744
231	0xbd9d84e5	-0.07691363
232	0x3e55442d	0.20826788
233	0xbec70cb8	-0.3887689
234	0x3d1977c0	0.037467718
235	0xbe98ed34	-0.29868472
236	0x3dc47973	0.09593477
237	0xbdf74445	-0.12073568
238	0x3ee06308	0.43825555
239	0x3d31712c	0.04332082
240	0xbf0b10b5	-0.5432237
241	0xbd194a1d	-0.037424196
242	0xbdd0e2d1	-0.10199512
243	0x3dad2ed8	0.084562
244	0xbf655258	-0.8957877
245	0xbe9de0ac	-0.30835474
246	0x3a8a3630	0.0010544714
247	0xbcae1b1e	-0.021253165
248	0x3e10049f	0.14064263
249	0x3e05b9ed	0.13059206
250	0xbe555ca8	-0.20836127
251	0x3d22f33c	0.039782748
252	0x3e252381	0.16126825
253	0xbee50a62	-0.44734484
254	0xbe91ec81	-0.2850075
255	0xbe77b5f9	-0.24190511

fc3.bias f4 [10]
0	0x3e8e7e88	0.2783091
1	0xbd8bc2b9	-0.0682425
2	0xbc807a8b	-0.015683433
3	0xb9e3220b	-0.00043322178
4	0xbda0f5de	-0.078593954
5	0x3d71fdd9	0.05907998
6	0x3d790ba2	0.06080211
7	0xbd75efb7	-0.060043063
8	0x3d4ce1fc	0.050020203
9	0x39f75a57	0.0004717882
