models/final_models/cnn_91test_acc.pth (torch, 416903 bytes, 10 tensors)

conv1.weight f4 [128, 1, 3, 3]
-0.0024956167 0.17881456 -0.27434838 -0.24531302 -0.1283848 0.08938578 -0.0066044033 0.2642965
-0.029581338 0.13336943 -0.08288583 -0.0750625 -0.2867554 -0.2061645 -0.13991202 0.042226464
0.1514435 0.21043807 -0.207027 -0.13248067 0.12107238 0.31043065 -0.039900687 0.24943724
-0.018573308 0.07291158 0.30182543 -0.28380197 -0.15723611 0.03999392 -0.11757958 0.35857815
-0.10067571 -0.1502628 -0.17428888 -0.19628835 -0.15958507 0.3099622 0.14035574 0.20997447
0.005118519 -0.22294977 0.115310326 -0.3549063 -0.3348823 -0.17184334 0.21031263 0.19544044
-0.14746296 -0.011655638 0.21318689 0.33174667 0.13266343 0.04503095 0.2610198 -0.15740621
0.11547106 -0.21573552 -0.19248986 -0.13865802 0.20021422 0.1756716 -0.18527417 0.100702375
0.24088763 -0.033780225 0.012727171 0.11874424 0.21030414 0.3200647 -0.2582897 -0.14220722
0.13100329 0.27618316 0.29006913 0.2998194 0.06914837 -0.30414197 0.033549037 -0.21285795
-0.3286896 0.28905976 0.28620923 -0.37409666 0.08090278 -0.042422518 -0.111601755 -0.1471071
0.1257328 -0.24562266 0.12219712 0.16716401 0.23962738 0.11996367 -0.32645676 -0.24441531
0.15739702 0.099178255 -0.31912383 -0.114771694 0.4412687 0.32717443 -0.07017697 0.008107384
-0.23311353 0.08878563 -0.18997124 -0.190895 0.009310822 0.0313232 -0.1153918 0.2305713
-0.21909405 0.31168103 0.27642798 -0.29334742 -0.08511142 0.03248046 0.03861194 0.077821575
0.14863668 0.0004872537 -0.18200509 0.18132891 -0.3431475 -0.22814144 -0.016599393 -0.12500826
-0.05546614 -0.24510962 -0.028274206 0.13593741 -0.20867492 0.03422843 0.30833253 -0.03426674
0.009264082 -0.02875629 0.06746045 0.21194652 0.31574872 0.21168533 0.3164712 -0.024107218
-0.21354228 -0.1398973 0.26700053 0.05891614 -0.19584304 -0.22662096 -0.2625951 -0.31811094
-0.051058576 0.2552532 0.20618805 -0.3159601 0.28965765 -0.2892642 -0.118724026 -0.07373782
-0.10118321 -0.121599235 -0.24143676 -0.279075 0.034592148 0.034970365 -0.14998573 0.23457904
-0.28560776 -0.010771074 0.41436774 -0.1656798 0.35550043 0.12687537 -0.32086897 0.2876724
-0.018372858 -0.15867789 0.3389031 -0.25519183 0.0357683 -0.06978956 0.23803756 0.093048185
0.16016844 0.11771965 -0.08015823 -0.07010183 -0.27469382 0.190588 0.28250724 0.18545908
-0.27050492 0.0052727857 -0.25907674 -0.23063752 -0.22347836 0.08548359 -0.1795477 0.058018617
0.01641176 0.25652468 -0.16144466 -0.2303842 -0.19110031 0.35278922 -0.121872626 0.2811629
0.12053585 0.04220867 -0.027665142 -0.05747232 0.04996388 -0.10144922 0.0068098074 0.054155324
-0.24789412 -0.15775937 0.34391195 -0.26229876 -0.007702365 0.39879322 0.14340346 0.024116147
-0.23671469 0.18322437 -0.26501158 -0.079920456 -0.0937403 -0.066042595 0.028782245 0.29303217
0.015804429 0.3361324 0.20390418 -0.21073799 0.14950135 -0.23563203 -0.14127505 0.09804091
0.11006403 0.25007603 -0.10730529 0.060996793 0.20325276 -0.3364127 0.32916358 -0.28863066
-0.026739705 0.0071974047 -0.20609897 -0.005263367 0.38921547 -0.06932725 -0.14228047 -0.015325126
00000000: 808d 23bb 2a1b 373e 6477 8cbe 5633 7bbe
00000010: 4e77 03be e40f b73d c069 d8bb df51 873e
00000020: 9054 f2bc ff91 083e 0cc0 a9bd 5eba 99bd
00000030: 9bd1 92be c91c 53be 1945 0fbe a8f5 2c3d
00000040: 0114 1b3e 147d 573e e3fe 53be 03a9 07be
00000050: ccf4 f73d c4f0 9e3e e76e 23bd 7a6c 7f3e
00000060: 0d27 98bc ab52 953d dd88 9a3e 7e4e 91be
00000070: 8102 21be aad0 233d 90cd f0bd 8e97 b73e
00000080: 112f cebd 7ede 19be c978 32be d0ff 48be
00000090: 456a 23be 5eb3 9e3e 6ab9 0f3e 8c03 573e
000000a0: 40b9 a73b f24c 64be d227 ec3d 47b6 b5be
000000b0: b175 abbe b3f7 2fbe 325c 573e 8a21 483e
000000c0: 8800 17be 4af7 3ebc aa4d 5a3e b3da a93e
000000d0: ecd8 073e 6072 383d 63a4 853e 182f 21be
000000e0: 177c ec3d c6e9 5cbe 101c 45be 5efc 0dbe
000000f0: f504 4d3e 42e3 333e 83b8 3dbe 0c3d ce3d
00000100: 3fab 763e 225d 0abd a085 503c 2e30 f33d
00000110: f859 573e 85df a33e 8c3e 84be c59e 11be
00000120: ba25 063e e167 8d3e f183 943e ee81 993e
00000130: a99d 8d3d 7fb8 9bbe b76a 093d 6ff7 59be
00000140: 014a a8be a4ff 933e 048a 923e 9989 bfbe
00000150: 5bb0 a53d 3cc3 2dbd 768f e4bd 3ea3 16be
00000160: 19c0 003e 8284 7bbe 7c42 fa3d 0b2d 2b3e
00000170: e160 753e 83af f53d 5725 a7be 0248 7abe
00000180: af2c 213e f81d cb3d 3364 a3be 6c0d ebbd
00000190: f9ed e13e 6883 a73e f1b8 8fbd d5d4 043c
000001a0: 50b5 6ebe 3ed5 b53d d287 42be fb79 43be
000001b0: 6b8c 183c c14c 003d 8952 ecbd e21a 6c3e
000001c0: 315a 60be a894 9f3e f887 8d3e a231 96be
000001d0: e54e aebd 3b0a 053d 8e27 1e3d eb60 9f3d
000001e0: 3734 183e 1676 ff39 8b5f 3abe 49ae 393e
000001f0: 07b1 afbe e99d 69be 73fb 87bc 2a02 00be
00000200: 7730 63bd 04fe 7abe 4f9f e7bc 2d33 0b3e
00000210: e1ae 55be 1c33 0c3d c3dd 9d3e 485b 0cbd
00000220: 60c8 173c 5092 ebbc b428 8a3d 8208 593e
00000230: d1a9 a13e 0ac4 583e 8308 a23e 807c c5bc
00000240: d4aa 5abe 3d41 0fbe 4bb4 883e 0d52 713d
00000250: 148b 48be 530f 68be dd72 86be 70df a2be
00000260: cc22 51bd 8cb0 823e f622 533e 86c5 a1be
00000270: 024e 943e 701a 94be 9525 f3bd db03 97bd
00000280: 2539 cfbd 0509 f9bd 333b 77be ebe2 8ebe
00000290: 7fb0 0d3d 163d 0f3d dc95 19be 7d35 703e
000002a0: 2e3b 92be 2979 30bc 0228 d43e f7a7 29be
000002b0: 2704 b63e 9eeb 013e f048 a4be cc49 933e
000002c0: ad82 96bc 757c 22be b584 ad3e 81a8 82be
000002d0: c881 123d d4ed 8ebd 1ec0 733e 0c90 be3d
000002e0: 3203 243e 0017 f13d 002a a4bd 8c91 8fbd
000002f0: aba4 8cbe 8029 433e caa4 903e fce8 3d3e
00000300: 9f7f 8abe 55c7 ac3b b5a5 84be 3e2c 6cbe
00000310: 83d7 64be 0512 af3d 5adb 37be eea4 6d3d
00000320: f571 863c 3457 833e c051 25be d6e9 6bbe
00000330: cdaf 43be caa0 b43e 5b98 f9bd 95f4 8f3e
00000340: 80db f63d 00e3 2c3d 02a2 e2bc 1868 6bbd
00000350: eda6 4c3d 9cc4 cfbd ce24 df3b f9d1 5d3d
00000360: f5d7 7dbe ac8b 21be 3a15 b03e 064c 86be
00000370: 1f64 fcbb a02e cc3e 5bd8 123e 3a8f c53c
00000380: 5665 72be 2b9f 3b3e 99af 87be 56ad a3bd
00000390: eafa bfbd 5741 87bd bec8 eb3c 5008 963e
000003a0: 4a78 813c 8c19 ac3e 42cc 503e b3cb 57be
000003b0: e216 193e 8649 71be 68aa 10be acc9 c83d
000003c0: 4069 e13d f709 803e e0c2 dbbd c6d7 793d
000003d0: 7e21 503e 493e acbe 2188 a83e 66c7 93be
000003e0: 3a0d dbbc 35d8 eb3b 9c0b 53be 5378 acbb
000003f0: 4047 c73e 72fb 8dbd f9b1 11be 3d16 7bbc

conv1.bias f4 [128]
-0.28018892 -0.04157446 0.24985228 -0.41654658 -0.16065581 0.29239163 -0.12621677 0.1407215
-0.32582816 -0.10732948 -0.18854159 0.19077516 0.14616483 -0.24261385 -0.056787953 -0.0038311481
-0.22783017 -0.24273288 -0.18656646 0.23081425 -0.23895077 -0.22100943 -0.18004683 -0.008410839
0.03226477 0.0035995895 -0.08024189 -0.24374853 -0.1269164 -0.13418445 0.17005105 -0.32446986
-0.21261966 -0.31288856 -0.04456791 0.24669185 0.28630656 -0.2901851 -0.014442295 0.16996235
0.11858592 0.1327271 -0.009246081 -0.22762802 0.22051015 -0.11430487 0.13167542 -0.20464768
0.051428206 0.18589951 0.3368478 -0.34072188 -0.2109596 -0.13124748 -0.2214881 0.33908865
-0.029439598 -0.22111353 -0.15275927 -0.274828 0.08549245 -0.2847542 -0.31080103 -0.32858706
0.10215561 0.18184933 -0.20702636 0.008778888 0.2608065 -0.017618038 -0.08044771 -0.0005627356
-0.13729288 0.16233927 -0.22633712 0.15989494 0.21766256 -0.18540433 0.24701922 0.32710385
-0.12027756 -0.09110655 0.18397366 -0.26114017 0.1333972 0.043986976 0.20863317 -0.3551614
-0.27992764 0.1497097 0.10024853 -0.3102554 -0.20127925 -0.30499285 -0.23950124 -0.16363567
0.19031689 -0.05645745 0.18010674 0.34158227 0.14968888 -0.29840347 0.17072678 0.14948486
0.18154319 -0.45893502 0.22880408 0.26426104 -0.3101216 -0.07448936 0.32392812 -0.356525
0.10937309 0.059024516 0.08736336 0.25517344 0.26870617 0.28304577 0.009062832 0.2542157
-0.31063756 -0.23829567 -0.07129371 -0.20209499 0.24083237 0.12769447 0.15587297 0.1772527
00000000: ec74 8fbe fb49 2abd 47d9 7f3e 9845 d5be
00000010: f582 24be 5bb4 953e f83e 01be 4c19 103e
00000020: f3d2 a6be 8fcf dbbd 0c11 41be 905a 433e
00000030: 3cac 153e c46f 78be 7c9a 68bd 0014 7bbb
00000040: 504c 69be f88e 78be 470b 3fbe 925a 6c3e
00000050: 83af 74be 4c50 62be 325e 38be 9ecd 09bc
00000060: 1028 043d 17e7 6b3b dc55 a4bd 3799 79be
00000070: 5ff6 01be a667 09be dd21 2e3e ea20 a6be
00000080: f8b8 59be ee32 a0be d78c 36bd ca9c 7c3e
00000090: c696 923e 2493 94be 609f 6cbc 9c0a 2e3e
000000a0: 2ddd f23d 9de9 073e e07c 17bc 5217 69be
000000b0: 6acd 613e ac18 eabd ecd5 063e 298f 51be
000000c0: 62a6 523d 715c 3e3e 5177 ac3e 1973 aebe
000000d0: cb05 58be bd65 06be c7cd 62be 079d ad3e
000000e0: 502b f1bc 966b 62be ed6c 1cbe 41b6 8cbe
000000f0: aa16 af3d 4dcb 91be 5021 9fbe 903c a8be
00000100: f636 d13d b636 3a3e b8fe 53be 53d5 0f3c
00000110: 6e88 853e b453 90bc c5c1 a4bd 8c84 13ba
00000120: 8196 0cbe 443c 263e ebc4 67be 80bb 233e
00000130: efe2 5e3e a2da 3dbe 9bf2 7c3e 287a a73e
00000140: 1554 f6bd 1296 babd 9763 3c3e 2ab4 85be
00000150: 4799 083e b02b 343d efa3 553e b7d7 b5be
00000160: ad52 8fbe 804d 193e 1a4f cd3d ccd9 9ebe
00000170: 261c 4ebe 0628 9cbe d03f 75be 1c90 27be
00000180: 6ee2 423e ed3f 67bd e76d 383e dfe3 ae3e
00000190: 0b48 193e 57c8 98be 00d3 2e3e 8f12 193e
000001a0: 75e6 393e 88f9 eabe 9e4b 6a3e 394d 873e
000001b0: 42c8 9ebe e18d 98bd e8d9 a53e 728a b6be
000001c0: 00ff df3d b1c3 713d 90eb b23d 18a6 823e
000001d0: db93 893e 60eb 903e 467c 143c 8f28 823e
000001e0: e30b 9fbe c803 74be 7002 92bd fdf1 4ebe
000001f0: c39c 763e 57c2 023e 2a9d 1f3e bb81 353e

conv2.weight f4 [56, 128, 3, 3]
-0.022008803 -0.0034124088 0.004302291 0.007663047 0.015150724 -0.01172344 -0.0088840425 0.024652729
-0.00790735 -0.020982297 0.019461175 0.019435136 -0.009754598 -0.006406003 -0.02225587 -0.025120044
0.010563578 -0.013102167 0.02345519 -0.023591239 -0.0045884605 0.0006361548 0.015142312 0.023329273
0.019952329 0.012969399 -0.014039188 -0.021555852 -0.026872346 0.00094685744 0.028060393 -0.006110802
-0.0017548816 -0.021924935 0.008530879 0.01816429 -0.029562222 -0.021260591 0.021308059 0.006459764
-0.0023570373 0.004747329 -0.00499589 -0.021113353 -0.028049711 0.019377904 -0.0035042055 -0.0109421015
-0.007604791 -0.01606968 -0.008726386 -0.025291277 0.022048285 0.012030905 -0.0153744435 -0.010571709
0.012702328 -0.011426166 0.0072510852 0.0075940094 -0.019062418 0.006862403 0.0012846462 0.025214525
-0.010660224 -0.007573953 0.024860347 -0.024059378 0.0021286402 0.027859334 -0.013210168 0.028245443
0.025628317 0.026889892 -0.0033321383 0.026653012 -0.012837505 -0.010085262 0.011143783 0.00622393
0.016242115 0.0274832 -0.018960476 0.015119585 0.009341299 0.014998336 0.013422259 -0.011538115
-0.023820937 0.023049302 -0.017315337 0.018320536 -0.02858337 -0.005615231 0.00031227246 0.005097756
0.0018630483 0.009283906 -0.0032805204 0.0067016454 0.028641984 -0.019577933 -0.0021250555 -0.01176273
0.025335673 0.024705434 -0.0013193374 -0.010728544 -0.018719355 0.020449948 -0.0025484988 0.027233405
0.016267233 0.025267906 0.02278817 -0.019656176 0.008102694 -0.01273219 0.01426479 -0.003167409
0.002034958 -0.02091236 -0.026867386 0.010579214 0.0063177207 0.0020291691 0.019494424 -0.012818338
0.009944447 -0.016743021 0.005589306 -0.0072406097 0.020117816 0.025249148 0.025074875 0.0013253596
0.017374 -0.029437397 -0.017282698 0.005265685 0.00016431324 -0.023130432 -0.013040569 -0.013760714
-0.029704664 0.0022960978 0.019570712 0.01144382 -0.014512571 -0.02756855 -0.024283951 3.267983e-05
0.01975394 -0.01244663 -0.016549893 -0.016234951 -0.0030654245 -0.028508645 -0.026530983 0.028488046
-0.01457651 -0.0058380035 -0.00840222 -0.026400108 -0.0057081683 0.008500605 -0.012480217 -0.0017697791
-0.0006593953 -0.029847408 0.020897046 0.02328338 0.019572614 -0.010190876 0.014868158 -0.028126186
-0.007810019 -0.0065087564 -0.010924945 0.011850769 -0.013424948 -0.0034148507 -0.008507479 -0.027667997
-0.004865503 -0.024969008 0.017179871 0.015746767 0.027600499 -0.01040833 0.0009839579 0.0052571385
0.028777374 0.026407816 -0.015792752 -0.025628597 -0.027096173 -0.014727029 0.024200482 0.009348869
0.027878108 0.021311698 -0.000113284135 -0.018813686 0.028276207 0.023098303 0.01221328 -0.016621348
0.022686578 0.0021634959 0.019481791 0.0122967865 0.015644984 -0.025852883 -0.016336557 0.017670939
-0.006772622 -0.026162907 0.026278684 -0.0012715847 0.023239266 -0.023543406 0.0096009495 -0.011627582
-0.012913164 -0.0067792684 -0.010905528 0.01614443 -0.0061514718 0.022339204 0.0067229103 -0.005078789
-0.017017685 -0.026978275 -0.008594951 -0.027283467 -0.0054585896 0.00048154965 -0.0018986948 -0.014472617
0.020449048 0.016592847 -0.0072589554 -0.012156678 0.017979499 0.025063109 -0.02749256 -0.0069076386
-0.003299405 -0.011182488 0.024620766 -0.004886089 0.024465041 -0.0003690745 -0.0037106776 -0.01770045
00000000: ce4b b4bc b8a2 5fbb 3cfa 8c3b 4c1a fb3b
00000010: be3a 783c ac13 40bc 608e 11bc 85f4 c93c
00000020: d48d 01bc 11e3 abbc 0b6d 9f3c 6f36 9f3c
00000030: c0d1 1fbc 73e9 d1bb f151 b6bc 8dc8 cdbc
00000040: dc12 2d3c 79aa 56bc 1925 c03c 6a42 c1bc
00000050: cc5a 96bb a0c3 263a 7617 783c 081d bf3c
00000060: 1173 a33c 9a7d 543c 9f04 66bc e695 b0bc
00000070: 6523 dcbc 8736 783a e9de e53c 1f3d c8bb
00000080: 0e04 e6ba ec9b b3bc 1ac5 0b3c 47cd 943c
00000090: 792c f2bc b12a aebc 3d8e ae3c 6eac d33b
000000a0: 8678 1abb 7b8f 9b3b 90b4 a3bb e9f5 acbc
000000b0: 82c8 e5bc 69be 9e3c d0a6 65bb 8046 33bc
000000c0: 9c31 f9bb 90a4 83bc 1ef9 0ebc a72f cfbc
000000d0: 9b9e b43c 461d 453c 17e5 7bbc f634 2dbc
000000e0: 6d1d 503c d034 3bbc 839a ed3b 2bd7 f83b
000000f0: ca28 9cbc 02de e03b 9361 a83a b18e ce3c
00000100: 38a8 2ebc ec2e f8bb eda7 cb3c 2c18 c5bc
00000110: a880 0b3b 4239 e43c 766f 58bc fd62 e73c
00000120: 7af2 d13c 3148 dc3c 0160 5abb 6b57 da3c
00000130: 6654 52bc a83c 25bc 6a94 363c 1cf2 cb3b
00000140: 2f0e 853c 7324 e13c 0053 9bbc 23b8 773c
00000150: 3f0c 193c 95bb 753c 09e9 5b3c 5d0a 3dbc
00000160: 2024 c3bc e4d1 bc3c e5d8 8dbc f314 963c
00000170: ac27 eabc f9ff b7bb 80b8 a339 140b a73b
00000180: 8731 f43a 861b 183c 00fe 56bb 7a99 db3b
00000190: 98a2 ea3c e761 a0bc 8444 0bbb 77b8 40bc
000001a0: c28c cf3c 0d63 ca3c 9eed acba c6c6 2fbc
000001b0: 5559 99bc a686 a73c b704 27bb 9718 df3c
000001c0: dc42 853c a4fe ce3c 42ae ba3c fd05 a1bc
000001d0: 29c1 043c ad9a 50bc deb6 693c 4e94 4fbb
000001e0: ee5c 053b 6650 abbc fe18 dcbc 7154 2d3c
000001f0: e204 cf3b cffb 043b c5b2 9f3c 0204 52bc
00000200: 09ee 223c a928 89bc 7f26 b73b a342 edbb
00000210: 1ece a43c 4dd7 ce3c d369 cd3c b0b7 ad3a
00000220: eb53 8e3c b226 f1bc 7294 8dbc c48b ac3b
00000230: 804b 2c39 087c bdbc 1ca8 55bc 9e74 61bc
00000240: 3257 f3bc 217a 163b c252 a03c dc7e 3b3c
00000250: 22c6 6dbc 71d7 e1bc 23ef c6bc b311 0938
00000260: 04d3 a13c f3ec 4bbc a493 87bc 29ff 84bc
00000270: 4ae5 48bb f68a e9bc 8157 d9bc c35f e93c
00000280: 50d2 6ebc b94c bfbb 77a9 09bc 0a45 d8bc
00000290: 960b bbbb 1f46 0b3c d379 4cbc eff7 e7ba
000002a0: 45db 2cba 8d82 f4bc 4830 ab3c c9bc be3c
000002b0: bf56 a03c a2f7 26bc 9399 733c e368 e6bc
000002c0: 30eb ffbb 6847 d5bb 8afe 32bc ba29 423c
000002d0: 50f4 5bbc b0cb 5fbb f462 0bbc ffa7 e2bc
000002e0: cc6e 9fbb ce8b ccbc cdbc 8c3c 5dff 803c
000002f0: 711a e23c b387 2abc 26f8 803a 1344 ac3b
00000300: 87be eb3c 3455 d83c cd5f 81bc 10f3 d1bc
00000310: cbf8 ddbc a349 71bc 1740 c63c 002c 193c
00000320: a160 e43c df95 ae3c f592 edb8 291f 9abc
00000330: 81a3 e73c a738 bd3c 361a 483c 7e29 88bc
00000340: 34d9 b93c 70c9 0d3b 4798 9f3c 7678 493c
00000350: e929 803c 6dc9 d3bc 3ed4 85bc a5c2 903c
00000360: dfec ddbb 9853 d6bc 6546 d73c 4dab a6ba
00000370: 4660 be3c 1ade c0bc 4d4d 1d3c 9d81 3ebc
00000380: bc91 53bc a024 debb 1aad 32bc 5341 843c
00000390: 4992 c9bb b500 b73c dc4b dc3b f86b a6bb
000003a0: ac68 8bbc 8b01 ddbc d6d1 0cbc 9481 dfbc
000003b0: f8dd b2bb 8078 fc39 a0dd f8ba 8e1e 6dbc
000003c0: c384 a73c b9ed 873c 88dc edbb ce2c 47bc
000003d0: be49 933c 2651 cd3c 1438 e1bc 7959 e2bb
000003e0: d53a 58bb c136 37bc 7db1 c93c 7c1b a0bb
000003f0: e96a c83c 5780 c1b9 d72e 73bb 8900 91bc

conv2.bias f4 [56]
-0.011928718 -0.01889323 0.008608215 0.027825637 0.02723021 0.02297967 -0.0065065403 0.0039215516
-0.008475076 -0.02448232 0.009726727 0.016216563 -0.014325607 -0.0146541055 -0.021136947 -0.027737344
-0.0116865 -0.010210542 -0.027012395 0.019277832 -0.02214537 0.012644806 0.02422761 0.022071632
0.015115517 0.0014724936 0.0038968492 -0.008045645 0.019148236 0.005738305 0.0047753737 0.011036553
0.019786105 -0.0081914235 -0.026311839 0.0072723874 -0.008338234 -0.008652171 -0.027939724 0.020200305
-0.020760104 0.027761761 0.02584078 0.013817828 0.022124851 -0.030098077 0.011058842 -0.018699463
0.019341286 -0.022738928 0.023534546 -0.016493395 0.008602416 0.026676947 0.018071348 0.028184164
00000000: ab70 43bc fac5 9abc 7809 0d3c 97f2 e33c
00000010: e411 df3c dc3f bc3c d134 d5bb 5c80 803b
00000020: 0cdb 0abc 258f c8bc da5c 1f3c 99d8 843c
00000030: f3b5 6abc c617 70bc 6427 adbc 6d39 e3bc
00000040: bc78 3fbc 1e4a 27bc 1949 ddbc 8bec 9d3c
00000050: 356a b5bc 292c 4f3c fb78 c63c 91cf b43c
00000060: 13a7 773c b000 c13a 4862 7f3b e2d1 03bc
00000070: c3dc 9c3c 6408 bc3b bd7a 9c3b a9d2 343c
00000080: 7816 a23c 5235 06bc ed8b d7bc 354d ee3b
00000090: 179d 08bc d6c1 0dbc d9e1 e4bc 1c7b a53c
000000a0: 1811 aabc a26c e33c 0bb0 d33c 2c64 623c
000000b0: 2d3f b53c 3e90 f6bc 2530 353c 9e2f 99bc
000000c0: 9e71 9e3c fd46 babc 85cb c03c 281d 87bc
000000d0: 26f1 0c3c 9d89 da3c 5d0a 943c 7ae2 e63c

fc1.weight f4 [128, 224]
-0.049524695 -0.04339585 -0.0031751841 0.043847352 0.007265836 -0.006036222 -0.014739711 0.018503234
0.047442466 0.014068738 -0.04734208 0.004056178 -0.01123657 -0.050311334 0.005465821 -0.057822727
-0.023580091 0.01843476 0.020781402 0.061154764 0.0003285021 0.014044839 0.063009 -0.01934645
-0.058205962 -0.052176017 -0.018585095 0.032851756 0.05740907 0.06544263 -0.018590871 -0.03630398
0.022043653 -0.054118644 0.0027419925 0.048192374 -0.0658547 0.036248215 -0.045530472 -0.040797397
0.044659972 -0.037307758 0.03452706 0.05902673 0.022727095 -0.007288832 -0.047134817 0.031288117
0.050932895 0.011656745 -0.062643744 -0.014534454 -0.00047151 0.026576556 0.025868103 0.056878462
0.02495936 0.03041497 -0.009244423 -0.044802614 0.0076112524 0.06004537 0.022709012 0.04068137
0.038760826 0.014176339 -0.03930696 0.03846235 -0.018278595 0.03592804 0.0640884 -0.028995488
-0.038230732 0.0065581854 -0.038729567 0.010153273 0.03611997 0.032336727 -0.015050811 0.062472112
-0.00017370284 0.026476271 -0.027557295 -0.042709116 -0.070865005 -0.06307548 -0.030630702 0.014131258
0.026966585 -0.04338958 -0.023467053 0.049543776 -0.026350176 -0.04481942 -0.05775643 0.015909145
0.02696886 -0.008030843 0.05938536 0.008404724 -0.0063959756 -0.046385445 0.005981402 -0.022664893
0.023797676 0.02907478 -0.006085664 -0.060443725 0.02301571 -0.0034553586 0.03445221 -0.02085361
-0.045390647 0.035515793 0.00970266 -0.004994232 -0.04548818 -0.052845016 0.047333986 -0.045431484
0.035991497 0.016429454 -0.041425314 0.033126947 0.0044341395 -0.04102562 0.05584278 0.057399213
0.0010108348 0.009761728 -0.0522035 0.0135786515 0.03550158 -0.067423 0.043464452 -0.0677154
-0.065951936 -0.033731043 0.029450499 -0.017572481 -0.002431275 0.0637004 0.047815345 -0.022708338
-0.015084745 -0.014336441 0.03382519 -0.023755146 0.050064646 0.006863743 0.06481097 -0.031856973
-0.05748748 0.018755248 -0.012049211 0.007787926 0.0076371823 -0.031274274 -0.011751304 -0.034949183
-0.038156405 0.06057713 -0.00045789033 0.05659152 -0.031371918 0.051610574 0.031195723 0.019309923
0.0071101254 0.029239 0.010522955 -0.019866534 0.016251199 0.032751553 -0.01614314 0.034503765
0.0043475847 -0.04344388 -0.01430501 -0.028151082 0.013636917 -0.026028192 -0.038825814 0.05973922
0.024351181 -0.01594034 -0.055047944 -0.0300658 0.043982252 -0.061507333 -0.052187823 0.051479295
0.0016669333 0.035269774 0.033690654 0.010535717 -0.02089557 0.027381666 0.062843986 -0.0308645
0.03515844 0.0523687 0.04037244 0.061273985 -0.050437488 0.037954293 0.058246925 0.020752324
-0.034443535 -0.0031877756 -0.038686454 -0.04008816 -0.050232112 -0.035663463 0.061547942 -0.04686465
-0.037107598 -0.020304512 0.032982066 -0.01622494 0.008327388 -0.0155176185 -0.06173216 -0.06675276
0.04040259 0.029745549 -0.037633114 0.019646786 -0.055972848 0.06557046 0.041399106 0.040837802
-0.008080764 -0.002493471 0.012330987 0.05480185 -0.09846815 -0.13751861 -0.20697209 0.18686123
-0.029333824 -0.041637015 -0.020903189 -0.06283822 0.17666927 0.06900413 0.030501908 -0.08906211
0.063143834 -0.01551163 -0.035185035 0.07246403 0.050241813 0.02188909 0.012044877 0.039419234
00000000: 68da 4abd d9bf 31bd c016 50bb 4899 333d
00000010: 4016 ee3b 80cb c5bb d47e 71bc 1894 973c
00000020: 0853 423d 9080 663c c5e9 41bd b0e9 843b
00000030: 9719 38bc 4213 4ebd a11a b33b 86d7 6cbd
00000040: 092b c1bc 7e04 973c c23d aa3c 6b7d 7a3d
00000050: ce3a ac39 531c 663c dd0a 813d 727c 9ebc
00000060: 6069 6ebd 85b6 55bd c53f 98bc 908f 063d
00000070: c625 6b3d c906 863d e24b 98bc 7bb3 14bd
00000080: e494 b43c 83ab 5dbd 00b3 333b 5e65 453d
00000090: d4de 86bd 0279 143d 297e 3abd 2c1b 27bd
000000a0: 60ed 363d 05d0 18bd 3f6c 0d3d 03c6 713d
000000b0: 2c2e ba3c 28d7 eebb 7010 41bd f827 003d
000000c0: 039f 503d effb 3e3c 5d4b 80bd eb21 6ebc
000000d0: 0035 f7b9 14b7 d93c 58e9 d33c 64f9 683d
000000e0: 9277 cc3c d128 f93c ec75 17bc f282 37bd
000000f0: d067 f93b 22f2 753d 4008 ba3c 82a1 263d
00000100: acc3 1e3d e043 683c 5600 21bd b28a 1d3d
00000110: febc 95bc 4829 133d c740 833d f287 edbc
00000120: d497 1cbd 0ce6 d63b e5a2 1ebd ea59 263c
00000130: 89f2 133d 8473 043d ad97 76bc c2e2 7f3d
00000140: 0024 36b9 c4e4 d83c d6bf e1bc c1ef 2ebd
00000150: ac21 91bd b82d 81bd 3ded fabc cb86 673c
00000160: 07e9 dc3c 46b9 31bd fa3d c0bc 6aee 4a3d
00000170: 53dc d7bc 9194 37bd 0292 6cbd e553 823c
00000180: cced dc3c cc93 03bc 103e 733d f8b3 093c
00000190: 5595 d1bb aafe 3dbd a3ff c33b baab b9bc
000001a0: 58f3 c23c 3c2e ee3c 406a c7bb d793 77bd
000001b0: 718b bc3c 4c73 62bb c31d 0d3d 31d5 aabc
000001c0: 8beb 39bd 0279 113d e8f7 1e3c a8a6 a3bb
000001d0: d051 3abd 0474 58bd 48e1 413d 5d16 3abd
000001e0: d26b 133d 1097 863c 97ad 29bd 1fb0 073d
000001f0: 424c 913b 7b0a 28bd 66bb 643d 701b 6b3d
00000200: fd7d 843a a8ef 1f3c 56d3 55bd fe78 5e3c
00000210: 1b6a 113d 1215 8abd c807 323d 5fae 8abd
00000220: cf11 87bd 9029 0abd 2c42 f13c 2af4 8fbc
00000230: 0756 1fbb 5b75 823d 06da 433d d606 babc
00000240: 0226 77bc 64e3 6abc 488c 0a3d 279a c2bc
00000250: 9610 4d3d 40e9 e03b 9dbb 843d 757c 02bd
00000260: fe77 6bbd 9ba4 993c 0e6a 45bc dc31 ff3b
00000270: 5441 fa3b 7419 00bd 8b88 40bc e026 0fbd
00000280: e449 1cbd ba1f 783d 0011 f0b9 82cc 673d
00000290: d77f 00bd 9c65 533d 2c8e ff3c d82f 9e3c
000002a0: 0efc e83b a186 ef3c 7968 2c3c 24bf a2bc
000002b0: 3c21 853c 7e26 063d 9e3e 84bc d253 0d3d
000002c0: 2f76 8e3b 36f2 31bd 905f 6abc 199d e6bc
000002d0: 606d 5f3c 1339 d5bc d107 1fbd 1db1 743d
000002e0: 217c c73c 5195 82bc f479 61bd 8d4c f6bc
000002f0: bc26 343d 1def 7bbd e6c2 55bd f4db 523d
00000300: 007d da3a 0a77 103d 36ff 093d 009e 2c3c
00000310: 302d abbc 844f e03c 59b4 803d 8cd7 fcbc
00000320: 4c02 103d 9080 563d 925d 253d 6efa 7a3d
00000330: 8a97 4ebd f675 1b3d 5494 6e3d c700 aa3c
00000340: aa14 0dbd 00ea 50bb b075 1ebd 7c33 24bd
00000350: 30c0 4dbd da13 12bd b219 7c3d 26f5 3fbd
00000360: 23fe 17bd a655 a6bc 3418 073d 2aea 84bc
00000370: 996f 083c 9c3d 7ebc ddda 7cbd acb5 88bd
00000380: 307d 253d f0ac f33c 2e25 1abd 4cf2 a03c
00000390: c943 65bd ce49 863d 1c92 293d 8a45 273d
000003a0: 2e65 04bc 8069 23bb e807 4a3c e877 603d
000003b0: aba9 c9bd aed1 0cbe 7ef0 53be 8d58 3f3e
000003c0: 7d4d f0bc 938b 2abd 2a3d abbc 53b1 80bd
000003d0: cae8 343e 0a52 8d3d 23df f93c 3266 b6bd
000003e0: 8e51 813d 7e24 7ebc 2f1e 10bd 0568 943d
000003f0: 5cca 4d3d c050 b33c e057 453c 1076 213d

fc1.bias f4 [128]
0.05992245 0.056506235 -0.062377073 0.046786577 0.06727096 -0.032855857 -0.038301982 0.06549325
-0.03278571 -0.0319341 0.028608657 -0.021726394 -0.056558434 0.006266805 0.0023047638 -0.025309626
0.013806397 0.03933792 0.040512063 0.041505847 -0.036356173 0.016027458 -0.031480417 0.063505724
0.06414203 -0.004495261 -0.028374074 -0.020801326 -0.023046175 -0.06493603 0.02124094 -0.010630961
0.0059433803 0.027999917 -0.017594058 -0.024104353 0.043410785 -7.652327e-06 -0.0032398258 0.006548345
-0.006864745 0.025848005 -0.025224485 -0.048743393 -0.00014144927 -0.022000212 -0.001111742 0.02451955
-0.043813184 0.028049024 0.04449421 0.0062771696 0.011533462 -0.021245599 0.053452764 -0.020025339
-0.0604775 0.053378724 -0.053412877 -0.021930914 0.026329383 -0.0055673644 -0.06331389 0.04671232
0.039259765 -0.055094354 -0.016603658 0.013781128 0.013829992 0.010435497 0.036109604 0.01209662
0.02501609 0.020737207 0.06552109 -0.016070606 0.014124515 0.073907204 0.007570146 0.007972442
-0.02223758 0.06270599 0.025297761 0.03552304 -0.0629108 -0.045666963 0.0071437913 0.04504358
0.0033819159 -0.05460859 0.007660164 0.052164383 0.029705321 -0.05105047 0.00515538 0.036524113
0.0092338 -0.051653184 0.047779635 -0.042936135 -0.05831331 0.048407823 0.036899593 0.0019270044
0.018054059 0.08774802 -0.050606363 -0.008895888 0.037148543 -0.023203049 -0.021590983 -0.016189344
0.073460735 0.019015862 0.00453799 -0.055281155 -0.070367336 -0.055303622 0.07028599 0.06345825
0.008172287 0.06951087 0.006380311 0.022192486 0.034986354 0.049496442 -0.008156285 -0.048210848
00000000: 3e71 753d 1573 673d 1a7f 7fbd 48a3 3f3d
00000010: 5bc5 893d dd93 06bd 8ae2 1cbd 5321 863d
00000020: 4f4a 06bd 55cd 02bd b45c ea3c 8dfb b1bc
00000030: d1a9 67bd c559 cd3b 850b 173b 2256 cfbc
00000040: 3a34 623c cc20 213d faef 253d 0902 2a3d
00000050: 36ea 14bd 044c 833c 9cf1 00bd 4a0f 823d
00000060: e65c 833d fb4c 93bb bf70 e8bc 8b67 aabc
00000070: 55cb bcbc 2efd 84bd 7b01 ae3c 7b2d 2ebc
00000080: b0c0 c23b 1560 e53c 6a21 90bc 7e76 c5bc
00000090: 82cf 313d 7f62 00b7 4253 54bb 8093 d63b
000000a0: a8f1 e0bb 32bf d33c 94a3 cebc 27a7 47bd
000000b0: 0052 14b9 ca39 b4bc dfb7 91ba 39dd c83c
000000c0: 7475 33bd 11c7 e53c 903f 363d b7b0 cd3b
000000d0: d9f6 3c3c 400b aebc 49f1 5a3d 2e0c a4bc
000000e0: 41b7 77bd a6a3 5a3d 76c7 5abd 76a8 b3bc
000000f0: b8b0 d73c 706e b6bb b6aa 81bd 6b55 3f3d
00000100: d9ce 203d 9eaa 61bd 6504 88bc 3eca 613c
00000110: 3197 623c a6f9 2a3c aae7 133d e730 463c
00000120: 8bee cc3c 13e1 a93c ec2f 863d 81a6 83bc
00000130: 826a 673c a95c 973d fd0e f83b d89e 023c
00000140: 962b b6bc 006c 803d 403d cf3c 9b80 113d
00000150: 61d7 80bd 480d 3bbd 7716 ea3b 9e7f 383d
00000160: 22a3 5d3b 42ad 5fbd 1d02 fb3b 52aa 553d
00000170: 9358 f33c 4c1a 51bd 76ee a83b 4f9a 153d
00000180: 5d49 173c 4a92 53bd 94b4 433d cddd 2fbd
00000190: f0d9 6ebd 4847 463d 0724 173d 8a93 fc3a
000001a0: 1be6 933c 3cb5 b33d 9e48 4fbd 0fc0 11bc
000001b0: 1229 183d 5214 bebc 93df b0bc 849f 84bc
000001c0: 9572 963d 27c7 9b3c 6bb3 943b 7e6e 62bd
000001d0: c01c 90bd 0d86 62bd 1af2 8f3d 66f6 813d
000001e0: 0ee5 053c b75b 8e3d ee11 d13b 04cd b53c
000001f0: da4d 0f3d c8bc 4a3d f0a1 05bc bd78 45bd

fc2.weight f4 [64, 128]
0.0054175137 -0.13209917 -0.01742971 -0.08562814 -0.18445024 0.037686966 0.053013153 -0.11782411
0.07101007 -0.023276992 0.18118808 0.03355336 0.3899922 -0.008831872 0.19187742 -0.08061749
0.032462467 0.14581156 -0.06807874 0.78808445 -0.07658487 -0.0032081506 -0.18461247 -0.117335506
-0.21811204 -0.032782577 0.0422607 -0.26409572 -0.077807225 -0.056349155 -0.13702129 0.118285045
0.08285404 -0.1350404 0.17696421 -0.053540036 1.1938647 -0.11673732 -0.09473437 0.014723748
-0.025904592 0.22462696 0.017126095 -0.112053975 -0.04542426 -0.058797058 -0.027902955 0.025276102
0.029371733 -0.033486437 0.05934108 0.1364387 -0.16163304 -0.047146216 0.08480003 0.057590745
0.057907276 0.41322222 -0.006683839 0.06371076 0.12835531 0.039603718 0.06572402 -0.6424796
0.16135722 0.0847925 -0.08902065 0.009848713 0.17059451 -0.012118405 -0.30851254 0.009318825
0.004636613 0.014990602 -0.028634207 0.02708998 0.25994852 -0.17801465 -0.05462893 0.08635626
0.057143547 0.0045298343 -0.019295111 -0.2175852 -0.029205952 0.07078316 -0.011505698 0.27986872
-0.164606 -0.0053894217 0.073091306 0.14515066 0.120296344 -0.10409776 0.26692033 -0.04398271
-0.08663606 0.58323574 -0.018272579 0.09621356 -0.056736685 1.4969661 0.63359916 -0.11581392
0.13702637 0.013436586 0.07870265 0.056176413 0.006975304 0.07579162 0.20053492 0.19394895
0.07929142 -0.046443656 -0.2583786 0.06571541 0.88239497 -0.024269238 0.104706876 -0.008264562
-0.2211895 0.090662494 -0.07727897 -0.2457539 -0.21130063 -0.03227925 0.0866246 0.03344515
-0.053459357 -0.090973325 -0.010523424 -0.08342844 -0.026496561 0.032815523 0.060491107 -0.032724574
0.05041591 -0.043751653 -0.016953817 -0.064508475 0.055117596 0.02109284 -0.064140424 0.04230032
-0.016643623 0.06456228 0.056755222 0.04495906 0.0699065 0.0495267 0.025454178 -0.08887581
0.032192823 -0.04183173 0.032069787 0.035987586 0.012038127 0.037968732 0.03772384 0.056580573
-0.0058537945 -0.066902146 -0.0129347695 -0.08591998 -0.065526724 0.03830718 -0.001136855 -0.06499046
0.035273932 0.07787314 -0.079272896 -0.06800602 -0.045642056 -0.08389942 -0.0040763435 -0.09357434
-0.08391819 -0.034449946 0.06214171 0.0071624387 0.026400372 0.06603492 0.051792834 -0.07857694
-0.0060242712 0.07693013 0.03474796 0.068693645 0.013126912 -0.07044297 0.018532373 -0.011409127
-0.06469743 -0.01718196 -0.059823237 0.071414575 -0.07209487 -0.08464317 0.021003857 0.008770473
0.08297815 0.045281436 -0.087711684 -0.030123062 0.020087725 -0.049412485 0.07699216 -0.05861905
-0.028680403 0.015032461 -0.065323174 -0.015400105 -0.0445862 -0.0005624518 0.08581983 -0.024201935
-0.07536338 -0.06213908 -0.023864545 0.054014597 0.013532533 -0.08271006 -0.062818736 0.026475005
0.07811072 -0.07362071 -0.07595333 -0.04763286 -0.002756901 -0.044931732 -0.04573641 0.055444766
0.07963654 -0.02094253 -0.047606308 0.043824453 0.030103017 0.053010248 -0.08364327 0.078062735
-0.00094988925 -0.0022514388 0.068176106 0.07848927 0.06713698 0.05556891 -0.049920946 0.025425293
-0.008631995 -0.08797721 -0.008146713 -0.009430328 -0.037754 -0.08163012 0.051427804 -0.041278854
00000000: 6685 b13b 0145 07be c0c8 8ebc ce5d afbd
00000010: 86e0 3cbe a65d 1a3d 5224 593d c44d f1bd
00000020: ba6d 913d 64af bebc 5e89 393e 3f6f 093d
00000030: 0fad c73e 8eb3 10bc 847b 443e c81a a5bd
00000040: 5df7 043d a04f 153e de6c 8bbd e7bf 493f
00000050: 87d8 9cbd d63f 52bb 0d0b 3dbe 994d f0bd
00000060: c358 5fbe 0647 06bd 8e19 2d3d 8e37 87be
00000070: 6559 9fbd 5fce 66bd 4f4f 0cbe 6e3f f23d
00000080: 61af a93d 0848 0abe 1b36 353e cc4c 5bbd
00000090: 8fd0 983f fa13 efbd 1804 c2bd e03b 713c
000000a0: de35 d4bc 9c04 663e 064c 8c3c 8e7c e5bd
000000b0: ca0e 3abd 2fd5 70bd bd94 e4bc d40f cf3c
000000c0: fd9c f03c 1329 09bd a20f 733d 96b6 0b3e
000000d0: 2283 25be 641c 41bd a3ab ad3d 46e4 6b3d
000000e0: 2e30 6d3d dd91 d33e 1b04 dbbb c97a 823d
000000f0: 936f 033e 8237 223d 519a 863d 8b79 24bf
00000100: d43a 253e b1a7 ad3d 7550 b6bd 7f5c 213c
00000110: 54b0 2e3e 468c 46bc 5bf5 9dbe fcad 183c
00000120: bbee 973b 249b 753c 4992 eabc ceeb dd3c
00000130: f917 853e 7949 36be 96c2 5fbd 8ddb b03d
00000140: 5a0f 6a3d 016f 943b c810 9ebc a8ce 5ebe
00000150: 5241 efbc c3f6 903d 6582 3cbc f44a 8f3e
00000160: 7a8e 28be bf99 b0bb e5b0 953d 60a2 143e
00000170: ee5d f63d 3531 d5bd c8a9 883e 3727 34bd
00000180: 3f6e b1bd f04e 153f 60b0 95bc 9d0b c53d
00000190: ba64 68bd 969c bf3f 8e33 223f d92f edbd
000001a0: a450 0c3e 2025 5c3c db2e a13d 3d19 663d
000001b0: 1791 e43b a338 9b3d 0759 4d3e 8e9a 463e
000001c0: 8a63 a23d b43b 3ebd 334a 84be cd95 863d
000001d0: a3e4 613f 48d0 c6bc 8f70 d63d 1668 07bc
000001e0: 807f 62be 42ad b93d 7044 9ebd e9a6 7bbe
000001f0: 315f 58be 3f37 04bd 3d68 b13d c8fd 083d
00000200: 33f8 5abd 3950 babd 706a 2cbc 88dc aabd
00000210: 510f d9bc 9269 063d 86c5 773d 340a 06bd
00000220: ea80 4e3d ef34 33bd bbe2 8abc 051d 84bd
00000230: fdc2 613d e4ca ac3c 0e5c 83bd 1a43 2d3d
00000240: 3558 88bc 3b39 843d 2a78 683d fe26 383d
00000250: 242b 8f3d 82dc 4a3d 4885 d03c 8504 b6bd
00000260: 9fdc 033d c057 2bbd 9c5b 033d b867 133d
00000270: 903b 453c 1a85 1b3d 5084 1a3d 08c1 673d
00000280: 30d1 bfbb fe03 89bd 5bec 53bc d1f6 afbd
00000290: e032 86bd fde7 1c3d 8602 95ba b819 85bd
000002a0: 667b 103d f47b 9f3d d459 a2bd bd46 8bbd
000002b0: 2af3 3abd 76d3 abbd d992 85bb e7a3 bfbd
000002c0: 4ddd abbd 631b 0dbd 4e88 7e3d e4b2 ea3b
000002d0: 9845 d83c 513d 873d b924 543d f2ec a0bd
000002e0: 4067 c5bb 8b8d 9d3d e053 0e3d 41af 8c3d
000002f0: 4212 573c 6744 90bd 34d1 973c 59ed 3abc
00000300: 1680 84bd 2fc1 8cbc 3609 75bd ce41 923d
00000310: 7aa6 93bd 6659 adbd 4810 ac3c 08b2 0f3c
00000320: 73f0 a93d 0779 393d 2fa2 b3bd a4c4 f6bc
00000330: 038f a43c bf64 4abd 11ae 9d3d 871a 70bd
00000340: 2af3 eabc b64a 763c 28c8 85bd b950 7cbc
00000350: 05a0 36bd 8071 13ba 4fc2 af3d 2343 c6bc
00000360: 1e58 9abd 8c85 7ebd 947f c3bc 693e 5d3d
00000370: 8fb7 5d3c e463 a9bd 1ca7 80bd 1ce2 d83c
00000380: 83f8 9f3d 74c6 96bd 6b8d 9bbd ac1a 43bd
00000390: 20ad 34bb 560a 38bd 1a56 3bbd 0d1a 633d
000003a0: 7b18 a33d ab8f abbc d5fe 42bd 4581 333d
000003b0: 9a9a f63c 4621 593d 2a4d abbd 5bdf 9f3d
000003c0: fd01 79ba e08c 13bb ea9f 8b3d fbbe a03d
000003d0: 1d7f 893d 3a9c 633d e879 4cbd b448 d03c
000003e0: 366d 0dbc 652d b4bd ca79 05bc aa81 1abc
000003f0: f0a3 1abd b12d a7bd f6a5 523d 0414 29bd

fc2.bias f4 [64]
-0.05483452 -0.0907272 -0.0072262534 0.07219744 0.07486992 0.0890331 -0.05047563 -0.060626537
-0.037497643 -0.06657099 0.016486313 -0.019261563 -0.028273042 0.049242154 0.0997468 0.06832715
-0.053795066 -0.030083882 0.09049479 0.08931776 0.06841836 -0.07834458 0.108969726 0.056284867
0.075748816 -0.058194008 0.04574312 -0.059181694 -0.053309564 0.108527996 -0.04322783 -0.05195658
-0.045027684 0.057573505 -0.017113572 -0.020257616 0.034231383 0.03796298 -0.0050591514 -0.04951308
-0.027246049 0.06769758 0.087776005 -0.05546353 0.051034547 -0.008710672 0.1036725 0.12199815
0.011863287 0.038526572 0.012315764 -0.069723874 -0.003068298 0.031877533 0.07484734 0.054701507
0.0014765575 0.05431727 -0.00072636554 0.011430047 -0.061186187 -0.080557816 0.11008211 -0.048319023
00000000: 299a 60bd 2fcf b9bd 35ca ecbb 40dc 933d
00000010: 6755 993d fc56 b63d 89bf 4ebd 8853 78bd
00000020: 2197 19bd 5f56 88bd 4e0e 873c 6dca 9dbc
00000030: de9c e7bc 24b2 493d 0d48 cc3d 1bef 8b3d
00000040: 3758 5cbd 7972 f6bc 5555 b93d 3bec b63d
00000050: ed1e 8c3d 2073 a0bd 852b df3d f68a 663d
00000060: 3222 9b3d d75c 6ebd 235d 3b3d 8168 72bd
00000070: 215b 5abd ed43 de3d aa0f 31bd 6cd0 54bd
00000080: f36e 38bd 32d2 6b3d c331 8cbc 4df3 a5bc
00000090: 3536 0c3d 127f 1b3d 3dc7 a5bb 3ace 4abd
000000a0: 1b33 dfbc 07a5 8a3d e8c3 b33d ba2d 63bd
000000b0: 9a09 513d 35b7 0ebc 3f52 d43d 2bda f93d
000000c0: 3b5e 423c 0ace 1d3d 0fc8 493c 64cb 8ebd
000000d0: 8015 49bb 0492 023d 9049 993d b00e 603d
000000e0: 0c89 c13a c97b 5e3d 9169 3eba 1845 3b3c
000000f0: 5e9e 7abd 7ffb a4bd bb72 e13d 2bea 45bd

fc3.weight f4 [10, 64]
0.06397661 0.017230337 0.25963047 0.46151376 -0.060859077 0.1814556 0.15456176 0.24688956
-0.44390333 0.013239056 0.16992573 0.31675526 0.11192697 -0.38170633 -0.3346089 0.03471921
-0.10614365 0.15960273 -0.38218498 -0.2642553 -0.10424126 -1.9924777 0.11649349 0.05493869
0.031252604 0.14082856 -0.12500551 0.25277787 0.5617504 0.08032684 0.44441837 -0.08804305
-0.22643356 -0.23462063 0.08258005 0.07949682 0.19117111 -0.19859289 0.023434991 0.10745281
0.13136062 -0.29119968 -0.21936205 -0.10810953 -0.21695495 -0.3887447 -0.0047988184 0.4515479
0.44127372 -0.11355264 0.11055533 -0.11135229 0.023082107 0.07206598 -0.25849137 -0.2579197
-0.055223215 -0.14192201 0.11727156 -0.023225784 0.5663516 -0.2051183 0.2606478 0.19010879
0.18622272 0.11532303 0.054269828 0.0014232579 0.42066824 -0.21735592 0.068037756 -1.2418488
0.10392041 0.038289458 0.024302829 -0.44549757 0.004983753 -0.41619486 -0.19708402 0.25959688
-0.019340992 0.08598036 -0.3180265 -0.29593477 0.27525368 -0.44792715 -0.19778761 -0.071460865
0.028831825 0.051672243 0.23993157 0.13247953 -0.31765464 0.33876896 -0.22048926 -0.05406639
-0.037659205 -0.45270228 0.31843805 -0.17172371 0.2142717 0.08492496 0.07384761 0.47883385
-0.24167302 0.291711 0.1842466 0.011683086 -0.29902607 -0.083775625 -0.29796615 0.112544045
-1.0942082 0.10023969 0.12748387 0.10015794 -0.08773041 -0.113139756 0.2871986 -0.23671517
-0.11623361 -0.34147492 -0.4995087 -0.04530914 -0.89906365 0.042994514 -0.12796305 -0.17856146
-0.21487382 0.08508384 -0.8330491 -0.895372 0.098624535 -0.5797988 -0.21326339 -0.7197805
0.2842506 0.07514852 0.2013342 0.12505044 -0.04570602 -0.111533955 0.1669154 0.2083781
-0.06033364 -0.46490228 0.140441 0.058934387 0.108288646 -0.17408405 -0.77304834 -0.5785018
0.16429296 -0.57025623 -0.11042169 0.10998288 -0.94807965 0.031436916 -0.4637377 -0.08796376
0.22882372 -0.116841294 -0.17622946 -0.34113213 -0.041465633 0.115967475 0.06269912 0.43682954
-0.021203605 0.24162525 -0.6203439 -0.034929838 0.0035151744 0.18139546 0.10006986 0.13477737
0.1634711 0.16953322 0.12359285 -0.06041475 0.09478912 0.037789207 -0.15569168 -0.32029617
0.066916525 -0.015289675 -0.052751187 0.08942199 0.11078584 0.18507943 -0.5455313 -0.23688874
-0.9502371 -0.099233836 -0.8854393 -1.1230297 -0.3284735 -0.8756187 -0.4918014 -0.1894966
0.014098607 -0.01654166 0.12332012 -0.18815759 -0.09824951 0.15018305 0.17824721 0.032570675
0.07808085 -0.22075413 -0.084623806 0.2073078 -0.16163093 -0.0022033148 -0.2642375 -0.90388876
-0.049298152 -0.5292748 -0.13442758 -0.089407645 -0.15693949 -0.0137813715 -0.8463504 -0.09216799
0.22043018 0.15105283 -0.850264 0.118661016 -0.54886264 0.16794312 0.08082427 -0.75190157
0.14392985 -0.10342398 -0.24029236 -0.10695723 0.062284872 0.15104279 0.26147455 0.22937202
-0.15497921 0.19054562 0.11993834 0.11890299 -0.03325826 0.10870369 -0.23439595 -0.026387747
0.014884328 0.13805504 0.048399687 -0.04862359 -0.5925187 0.069843225 -0.7755478 -0.2779417
00000000: 2b06 833d a326 8d3c 49ee 843e 884b ec3e
00000010: 5e47 79bd 7fcf 393e 7045 1e3e 9ed0 7c3e
00000020: 4c47 e3be a0e8 583c 0301 2e3e bf2d a23e
00000030: f839 e53d 036f c3be dc51 abbe bb35 0e3d
00000040: d861 d9bd e66e 233e c0ad c3be 784c 87be
00000050: 717c d5bd 8209 ffbf 2494 ee3d 6407 613d
00000060: bb02 003d 5d35 103e 7201 00be 1a6c 813e
00000070: e0ce 0f3f 6682 a43d ce8a e33e ea4f b4bd
00000080: 33de 67be 6440 70be bb1f a93d 3bcf a23d
00000090: 5cc2 433e ef5b 4bbe bdfa bf3c 3810 dc3d
000000a0: 6683 063e 2018 95be 72a0 60be 8768 ddbd
000000b0: 7029 5ebe 8c09 c7be 683f 9dbb 4931 e73e
000000c0: a1ee e13e 498e e8bd d56a e23d ab0c e4bd
000000d0: b016 bd3c 5497 933d fb58 84be 0d0e 84be
000000e0: bd31 62bd 0154 11be 122c f03d 0044 bebc
000000f0: 6bfc 103f 880a 52be a173 853e e1ab 423e
00000100: 2bb1 3e3e 7b2e ec3d 0a4a 5e3d 9c8c ba3a
00000110: d461 d73e 8d92 5ebe 6157 8b3d e7f4 9ebf
00000120: 39d4 d43d 68d5 1c3d ba16 c73c 4218 e4be
00000130: c04e a33b 7e17 d5be 65d0 49be e2e9 843e
00000140: 0071 9ebc 7916 b03d 5fd4 a2be c384 97be
00000150: 0dee 8c3e b556 e5be d688 4abe 135a 92bd
00000160: b830 ec3c 46a6 533d 9fb0 753e b7a8 073e
00000170: a1a3 a2be 2073 ad3e f0c7 61be b874 5dbd
00000180: 8a40 1abd 98c8 e7be 500a a33e 57d8 2fbe
00000190: 0a6a 5b3e 23ed ad3d 6a3d 973d b629 f53e
000001a0: 2279 77be 255b 953e 24ab 3c3e 6a6a 3f3c
000001b0: f219 99be 8e92 abbd 058f 98be 7e7d e63d
000001c0: 040f 8cbf 774a cd3d 228b 023e 9b1f cd3d
000001d0: 00ac b3bd d1b5 e7bd b20b 933e 7665 72be
000001e0: e30b eebd cdd5 aebe 9bbf ffbe 1496 39bd
000001f0: 0929 66bf 041b 303d bf08 03be d1d8 36be
00000200: e207 5cbe 7040 ae3d b542 55bf 1937 65bf
00000210: a9fb c93d b26d 14bf b861 5abe 8943 38bf
00000220: 4b89 913e 78e7 993d 8d2a 4e3e 390d 003e
00000230: 3c36 3bbd ea6b e4bd dfeb 2a3e 1261 553e
00000240: 6820 77bd ac07 eebe c4cf 0f3e 2f65 713d
00000250: 70c6 dd3d 1743 32be 7fe6 45bf b218 14bf
00000260: 6a3c 283e 50fc 11bf c424 e2bd b43e e13d
00000270: 59b5 72bf ffc3 003d 076f edbe 5826 b4bd
00000280: c450 6a3e 7d4a efbd 7f75 34be dfa8 aebe
00000290: ded7 29bd 5b80 ed3d 6568 803d 1fa8 df3e
000002a0: 2fb3 adbc 9c6c 773e dcce 1ebf 9712 0fbd
000002b0: d75e 663b bbbf 393e 6df1 cc3d 1403 0a3e
000002c0: f864 273e 1e9a 2d3e 401e fd3d 7575 77bd
000002d0: cc20 c23d dbc8 1a3d a46d 1fbe dcfd a3be
000002e0: 880b 893d 8c81 7abc a111 58bd e022 b73d
000002f0: b0e3 e23d 7685 3d3e f0a7 0bbf f692 72be
00000300: bd42 73bf 1c3b cbbd 26ac 62bf 70bf 8fbf
00000310: ae2d a8be 8c28 60bf 65cd fbbe 660b 42be
00000320: d8fd 663c 6082 87bc 428f fc3d 62ac 40be
00000330: 0a37 c9bd 96c9 193e 7086 363e d468 053d
00000340: dae8 9f3d 5f0d 62be 3f4f adbd 7f48 543e
00000350: 9482 25be 7d65 10bb 234a 87be 4165 67bf
00000360: dcec 49bd 8e7e 07bf 62a7 09be 5b1b b7bd
00000370: bfb4 20be 43cb 61bc 6baa 58bf 92c2 bcbd
00000380: 73b8 613e 98ad 1a3e e7aa 59bf 8c04 f33d
00000390: 4382 0cbf 48f9 2b3e 3287 a53d 9f7c 40bf
000003a0: 5962 133e f4cf d3bd 330f 76be 640c dbbd
000003b0: 6c1e 7f3d f6aa 1a3e fedf 853e 80e0 6a3e
000003c0: dfb2 1ebe 641e 433e 3ba2 f53d 6983 f33d
000003d0: d039 08bd 0aa0 de3d 7e05 70be 1e2b d8bc
000003e0: 65dd 733c 4d5e 0d3e c03e 463d 8829 47bd
000003f0: 4eaf 17bf f709 8f3d 4d8a 46bf 604e 8ebe

fc3.bias f4 [10]
-0.023240963 -0.03505774 0.04925557 0.093112774 0.07553549 -0.073305815 -0.0456283 0.06753491
0.07330823 -0.1200657
00000000: d563 bebc b498 0fbd 35c0 493d e9b1 be3d
00000010: 5ab2 9a3d 5c21 96bd bee4 3abd be4f 8a3d
00000020: a022 963d 01e5 f5bd
